MNIST_target_model.pth (torch_old, 334954 bytes, 6 tensors)

conv1.weight f4 [32, 1, 5, 5]
0.14710362 0.025944818 0.08431053 0.096937634 0.058183666 0.05181992 0.2665459 0.26004517
-0.09050978 -0.1478045 0.29675773 0.304548 0.10032483 -0.26683918 -0.050248016 0.18861413
0.38656995 -0.17052273 -0.35688728 -0.34131444 0.25954956 0.3205203 -0.28908423 -0.2176487
-0.07102408 -0.25049967 0.1454817 -0.08569808 0.11612104 -0.15397325 -0.24859133 0.22727479
0.22052275 -0.22676282 -0.14463016 -0.17061828 0.30816096 0.01834825 0.052861806 -0.29137456
-0.27423486 0.049313 -0.08140242 0.25302553 0.11405587 0.0756771 0.30829656 0.09380308
0.3672125 0.28216064 0.20096192 -0.000670618 0.2661872 0.19366424 0.21751955 0.10307712
-0.030417174 0.3371404 0.41688427 0.40120056 0.18190604 0.058250554 -0.050590962 9.24516e-05
0.026022755 -0.035522074 -0.0052498034 -0.37460667 -0.34902924 0.10551034 -0.23671825 -0.060567904
-0.42351592 -0.2803383 -0.13745844 -0.28013578 -0.24799073 0.12625067 0.017528888 0.10175696
-0.139895 0.24599451 0.18652661 0.17297517 0.09821295 0.18726158 0.3681616 0.056992084
0.2636832 0.36505964 0.15777703 -0.15588193 -0.10767069 0.054768007 -0.15065484 -0.004563533
-0.11766243 -0.42744377 -0.44327828 -0.22472708 -0.17553397 0.1881432 0.2915497 -0.07788872
-0.09352506 0.13216619 0.24221219 -0.063218094 -0.041617278 0.14684631 0.05588408 0.104013674
-0.009109889 -0.11201431 0.14645407 -0.3356088 -0.45971125 -0.15780212 0.29905975 0.13287292
-0.04027385 -0.080615096 -0.011139367 0.26942354 0.13765338 0.1835083 0.23897378 0.25907847
0.12654598 0.2292302 -0.040832847 0.18459606 0.046592884 0.4226826 0.22012275 -0.27853128
-0.15715134 0.038111936 0.08693587 0.26199982 -0.19803637 -0.1737743 -0.22301148 0.25817966
0.32557347 -0.49399585 -0.45041004 -0.1946233 0.24894337 0.10215743 0.17548268 0.42366582
0.3118884 -0.008472857 0.10857712 -0.047104146 0.39177966 0.3372038 0.22909759 0.16854835
-0.32198262 -0.17516355 0.24560125 0.12779833 -0.019454911 -0.44352558 -0.123332515 -0.08954255
-0.05260184 0.0025178075 -0.2932928 -0.09719206 -0.25292394 0.072075166 0.07677345 0.13883977
-0.15511215 -0.22590454 -0.122479014 -0.083258554 0.26553637 0.085034736 0.18139082 0.23346461
0.33159834 -0.01712659 0.357548 0.31384608 0.09860585 0.33782202 0.0451071 -0.21145134
0.07599658 -0.16369976 0.0033571657 -0.35631815 -0.28691304 -0.2461331 -0.37355864 -0.19753926
0.16035347 -0.0004367258 -0.13838305 -0.25341946 -0.02217534 -0.077614985 0.3032372 -0.21358706
-0.25803024 -0.013940037 0.16295661 0.24964125 0.47519073 -0.09463215 -0.31611848 -0.1689951
0.23248626 0.37101504 0.28411484 -0.005906515 -0.21478762 -0.29390705 -0.03720808 0.21360523
0.11627385 0.06304923 0.19101219 -0.06247319 -0.06542081 0.1333721 0.23293419 0.052333083
0.20410773 -0.100649774 -0.09681481 -0.011761617 0.2984765 -0.14789727 -0.17709021 -0.064082116
0.24193068 0.32269052 0.1924085 0.08850078 -0.21293764 0.02820785 0.2867514 -0.16323332
-0.34426692 -0.21293306 0.019086663 -0.0888823 -0.3479422 0.051919814 -0.101300396 -0.35226452
00000000: 55a2 163e 3a8a d43c 00ab ac3d 3d87 c63d
00000010: ff51 6e3d 2041 543d b478 883e a424 853e
00000020: 315d b9bd 105a 17be a1f0 973e b7ed 9b3e
00000030: 1b77 cd3d 259f 88be ddd0 4dbd 1024 413e
00000040: 7fec c53e 839d 2ebe eeb9 b6be c4c0 aebe
00000050: aee3 843e 3d1b a43e d902 94be 4ddf 5ebe
00000060: 1375 91bd 7e41 80be 28f9 143e 7a82 afbd
00000070: ded0 ed3d 2aab 1dbe ba8e 7ebe b9ba 683e
00000080: b7d0 613e 8334 68be ee19 14be 8fb6 2ebe
00000090: 46c7 9d3e 124f 963c 9f85 583d 0c2f 95be
000000a0: 8368 8cbe 6efc 493d 50b6 a6bd 908c 813e
000000b0: 2096 e93d 98fc 9a3d 0cd9 9d3e d41b c03d
000000c0: 4703 bc3e 5c77 903e f6c8 4d3e 6acc 2fba
000000d0: b049 883e eb4f 463e 72bd 5e3e 191a d33d
000000e0: 702d f9bc ab9d ac3e db71 d53e 296a cd3e
000000f0: 9445 3a3e 2298 6e3d 7838 4fbd 93e2 c138
00000100: ac2d d53c 987f 11bd 8b06 acbb 72cc bfbe
00000110: f6b3 b2be ce15 d83d 4566 72be 0d16 78bd
00000120: 14d7 d8be 8088 8fbe e8c1 0cbe f56d 8fbe
00000130: 48f1 7dbe db47 013e be98 8f3c f465 d03d
00000140: a340 0fbe fce5 7b3e d500 3f3e 6720 313e
00000150: df23 c93d 80c1 3f3e ad7f bc3e 8870 693d
00000160: 7c01 873e 19e9 ba3e 4d90 213e 839f 1fbe
00000170: 7382 dcbd 6b54 603d 4345 1abe b089 95bb
00000180: 00f9 f0bd e9d9 dabe 5ff5 e2be db1e 66be
00000190: 2dbf 33be 9ca8 403e 0146 953e 1f84 9fbd
000001a0: 118a bfbd 9356 073e 7906 783e 7d78 81bd
000001b0: e176 2abd e15e 163e b4e6 643d 1f05 d53d
000001c0: a541 15bc c267 e5bd 0ef8 153e ebd4 abbe
000001d0: 465f ebbe e196 21be 5c1e 993e d70f 083e
000001e0: 31f6 24bd 8719 a5bd e481 36bc e2f1 893e
000001f0: 02f5 0c3e 9ae9 3b3e 8bb5 743e efa5 843e
00000200: 4595 013e 52bb 6a3e 5840 27bd c006 3d3e
00000210: 2ed8 3e3d db69 d83e dc67 613e a79b 8ebe
00000220: 48ec 20be 431b 1c3d 6f0b b23d d724 863e
00000230: 0cca 4abe e4f1 31be 1f5d 64be 2030 843e
00000240: 91b1 a63e 06ed fcbe 259c e6be 554b 47be
00000250: 03eb 7e3e ea37 d13d bbb1 333e baea d83e
00000260: d6af 9f3e bdd1 0abc ae5d de3d 47f0 40bd
00000270: 5897 c83e faa5 ac3e 8f98 6a3e f097 2c3e
00000280: e8da a4be 135e 33be e57e 7b3e 91dd 023e
00000290: e85f 9fbc c915 e3be c295 fcbd 1662 b7bd
000002a0: 0775 57bd cd01 253b 792a 96be a10c c7bd
000002b0: 3f7f 81be 259c 933d 663b 9d3d 032c 0e3e
000002c0: b8d5 1ebe 8553 67be 47d6 fabd 7683 aabd
000002d0: 62f4 873e b126 ae3d 84be 393e 5911 6f3e
000002e0: 42c7 a93e 104d 8cbc 8810 b73e 6fb0 a03e
000002f0: ddf1 c93d 02f7 ac3e 39c2 383d b386 58be
00000300: 18a4 9b3d e9a0 27be e503 5c3b 556f b6be
00000310: 44e6 92be 510a 7cbe 1443 bfbe bb47 4abe
00000320: b333 243e 58f8 e4b9 49b4 0dbe 32c0 81be
00000330: 0fa9 b5bc 9bf4 9ebd e841 9b3e 91b6 5abe
00000340: 8a1c 84be c164 64bc 19de 263e f5a1 7f3e
00000350: 334c f33e 80ce c1bd 48da a1be 0d0d 2dbe
00000360: e110 6e3e aff5 bd3e 8077 913e 708b c1bb
00000370: 49f1 5bbe fc7a 96be 8067 18bd 54bb 5a3e
00000380: fc20 ee3d f41f 813d b398 433e e3e3 7fbd
00000390: 58fb 85bd b292 083e 4d86 6e3e 375b 563d
000003a0: 9e01 513e 7821 cebd d846 c6bd ccb3 40bc
000003b0: e9d1 983e 6272 17be 2357 35be 7c3d 83bd
000003c0: adbc 773e b137 a53e bc06 453e e63f b53d
000003d0: 530c 5abe 2614 e73c 14d1 923e a326 27be
000003e0: c143 b0be 200b 5abe a25b 9c3c ec07 b6bd
000003f0: 7b25 b2be dfa9 543d 9576 cfbd 045c b4be

conv1.bias f4 [32]
-0.05239303 0.009627481 -0.016825344 0.013708427 0.022557389 -0.048508726 -0.0905662 -0.017589336
-0.13096404 0.05915313 -0.0012303045 0.115646146 -0.023763634 0.03685458 -0.07072146 0.004864978
-0.032056253 -0.028516522 0.09337316 0.08957717 0.039415147 -0.06927015 0.07579427 0.051184233
0.1977018 0.020785829 0.0010843705 0.12936427 -0.13719775 0.035529524 0.013487775 -0.012993182
00000000: 139a 56bd 95bc 1d3c 4ed5 89bc 4f99 603c
00000010: 46ca b83c 16b1 46bd c67a b9bd 8317 90bc
00000020: 701b 06be 8d4a 723d 2b42 a1ba e3d7 ec3d
00000030: f4ab c2bc d4f4 163d 6ad6 90bd 656a 9f3b
00000040: 6b4d 03bd 7b9b e9bc 6d3a bf3d 3c74 b73d
00000050: c771 213d 82dd 8dbd 073a 9b3d 8fa6 513d
00000060: 5772 4a3e 0b47 aa3c 7021 8e3a 1178 043e
00000070: 917d 0cbe 6887 113d d4fb 5c3c 5be1 54bc

conv2.weight f4 [64, 32, 5, 5]
0.017896445 -0.03915891 -0.10624523 -0.08549489 0.09901391 0.071868554 -0.040877137 -0.07126754
0.06992888 0.0321231 0.10396207 -0.08203678 -0.09093958 0.06666589 0.026808811 -0.034401584
-0.1522324 0.0492889 0.023137813 0.044541463 -0.08201815 -0.08946821 0.04827857 0.030732073
0.020705584 -0.016774544 -0.08675817 -0.0467902 -0.020476198 0.08482352 0.14181896 -0.07243568
0.010224677 0.037439015 0.09832644 0.06662249 0.047877192 0.01979562 0.039162558 0.08090608
0.030046606 -0.008797398 0.023603844 0.072767496 -0.019275276 0.031017343 -0.002147027 -0.0020208447
0.021322824 -0.048347272 -0.08494057 0.10488422 0.119133085 -0.08457463 -0.04084599 -0.04874199
0.012367288 -0.10336421 -0.16013497 0.046111688 0.019584117 0.080270596 -0.17126803 -0.008771267
-0.01694595 0.06347332 -0.084179744 -0.0729054 -0.008756717 0.07705857 -0.20200068 -0.22286019
0.010656187 0.030466953 0.16138357 -0.08441938 -0.037861098 -0.0454757 -0.11569076 -0.044629432
-0.015349348 -0.044740688 -0.17008096 -0.10035208 -0.026940085 0.10781941 -0.060194828 -0.12986754
-0.012801674 0.0040919394 -0.011820981 -0.3177578 -0.023672558 0.05786512 0.07866611 -0.099455796
-0.062448725 0.057248294 0.040875778 0.15167777 -0.08746778 -0.029629031 0.07823257 0.031341966
-0.062427286 -0.040636506 -0.08635668 0.040421803 0.032759916 -0.015640331 0.017515553 -0.0069848946
0.11519572 -0.089823194 0.05305137 0.14779577 0.035828065 0.024853563 0.0047996463 0.021102825
0.087928 -0.0040704594 -0.027771387 -0.05351091 -0.011974017 -0.11486338 -0.0042548385 0.10312483
0.08770794 -0.02553514 -0.043738436 -0.084095605 0.08626978 0.08087539 -0.11576346 -0.04381448
0.04304731 0.10841264 -0.1211473 -0.08342753 0.101471744 -0.0021028046 0.09390802 -0.07358754
-0.015171201 0.029548017 -0.0022327937 -0.030846799 -0.022347078 0.010941521 -0.02467314 0.09711841
0.06331961 0.09658056 0.058916766 0.08608306 -0.052901212 0.011203242 0.04209734 0.03258837
-0.05198948 -0.05653442 -0.030737875 -0.039463297 -0.09772027 -0.028321814 -0.08160489 -0.044139825
-0.0179355 -0.030941471 -0.09691061 -0.096899174 -0.11074452 0.078936644 -0.027221771 0.0033082792
0.030311897 -0.06868574 -0.0850039 -0.12000679 0.010859594 -0.0034073996 -0.18453653 -0.2019773
-0.05523223 0.0487114 -0.020182213 -0.03196242 -0.08358814 -0.11489748 -0.025369987 -0.20598839
-0.17464155 -0.11252595 0.030039981 -0.19752097 -0.21171072 -0.0472844 0.11086362 0.11584677
0.33329654 -0.08980693 0.00065166765 -0.084538855 -0.13170104 0.06520697 0.026508296 -0.1254583
-0.31355536 -0.049367316 -0.03851808 -0.119113185 -0.13161165 -0.11431927 0.03532772 -0.16350327
-0.21053623 -0.05602475 -0.06127061 0.040165044 -0.16882087 -0.1807076 -0.14555392 0.07610157
0.060634084 0.0629874 -0.03798663 -0.08275558 -0.019680168 0.068983845 0.07320983 -0.053538088
-0.08572774 0.062469445 0.077355646 0.11179734 -0.122101046 -0.07984051 0.036044843 0.07693443
-0.046483908 -0.12564069 0.0057205837 0.06656708 0.041163314 -0.072231814 0.005460407 0.025193192
0.08260111 0.027322497 -0.0016722763 -0.04046745 -0.014366439 0.014727416 -0.08551267 -0.044425867
00000000: 919b 923c 1865 20bd 1997 d9bd f217 afbd
00000010: cec7 ca3d d22f 933d c96e 27bd b7f4 91bd
00000020: df36 8f3d 8393 033d 11ea d43d e602 a8bd
00000030: 883e babd 2088 883d 279e db3c ade8 0cbd
00000040: cfe2 1bbe 28e3 493d 838b bd3c 1c71 363d
00000050: 22f9 a7bd 1c3b b7bd c0bf 453d d4c1 fb3c
00000060: c29e a93c c56a 89bc 44ae b1bd 15a7 3fbd
00000070: b3bd a7bc f4b7 ad3d fd38 113e 2859 94bd
00000080: 6785 273c a759 193d 5f5f c93d 5f71 883d
00000090: e01a 443d 6d2a a23c eb68 203d 16b2 a53d
000000a0: 4d24 f63c f622 10bc d95c c13c 2007 953d
000000b0: 2fe7 9dbc 1518 fe3c 23b5 0cbb 2670 04bb
000000c0: 34ad ae3c ca07 46bd 52f5 adbd 8acd d63d
000000d0: 0cfc f33d 7735 adbd 204e 27bd aea5 47bd
000000e0: 2aa0 4a3c 9db0 d3bd 6cfa 23be 9cdf 3c3d
000000f0: df6e a03c e964 a43d e360 2fbe 5cb5 0fbc
00000100: 3cd2 8abc 4dfe 813d 6e66 acbd 6d4f 95bd
00000110: 5578 0fbc e2d0 9d3d 44d9 4ebe 7635 64be
00000120: 4a97 2e3c d595 f93c bc41 253e 11e4 acbd
00000130: 3d14 1bbd ba44 3abd 47ef ecbd 5acd 36bd
00000140: d57b 7bbc 0342 37bd b429 2ebe 6485 cdbd
00000150: 74b1 dcbc 6cd0 dc3d da8e 76bd fffb 04be
00000160: 1dbe 51bc ad15 863b caac 41bc 26b1 a2be
00000170: f4ec c1bc fa03 6d3d b31b a13d 7baf cbbd
00000180: 3cca 7fbd 307d 6a3d 5c6d 273d 6b51 1b3e
00000190: 4f22 b3bd 95b8 f2bc 6638 a03d 6f60 003d
000001a0: c1b3 7fbd 7772 26bd c5db b0bd 5591 253d
000001b0: 432f 063d 2720 80bc c77c 8f3c 8be1 e4bb
000001c0: bceb eb3d 39f5 b7bd 654c 593d c657 173e
000001d0: 73c0 123d b399 cb3c 5a46 9d3b d5df ac3c
000001e0: 9813 b43d 7d61 85bb d280 e3bc 422e 5bbd
000001f0: ab2e 44bc 7e3d ebbd 2c6c 8bbb 1c33 d33d
00000200: 38a0 b33d 122f d1bc 1327 33bd 513a acbd
00000210: 36ae b03d ffa1 a53d 6515 edbd d076 33bd
00000220: 6052 303d 7207 de3d 131c f8bd 0edc aabd
00000230: 6bd0 cf3d 35cf 09bb d952 c03d 10b5 96bd
00000240: a190 78bc af0e f23c 1054 12bb 6db2 fcbc
00000250: 3811 b7bc 1144 333c 531f cabc 04e6 c63d
00000260: b6ad 813d 07cc c53d b552 713d 514c b03d
00000270: f1ae 58bd cd8d 373c 436e 2c3d 627b 053d
00000280: ecf2 54bd a390 67bd ffcd fbbc 44a4 21bd
00000290: 9121 c8bd 2603 e8bc 7720 a7bd f6cb 34bd
000002a0: 78ed 92bc f878 fdbc 1279 c6bd 1373 c6bd
000002b0: 06ce e2bd 89a9 a13d 3100 dfbc b7cf 583b
000002c0: a850 f83c 1cab 8cbd 8616 aebd 1fc6 f5bd
000002d0: 70ec 313c ae4e 5fbb 25f7 3cbe 23d3 4ebe
000002e0: 313b 62bd 9b85 473d 2b55 a5bc 07eb 02bd
000002f0: 4230 abbd 5f4f ebbd b8d4 cfbc 9fee 52be
00000300: 3cd5 32be 0174 e6bd 6816 f63c f042 4abe
00000310: b2ca 58be 49ad 41bd 770c e33d 1241 ed3d
00000320: d8a5 aa3e b2ec b7bd add4 2a3a b522 adbd
00000330: a3dc 06be 3b8b 853d ed27 d93c 2478 00be
00000340: 548a a0be 6235 4abd 22c5 1dbd 9df1 f3bd
00000350: 34c5 06be 3920 eabd cdb3 103d 676d 27be
00000360: cf96 57be 357a 65bd e4f6 7abd 1a84 243d
00000370: 61df 2cbe 6a0b 39be 160c 15be 24db 9b3d
00000380: 725b 783d 8aff 803d de97 1bbd c27b a9bd
00000390: 4e38 a1bc 6747 8d3d 09ef 953d c14a 5bbd
000003a0: 0692 afbd f6df 7f3d a36c 9e3d 01f6 e43d
000003b0: 1d10 fabd 6c83 a3bd c2a3 133d cc8f 9d3d
000003c0: e965 3ebd f4a7 00be bc73 bb3b 5254 883d
000003d0: dd9a 283d 46ee 93bd 37ed b23b f461 ce3c
000003e0: c52a a93d 6ed3 df3c 4830 dbba 32c1 25bd
000003f0: 3661 6bbc 434b 713c 4421 afbd e6f7 35bd

conv2.bias f4 [64]
0.05492207 -0.03206962 -0.018555721 -0.0020077361 -0.04800726 -0.022269508 -0.050013125 -0.032967128
0.018694552 0.0076566795 -0.012459626 -0.0077441987 -0.051240187 0.013779622 0.030072024 -0.024516499
-0.039034925 -0.03427205 -0.05476225 0.0006249482 -0.06256031 -0.015931537 0.016828327 -0.023732878
-0.015976017 -0.03431557 0.011483632 -0.07925048 -0.069631465 -0.038916502 -0.02026472 0.057790246
0.011361615 -0.02584628 -0.07437823 0.01221577 -0.08481747 0.0048071584 -0.023437332 -0.00603153
-0.07812491 -0.049673323 -0.057060365 0.020159865 -0.022741223 -0.10518978 -0.008008293 -0.09179192
-0.035390142 -0.055700302 -0.056046054 -0.033461343 0.03247646 -0.058414616 -0.058537576 -0.072202615
-0.00046827004 -0.10552654 0.028320491 0.014578473 0.0378636 -0.033404548 -0.08874399 0.018880254
00000000: f7f5 603d 6f5b 03bd 2b02 98bc 3994 03bb
00000010: 43a3 44bd 8b6e b6bc 90da 4cbd 8a08 07bd
00000020: 5125 993c e2e4 fa3b 7623 4cbc 0cc3 fdbb
00000030: 3be1 51bd ecc3 613c 9b59 f63c d3d6 c8bc
00000040: 16e3 1fbd d960 0cbd 624e 60bd 90d3 233a
00000050: 9f1f 80bd db82 82bc 8fdb 893c 746b c2bc
00000060: 23e0 82bc 7c8e 0cbd d825 3c3c 134e a2bd
00000070: f19a 8ebd e966 1fbd 3302 a6bc 77b5 6c3d
00000080: 1126 3a3c 94bb d3bc 9d53 98bd a724 483c
00000090: c8b4 adbd 5e85 9d3b a6ff bfbc 24a4 c5bb
000000a0: f4ff 9fbd 4176 4bbd 21b8 69bd 4d26 a53c
000000b0: cd4b babc bd6d d7bd 3735 03bc 67fd bbbd
000000c0: 41f5 10bd 0026 64bd 8c90 65bd c30e 09bd
000000d0: 0906 053d 2a44 6fbd 19c5 6fbd f7de 93bd
000000e0: 2482 f5b9 4c1e d8bd 6000 e83c 8cda 6e3c
000000f0: dd16 1b3d 35d3 08bd 69bf b5bd c3aa 9a3c

fc1.weight f4 [10, 3136]
0.024548052 0.00021342174 0.016827276 -0.028219089 0.0011981654 0.039061945 -0.042305056 -0.032090712
-0.011577075 0.013888753 -0.027799934 -0.03438866 -0.05185019 -0.05516362 -0.08799771 -0.017956164
0.013613837 0.015905352 -0.086086325 -0.07000052 -0.06964629 0.06596448 0.057694484 0.07574129
-0.022038694 0.10313619 0.14373206 -0.04395698 0.054760944 0.017939446 0.052526023 -0.005989871
0.019556178 -0.055933904 -0.07854622 -0.012955541 0.025684401 0.03907389 -0.108234316 -0.096456714
-0.04398855 -0.019723823 0.045596983 -0.06541852 -0.064627185 -0.18320037 -0.47645968 -0.1778972
-0.012811371 0.03645127 0.008369945 0.03332376 0.072628625 -0.013923913 -0.017004605 0.047432665
-0.076517925 -0.027467707 0.079389594 0.014394683 0.018479396 -0.013981322 -0.07525078 -0.031177877
0.0071518663 -0.0075754398 0.08592484 -0.17350662 -0.034486488 -0.03468501 0.014373517 0.012138272
0.013451022 -0.10034269 -0.07928889 0.031869747 -0.19724621 0.08582113 0.07484263 -0.009891776
-0.11960786 -0.034563717 0.0893718 -0.21106468 0.037306286 0.08334483 0.017277544 -0.027677353
-0.073473774 0.0268977 -0.31430072 -0.10828735 0.06859985 0.015958058 -0.05909832 -0.070037276
0.11355482 0.08906513 -0.031708162 -0.084401935 -0.06351976 -0.052462384 -0.04253699 -0.068402566
0.0365018 0.0221867 -0.06317922 -0.10576838 0.012944546 0.024664624 -0.018568711 0.04837187
0.061596803 -0.011142773 0.0712535 0.095575415 0.26281568 0.09364456 0.007884278 -0.047008228
-0.020858482 -0.060001053 0.083789326 -0.08174338 -0.04436679 -0.04534926 -0.10334212 -0.16987595
0.03218993 0.00076614314 -0.08692211 0.015285436 -0.02411968 -0.07398417 -0.034598775 -0.060060497
0.10098403 -0.17549564 -0.048138477 -0.022510232 -0.011526943 -0.014326842 0.039702717 0.16391224
-0.17620684 -0.11425019 -0.18776526 -0.02636815 -0.014677356 0.11678164 0.036050927 0.07515063
0.007384215 0.004016967 -0.04709252 0.027893746 0.10101366 0.012979507 0.083191946 -0.028890094
-0.014747237 -0.051703174 0.0350108 0.009012994 0.048901737 -0.12783307 -0.0064325253 -0.046276953
-0.050543558 0.11033535 0.032994367 -0.07444685 -0.009294007 -0.051173437 -0.016390592 0.06592442
0.034114156 -0.11682767 0.065736674 0.03154689 0.04954838 0.05078038 -0.053159557 -0.021822477
-0.06835061 0.029026067 0.059614055 0.10980558 0.018327251 0.078043975 -0.08093825 -0.02399759
0.0068180272 0.011420346 0.009993208 -0.049731433 0.07037897 -0.22005115 -0.0743026 -0.019669162
-0.021394752 -0.025272228 -0.06281741 -0.04060011 -0.02249345 -0.063774675 0.0019613404 -0.050483324
0.048020445 -0.006765466 0.06821999 -0.015046966 0.03853832 -0.0100849 -0.087396525 -0.00029037186
-0.07861855 0.03338915 0.059994765 0.0035360053 -0.07760254 0.0013686985 0.05229286 -0.051612392
0.115230694 0.085470155 -0.04578095 -0.12620474 0.035252925 0.06572918 -0.060942695 0.0564818
0.07736176 0.07987098 -0.06652701 -0.012537834 -0.08510026 -0.11008643 -0.01798492 0.08722546
0.016734444 -0.073899806 -0.31586945 -0.0664499 -0.11549663 -0.017212927 -0.024934344 -0.00974807
-0.0013428088 -0.02721483 -0.075267695 0.028426845 0.025531137 -0.048134714 -0.056557152 0.017107181
00000000: ff18 c93c f6c9 5f39 5bd9 893c b82b e7bc
00000010: c20b 9d3a 6bff 1f3d 1148 2dbd 8d71 03bd
00000020: c6ad 3dbc a78d 633c b0bc e3bc 20db 0cbd
00000030: dd60 54bd 3ff3 61bd 2538 b4bd ce18 93bc
00000040: 920c 5f3c f14b 823c 074e b0bd 6f5c 8fbd
00000050: b7a2 8ebd 6318 873d 0d51 6c3d 401e 9b3d
00000060: 7e8a b4bc 1139 d33d 7f2e 133e 3c0c 34bd
00000070: 034d 603d bff5 923c 8725 573d ae46 c4bb
00000080: 4734 a03c f31a 65bd d7dc a0bd 7a43 54bc
00000090: 1868 d23c f10b 203d f4a9 ddbd 198b c5bd
000000a0: 562d 34bd db93 a1bc e7c3 3a3d 25fa 85bd
000000b0: 425b 84bd e198 3bbe 86f2 f3be af2a 36be
000000c0: c9e6 51bc ed4d 153d 1822 093c 7f7e 083d
000000d0: 51be 943d 2021 64bc 3e4d 8bbc c148 423d
000000e0: 6eb5 9cbd f503 e1bc 0397 a23d add7 6b3c
000000f0: 1a62 973c ea11 65bc 151d 9abd bf68 ffbc
00000100: 345a ea3b 653b f8bb 5df9 af3d b8ab 31be
00000110: b441 0dbd de11 0ebd e67e 6b3c 9adf 463c
00000120: ad61 5c3c 7880 cdbd 3762 a2bd da89 023d
00000130: e9fa 49be fdc2 af3d 1847 993d 1e11 22bc
00000140: f7f4 f4bd af92 0dbd 9008 b73d 5721 58be
00000150: 7ace 183d b2b0 aa3d a389 8d3c 9ebb e2bc
00000160: 6b79 96bd 9158 dc3c 06ec a0be c2c5 ddbd
00000170: 147e 8c3d 79ba 823c 1411 72bd b46f 8fbd
00000180: 6e8f e83d c767 b63d 6be0 01bd ecda acbd
00000190: a616 82bd cce2 56bd 443b 2ebd a516 8cbd
000001a0: e982 153d e2c0 b53c 1b64 81bd 189d d8bd
000001b0: 5c15 543c 770d ca3c 691d 98bc 9521 463d
000001c0: ee4c 7c3d 2d90 36bc 5bed 913d 0bbd c33d
000001d0: c78f 863e b8c8 bf3d 0f2d 013c b38b 40bd
000001e0: 68df aabc aac3 75bd bd99 ab3d 1369 a7bd
000001f0: f4b9 35bd 25c0 39bd 09a5 d3bd f6f3 2dbe
00000200: 97d9 033d ffd6 483a 3804 b2bd c46f 7a3c
00000210: a396 c5bc 0385 97bd 72b7 0dbd ff01 76bd
00000220: b7d0 ce3d 21b5 33be da2c 45bd 6167 b8bc
00000230: 81db 3cbc 21bb 6abc 519f 223d 9cd8 273e
00000240: 916f 34be 01fc e9bd 8945 40be 0502 d8bc
00000250: 4b79 70bc 362b ef3d 23aa 133d 93e8 993d
00000260: 49f7 f13b c3a0 833b 16e4 40bd 6d81 e43c
00000270: 40e0 ce3d 00a8 543c 8a60 aa3d ebaa ecbc
00000280: 659e 71bc b5c6 53bd 7c67 0f3d 3dab 133c
00000290: 304d 483d ace6 02be efc7 d2bb e78c 3dbd
000002a0: c306 4fbd 80f7 e13d 1a25 073d 9777 98bd
000002b0: e445 18bc 3d9b 51bd 9045 86bc 6203 873d
000002c0: 49bb 0b3d 5843 efbd f3a0 863d 5037 013d
000002d0: 3ef3 4a3d 16ff 4f3d d6bd 59bd 0dc5 b2bc
000002e0: 68fb 8bbd 13c8 ed3c de2d 743d bfe1 e03d
000002f0: 0823 963c 85d5 9f3d f4c2 a5bd 9896 c4bc
00000300: c269 df3b 671c 3b3c 8dba 233c 30b3 4bbd
00000310: d922 903d 1755 61be f62b 98bd 3921 a1bc
00000320: 0c44 afbc b407 cfbc 6aa6 80bd 4d4c 26bd
00000330: 2f44 b8bc 4c9c 82bd d589 003b 9ac7 4ebd
00000340: 16b1 443d d8b0 ddbb ecb6 8b3d 8d87 76bc
00000350: 5cda 1d3d 233b 25bc f3fc b2bd 0d3d 98b9
00000360: c302 a1bd 10c3 083d 12bd 753d 53bc 673b
00000370: 15ee 9ebd e765 b33a 0a31 563d 8467 53bd
00000380: 12fe eb3d fa0a af3d ce84 3bbd d13b 01be
00000390: 5f65 103d 059d 863d 0c9f 79bd 7659 673d
000003a0: d86f 9e3d 6593 a33d 503f 88bd 7d6b 4dbc
000003b0: 0c49 aebd ff74 e1bd 1c55 93bc 43a3 b23d
000003c0: ac16 893c c858 97bd a4b9 a1be e316 88bd
000003d0: 7f89 ecbd 2002 8dbc 1c43 ccbc 5eb6 1fbc
000003e0: 3001 b0ba a3f1 debc f325 9abd 6adf e83c
000003f0: ad26 d13c e828 45bd 79a8 67bd 5c24 8c3c

fc1.bias f4 [10]
0.020801554 0.028278088 0.0049656085 -0.026932843 -0.0017849767 0.0045584147 -0.021046678 -0.025535805
0.023862043 -0.024704788
00000000: 0568 aa3c 73a7 e73c 8bb6 a23b 44a2 dcbc
00000010: e1f5 e9ba c15e 953b 156a acbc 7730 d1bc
00000020: 557a c33c b261 cabc
