models/advG_epoch_40.pth (torch_old, 358184 bytes, 49 tensors)

encoder.0.weight f4 [8, 1, 3, 3]
0	0xbe0933ef	-0.13398717
1	0xbe8983be	-0.26858324
2	0xbdf6456a	-0.120249584
3	0xbed15992	-0.4088865
4	0xbe033d78	-0.12816417
5	0x3eadd425	0.33950916
6	0xbe2e04c6	-0.16994008
7	0x3dd7c6d3	0.105359696
8	0x3f2cebd8	0.6754737
9	0xbdaf3c39	-0.085564084
10	0x3e342a9c	0.17594379
11	0x3eb1dda5	0.34739414
12	0xbe56be88	-0.2097112
13	0x3db2b003	0.08724978
14	0x3de60286	0.1123095
15	0xbed4ea42	-0.41584975
16	0xbea8976a	-0.3292802
17	0xbf13011d	-0.57423574
18	0x3e86e2ac	0.26344812
19	0x3e4061dd	0.18787332
20	0xbeddbcc5	-0.43308082
21	0x3d7c60af	0.061615642
22	0xbeca97d6	-0.39568967
23	0xbeb27d53	-0.3486124
24	0xbee9e7f1	-0.4568477
25	0xbe608d1a	-0.21928826
26	0x3e24b97f	0.16086386
27	0xbe83819f	-0.2568483
28	0xbd347bc8	-0.04406336
29	0x3eed7482	0.4637795
30	0xbeb68ee3	-0.3565589
31	0xbdad879e	-0.084731326
32	0x3e925ad4	0.2858492
33	0xbe61eac5	-0.22062214
34	0xbeaccd7d	-0.33750525
35	0xbe48993a	-0.19589701
36	0x3dcbf8f3	0.09959593
37	0xbf0f35b4	-0.5594132
38	0xbe85e100	-0.26148224
39	0xbe3bf1d4	-0.18353969
40	0xbe2233e3	-0.15840106
41	0x3e17b096	0.14813456
42	0xbf017efa	-0.50584376
43	0xbd8c34fd	-0.06846044
44	0x3e88eb5c	0.26742065
45	0xbd83dd91	-0.06438745
46	0xbe0b2d00	-0.13591385
47	0xbe2643f0	-0.16236854
48	0x3e01df86	0.12682924
49	0x3f066565	0.52498466
50	0x3ef0edb4	0.47056353
51	0x3e093b31	0.13401486
52	0x3f165398	0.58721304
53	0x3e90ebd0	0.2830491
54	0xbdb35222	-0.087559
55	0x3e5c6d8f	0.21526168
56	0x3fa20722	1.2658427
57	0xbe12d6ee	-0.14339802
58	0x3e49116f	0.19635557
59	0x3ec53427	0.38516352
60	0xbd34b185	-0.04411461
61	0x3e5432b6	0.2072247
62	0x3b899906	0.00419915
63	0x3e734575	0.23756965
64	0x3d7a2535	0.06107064
65	0x3e2cc22d	0.16870947
66	0x3e83ba56	0.257281
67	0x3e161007	0.14654551
68	0xbc6d7189	-0.014492401
69	0xbe35ca5c	-0.17752975
70	0xbf03e5b5	-0.5152238
71	0xbf0b1b1e	-0.5433825

encoder.0.bias f4 [8]
0	0x3e8d3684	0.27580655
1	0xbee6dd62	-0.45090777
2	0xbc07494c	-0.008257221
3	0xbe21818c	-0.15772074
4	0x3e12a887	0.143221
5	0x3aa06aea	0.0012238894
6	0x3e12a17e	0.14319417
7	0xbc99c3db	-0.018770149

encoder.3.weight f4 [16, 8, 3, 3]
0	0x3d6be88a	0.057594813
1	0x3ed78ec6	0.42101115
2	0x3eecdafd	0.46260825
3	0x3df7e779	0.12104697
4	0x3d664036	0.05621358
5	0xbde5f30f	-0.112280004
6	0xbee50d03	-0.4473649
7	0xbf1ab428	-0.60431147
8	0xbf1de9d4	-0.6168492
9	0xbeb504c2	-0.35355192
10	0xbe3295fb	-0.17440026
11	0x3d434fa1	0.047683362
12	0x3d666d75	0.05625673
13	0x3e317e7c	0.17333406
14	0x3ecb9403	0.3976136
15	0x3e888b24	0.26668656
16	0x3e64adf8	0.22331989
17	0x3e82430a	0.25441772
18	0xbe0b2f2c	-0.13592213
19	0xbf59f598	-0.8514037
20	0xbf5d2ca1	-0.86396223
21	0xbe83cc35	-0.25741735
22	0xbe9010bd	-0.2813777
23	0x3c89894b	0.0167891
24	0x3d9027fb	0.07038876
25	0x3e5c1d66	0.2149559
26	0x3f225049	0.63403755
27	0xbe19071b	-0.14944117
28	0xbc3d9641	-0.011571468
29	0x3d01739b	0.03160439
30	0xbe16f748	-0.14742768
31	0x3e5e37c0	0.21700954
32	0x3e5e181e	0.21688887
33	0x3d45784e	0.048210435
34	0xbd432aed	-0.04764836
35	0xbe8c7a2c	-0.2743696
36	0x3e73fd77	0.23827158
37	0x3df8a518	0.12140864
38	0xbe63bb6d	-0.22239466
39	0xbe9f8ce6	-0.31162184
40	0xbf12c3d4	-0.5733006
41	0xbf8ce453	-1.1007179
42	0xbe7ebdea	-0.24877134
43	0xbef554bd	-0.47916213
44	0xbec81a5f	-0.3908262
45	0x3e036e27	0.12834989
46	0xbcda4af8	-0.026647076
47	0x3cfcca14	0.030858077
48	0x3e5fe007	0.21862803
49	0xbc598c99	-0.01327815
50	0xbe800cc3	-0.25009736
51	0xbe3ddea7	-0.18541966
52	0xbea68d88	-0.32529855
53	0xbf08a3b6	-0.53374803
54	0xbe249137	-0.1607102
55	0xbe2f96aa	-0.17147318
56	0x3e213639	0.1574334
57	0xbd9ba3eb	-0.07599624
58	0x3c948e02	0.01813412
59	0x3e6149ae	0.22000763
60	0xba8cce57	-0.0010742646
61	0xbd956a0c	-0.072956175
62	0xbe82c074	-0.25537455
63	0x3e1c3433	0.15254287
64	0x3e72e5a8	0.2372042
65	0x3ea4514f	0.32093284
66	0x3d09592a	0.0335323
67	0x3e63620d	0.22205372
68	0x3f06860b	0.52548283
69	0x3f253dbc	0.64547324
70	0x3f398b35	0.7247804
71	0x3f25c579	0.64754444
72	0xbdba1a3c	-0.09087035
73	0xbe01df6b	-0.12682883
74	0x3de3f3ad	0.11130462
75	0x3e6f7916	0.23386034
76	0x3ec3cca6	0.38242072
77	0x3f150f14	0.5822613
78	0x3c79810d	0.015228522
79	0xbd3a2bc4	-0.045451894
80	0x3e45c0c2	0.19311813
81	0xbe641417	-0.22273289
82	0xbe01d7c3	-0.12679963
83	0x3bdac396	0.0066761477
84	0x3d39a94f	0.04532748
85	0xbec2db10	-0.38057756
86	0xbe9ca053	-0.30591068
87	0x3d939f3d	0.07208107
88	0xbe4eca58	-0.20194376
89	0xbddb0424	-0.10694149
90	0xbe3caa43	-0.18424325
91	0xbd93fb4d	-0.07225666
92	0x3e275795	0.16342004
93	0xbeaa4896	-0.33258504
94	0xbe0357d7	-0.12826477
95	0xbe735e2c	-0.23766392
96	0xbf2b393f	-0.66884226
97	0xbf11d7b1	-0.56969744
98	0xbf0dbdd2	-0.5536777
99	0x3e374133	0.17895965
100	0x3c9be648	0.019030705
101	0x3e337095	0.17523415
102	0x3e2ea4c3	0.17055039
103	0xbf1d7ab3	-0.6151535
104	0xbf12e2a6	-0.5737709
105	0xbd26bfd7	-0.040710296
106	0xbec0d90a	-0.37665588
107	0xbf0c9e66	-0.54929197
108	0xbeb1351d	-0.34610835
109	0xbe4d0174	-0.20020086
110	0xbe8f8f1d	-0.28038874
111	0xbe4e3947	-0.20139037
112	0xbe5c0fc2	-0.21490386
113	0x3ce88e73	0.028388238
114	0xbeb56b2d	-0.3543333
115	0xbe9c4882	-0.3052407
116	0xbdfae279	-0.122502275
117	0xbe8ef45f	-0.27920815
118	0xbe761ff1	-0.24035622
119	0xbeb5b84f	-0.3549218
120	0x3e84223a	0.25807363
121	0x3e9358eb	0.28778777
122	0x3eb767ce	0.35821384
123	0x3eac4f1f	0.33654115
124	0x3eddf564	0.4335128
125	0x3f01a589	0.5064321
126	0xbe9a3efe	-0.30126184
127	0xbeea75ee	-0.45793098
128	0xbdea08ea	-0.114274815
129	0xbe9197ca	-0.28436118
130	0xbf0f43e4	-0.5596297
131	0xbef2d57a	-0.47428495
132	0x3d6adb52	0.057338066
133	0xbdb52010	-0.08844006
134	0x3d195178	0.03743121
135	0x3e849247	0.2589285
136	0xbd9d5e8e	-0.076840505
137	0xbd059664	-0.032614127
138	0x3d62ee16	0.055402838
139	0xbed422a1	-0.4143267
140	0xbea4e50d	-0.32206002
141	0x3e887dab	0.26658377
142	0x3de8090b	0.1132985
143	0x3e74da5c	0.23911422
144	0xbee32b46	-0.44368953
145	0xbeda2da3	-0.42612943
146	0xbf0a49f7	-0.5401911
147	0x3b556129	0.0032559133
148	0x3e129c50	0.14317441
149	0xbdf3b2de	-0.118993506
150	0x3e716c53	0.23576479
151	0x3eef6668	0.46757817
152	0x3ebff902	0.37494665
153	0xbdab5ffd	-0.08367918
154	0x3e7e41ce	0.2482979
155	0x3f184eb2	0.5949508
156	0xbe3b45e1	-0.18288375
157	0xbe89291f	-0.26789185
158	0xbda92f38	-0.082609594
159	0xbe0a8973	-0.13528995
160	0xbf11fe86	-0.57028997
161	0xbf317039	-0.69311863
162	0xbe11365f	-0.14180897
163	0xbe73de99	-0.23815383
164	0xbe9fbc3d	-0.31198302
165	0xbe88475d	-0.26616946
166	0xbe8488ee	-0.2588572
167	0xbe82c36a	-0.25539714
168	0xbe2f9f7f	-0.17150687
169	0xbe9cd626	-0.30632132
170	0xbeaeac88	-0.34116006
171	0xbd1b9516	-0.037983976
172	0x3ecabba1	0.39596274
173	0x3f043ac2	0.5165216
174	0xbe440986	-0.19144258
175	0xbdefe3c7	-0.11713367
176	0xbe2d07df	-0.16897534
177	0xbdaefcd8	-0.0854432
178	0xbecbd62f	-0.39811847
179	0xbf17f6d5	-0.5936101
180	0xbe922f42	-0.2855168
181	0xbec23a38	-0.37935042
182	0xbf2a1eb5	-0.66453105
183	0xbe00fd04	-0.12596518
184	0x3e00f12d	0.12592001
185	0xbeabfd5c	-0.33591735
186	0x3eba3d6a	0.3637498
187	0x3e5efe3d	0.21776672
188	0xbda697ef	-0.08134448
189	0xbec1bf55	-0.37841287
190	0xbe6b8ce7	-0.23002969
191	0xbedefe7c	-0.4355353
192	0xbcd2fa83	-0.025754219
193	0xbd4b2e87	-0.04960492
194	0xbe263045	-0.16229351
195	0x3e607987	0.21921359
196	0x3e70c523	0.23512702
197	0x3e548312	0.20753124
198	0xbe9bcdac	-0.30430353
199	0xbd804ad9	-0.06264276
200	0x3ea7b90a	0.3275836
201	0xbe0a95bc	-0.13533682
202	0xbe678150	-0.22607923
203	0xbe59fd98	-0.21288145
204	0xbe365cb6	-0.17808804
205	0xbdc3c80c	-0.0955964
206	0xbe4c2945	-0.19937618
207	0xbd392c3c	-0.0452082
208	0xbcaa496b	-0.020786962
209	0x3e664182	0.22485927
210	0xbe39e48b	-0.18153588
211	0xbec058cd	-0.3756775
212	0xbe7d59a1	-0.24741222
213	0x3e9b3ef3	0.30321464
214	0xbe8f0dad	-0.2794012
215	0xbf051a0d	-0.51992875
216	0x3d7d3e9d	0.06182729
217	0xbbeff7ff	-0.0073232646
218	0xbe6ccd23	-0.23125128
219	0x3e038b80	0.12846184
220	0x3e9e47fa	0.3091429
221	0x3e616aab	0.22013347
222	0xbea4fe8c	-0.32225454
223	0xbce6b0bc	-0.028160445
224	0x3e083d5f	0.13304661
225	0xbdca282a	-0.09870942
226	0xbefee3ed	-0.4978327
227	0xbf17e302	-0.5933076
228	0x3e43e695	0.19130929
229	0xbea39f2f	-0.31957385
230	0xbf725460	-0.94659996
231	0x3e8a7977	0.27045795
232	0x3e930d7c	0.28721225
233	0x3e497b96	0.1967605
234	0xbdd8bbef	-0.105827205
235	0xbe050648	-0.12990677
236	0x3e91d6fa	0.28484327
237	0xbf44a0a3	-0.7680761
238	0xbf48beb2	-0.7841598
239	0xbf0df49f	-0.5545139
240	0xbf074425	-0.52838355
241	0xbf361ce9	-0.71137863
242	0xbf54cdca	-0.8312651
243	0x3d9fdbaf	0.07805573
244	0x3ba30764	0.0049752463
245	0xbf030288	-0.5117574
246	0x3ea83c2e	0.32858413
247	0x3e3d9ce4	0.1851688
248	0xbed069bb	-0.40705666
249	0x3edafa46	0.42769068
250	0x3efe9b21	0.4972773
251	0x3e9266d4	0.28594077
252	0x3cab38e0	0.020901144
253	0x3d3d3bd5	0.04619964
254	0x3eae6da0	0.34068012
255	0xbe05c409	-0.13063063

encoder.3.bias f4 [16]
0	0xbee86ff0	-0.45397902
1	0x3e5b245e	0.21400592
2	0xbefed254	-0.49769843
3	0xbde32a83	-0.11092093
4	0x3e7fd743	0.2498446
5	0xbd983814	-0.07432571
6	0x3eb49b4d	0.35274735
7	0x3edda91d	0.43293086
8	0x3ed85b06	0.42256945
9	0x3e93dcc5	0.2887937
10	0xbed27088	-0.4110148
11	0xbd82c7c0	-0.063857555
12	0xbe78eb2b	-0.2430846
13	0x3e62d39d	0.22151037
14	0x3c14dc9e	0.009085802
15	0xbf200336	-0.625049

encoder.6.weight f4 [32, 16, 3, 3]
0	0x3e63504a	0.22198597
1	0x3f126f63	0.5720121
2	0x3db4e783	0.0883322
3	0xbe69d5ca	-0.2283546
4	0x3d75b220	0.059984326
5	0xbe0ce8c8	-0.13760674
6	0xbe950d62	-0.29111773
7	0xbe070ddc	-0.1318888
8	0x3b7629ce	0.0037561539
9	0xbe015820	-0.12631273
10	0x3de6a392	0.11261667
11	0xbda56690	-0.08076203
12	0xbe914a46	-0.2837698
13	0x3d94f8f7	0.07274049
14	0xbeec1d30	-0.46116018
15	0xbd76f368	-0.060290724
16	0x3e219c5d	0.15782304
17	0x3e2236da	0.15841237
18	0xbf47644d	-0.7788742
19	0xbe0f7077	-0.14007746
20	0x3dab4626	0.08362989
21	0xbcc8feb8	-0.024535522
22	0x3dd9cdf7	0.10634988
23	0xbf2d9e27	-0.67819446
24	0x3e8b4c57	0.2720668
25	0x3f5e69b3	0.86880034
26	0x3ea80c38	0.32821822
27	0x3e2063ea	0.15663114
28	0x3e82df1e	0.2556085
29	0xbca0d3f4	-0.019632317
30	0x3eae86db	0.34087262
31	0xbbbf7b68	-0.0058435686
32	0xbcb83e46	-0.022490632
33	0x3e83d338	0.25747085
34	0xbd84aaa7	-0.06477862
35	0x3cf5682f	0.029956905
36	0xbd597638	-0.053091258
37	0x3ef0d378	0.47036338
38	0xbd85fa6b	-0.06541904
39	0x3e9248f1	0.28571275
40	0x3f0c8e02	0.54904187
41	0x3d8a80fa	0.067628816
42	0x3e967b24	0.29390824
43	0x3e804763	0.25054464
44	0x3eae4be8	0.34042287
45	0x3e145eb4	0.14489251
46	0xbd43a0e4	-0.04776086
47	0xbcbf91a7	-0.023384882
48	0x3e3500b1	0.17676045
49	0xbde6a52b	-0.11261972
50	0xbdfddf80	-0.12396145
51	0x3e1adc36	0.15123066
52	0xbede261c	-0.4338845
53	0xbe9f21ef	-0.31080577
54	0xbeaa97c8	-0.33318925
55	0x3ec0d218	0.3766029
56	0x3e1acc5a	0.15117016
57	0x3e26001b	0.16210978
58	0x3e35f5e3	0.1776958
59	0x3e059a37	0.1304711
60	0x3ed5bbf3	0.41744956
61	0x3ec4b3e6	0.38418502
62	0x3f23ea26	0.6402916
63	0x3edb0c53	0.4278284
64	0x3ef0dced	0.47043553
65	0x3f0a7611	0.54086405
66	0xbe8bfdcf	-0.27342078
67	0x3d1884b5	0.037235934
68	0xbdc17be3	-0.09447458
69	0xbf194d72	-0.598838
70	0xbf033e24	-0.51266694
71	0xbf068ea6	-0.52561414
72	0xbe3494c4	-0.17634875
73	0x3db1d0de	0.086824164
74	0x3cc2a21c	0.02375894
75	0xbed472cd	-0.41493836
76	0xbf2abe7d	-0.6669691
77	0xbf3fe713	-0.74961966
78	0xbeb9982c	-0.3624891
79	0xbda73290	-0.08163941
80	0xbee80884	-0.45318997
81	0xbf5b9a06	-0.85781896
82	0xbed391a3	-0.4132205
83	0xbecb0d9f	-0.3965883
84	0x3e06f296	0.13178477
85	0x3eaf7a83	0.34273157
86	0xbe054158	-0.13013208
87	0x3f05066f	0.5196294
88	0x3f032184	0.51223016
89	0x3f278275	0.65433437
90	0x3ea7c45f	0.32767007
91	0x3df0afa1	0.117522486
92	0xbdeae008	-0.11468512
93	0x3e3eb04e	0.18621942
94	0x3bb2412d	0.0054398985
95	0x3dfdfc95	0.12401692
96	0xbb13177b	-0.0022444415
97	0xbe1b421a	-0.15161934
98	0xbe688227	-0.22705899
99	0x3e4def96	0.20110926
100	0x3efaa93e	0.48957247
101	0x3e0f1a9f	0.13974999
102	0xbd2dd0c0	-0.042435408
103	0x3f0d30a8	0.5515237
104	0x3e332eff	0.17498396
105	0x3dddb590	0.10825646
106	0xbdde6950	-0.108599305
107	0x3ec54a7d	0.38533393
108	0x3d3108fc	0.04322146
109	0x3f3a0f7f	0.72679895
110	0x3deb9f4d	0.115049936
111	0xbe92579f	-0.28582475
112	0xbde0b264	-0.10971525
113	0x3edbcf55	0.4293162
114	0x3cd6b81f	0.026210843
115	0xbed49a1f	-0.41523835
116	0x3a3643d3	0.00069528556
117	0xbe9a9a65	-0.3019592
118	0x3cb48927	0.022038056
119	0x3e047613	0.12935667
120	0xbefaa775	-0.48955885
121	0xbf54be29	-0.8310266
122	0xbebaf2fa	-0.365135
123	0xbe85aca6	-0.26108283
124	0xbdbaf4a8	-0.09128696
125	0x3cbf9875	0.023388127
126	0xbd2ff87d	-0.042961586
127	0x3e86495c	0.26227844
128	0xbe025c1a	-0.12730446
129	0x3ee9f0a0	0.45691395
130	0x3e83827c	0.2568549
131	0xbcb57849	-0.022152083
132	0x3eb3f0e1	0.35144714
133	0x3ecfdc77	0.4059789
134	0x3d1b8553	0.037968945
135	0xbda08591	-0.07837976
136	0x3dea1ff7	0.11431878
137	0x3e891816	0.2677619
138	0xbe8144ed	-0.252479
139	0xbd89ce85	-0.067288436
140	0x3e7eae2b	0.24871127
141	0xbe306e95	-0.17229684
142	0xbd5c1b0b	-0.053736728
143	0xbe88ddf6	-0.26731843
144	0xbd40502f	-0.04695147
145	0xbdcf2129	-0.10113747
146	0xbe73d507	-0.23811732
147	0xbf17ab84	-0.5924609
148	0xbf1b5ab2	-0.60685265
149	0x3e573758	0.21017206
150	0xbf08c9eb	-0.534331
151	0x3c291f5f	0.010322421
152	0xbddd11b4	-0.10794392
153	0x3d3fd9a8	0.046838433
154	0xbdce5742	-0.10075237
155	0x3cb6043c	0.022218816
156	0x3d535aa7	0.051600125
157	0x3d661c31	0.05617923
158	0xbe621df6	-0.22081742
159	0xbec6f16f	-0.38856074
160	0xbed5cbb5	-0.4175698
161	0xbd80af61	-0.06283451
162	0x3db8cd79	0.09023566
163	0x3c200cab	0.009768645
164	0xbe566e80	-0.2094059
165	0x3a79c8a1	0.0009528492
166	0xbeea294a	-0.45734626
167	0xbf339618	-0.701509
168	0xbee9c033	-0.4565445
169	0xbf15f7c3	-0.5858118
170	0xbe1a4be6	-0.15068015
171	0x3cebff4b	0.028808257
172	0xbdc39c04	-0.09551242
173	0x3d20ce6e	0.039259367
174	0xbeb8b1e5	-0.36073223
175	0x3e25b3ac	0.1618182
176	0x3cd71cf1	0.026258918
177	0xbe001c9c	-0.12510914
178	0xbe208743	-0.15676598
179	0x3e3a204e	0.18176386
180	0x3e2892ff	0.16462325
181	0x3eb7b789	0.35882214
182	0xbe1dc484	-0.15406996
183	0xbdb14cb4	-0.08657208
184	0xbdf50dcf	-0.119655244
185	0xbec1e58e	-0.3787045
186	0xbc925603	-0.01786328
187	0xbdb1bb00	-0.086782455
188	0x3cf6b698	0.030116364
189	0x3e0aa034	0.13537675
190	0x3eaa46b4	0.33257067
191	0x3f010d25	0.5041068
192	0xbddcbc88	-0.10778147
193	0x3f0a165e	0.5394038
194	0x3efb9995	0.4914061
195	0x3c50f515	0.012753745
196	0x3f1d510c	0.6145179
197	0x3db00092	0.08593859
198	0x3e944585	0.2895929
199	0xbc276791	-0.010217563
200	0xbdba969b	-0.09110757
201	0x3da71370	0.08158004
202	0xbf4ae60c	-0.79257274
203	0xbee103e5	-0.43948284
204	0x3b81fa18	0.003966581
205	0xbe7d9342	-0.24763206
206	0xbe38a231	-0.18030621
207	0x3c9b6dd8	0.018973276
208	0xbe1bc924	-0.15213448
209	0xbdc09e96	-0.09405248
210	0xbedabb10	-0.42720842
211	0xbe4614ff	-0.19343947
212	0x3f339f61	0.7016507
213	0xbe5e9e20	-0.21740007
214	0x3ec52efa	0.38512403
215	0x3f09c1e8	0.538115
216	0xbdd4b41f	-0.10385918
217	0x3edc7fa0	0.4306612
218	0x3ebc2b11	0.36751607
219	0x3f11627d	0.56790906
220	0x3f605214	0.8762524
221	0x3e13dfda	0.14440861
222	0x3ec8f351	0.39248136
223	0x3e365e8f	0.17809509
224	0xbd9f6938	-0.07783741
225	0xbe1e9fab	-0.15490596
226	0xbf05e4bd	-0.5230215
227	0xbe8bf407	-0.27334616
228	0x3e11b572	0.14229372
229	0xbf08615d	-0.53273565
230	0xbeecdb62	-0.46261126
231	0xbea00f1e	-0.31261533
232	0xbea8d292	-0.32973152
233	0xbe1df215	-0.15424378
234	0x3d38c7d8	0.04511246
235	0x3e00e6f5	0.12588103
236	0x3e9222f3	0.2854229
237	0xbea80485	-0.32815948
238	0x3d744db5	0.05964442
239	0x3e852b09	0.26009396
240	0xbe2819b6	-0.16416058
241	0x3e60d426	0.21955928
242	0x3d8c7137	0.068575315
243	0x3e44643e	0.19178864
244	0xbca5a0f7	-0.020218356
245	0xbf154dbc	-0.5832174
246	0x3d2eb5f4	0.042653993
247	0xbec82739	-0.39092425
248	0xbe8f1cb9	-0.279516
249	0xbe8198a5	-0.2531177
250	0xbf021044	-0.5080607
251	0xbe7894b5	-0.24275477
252	0xbea30850	-0.3184228
253	0xbc5f1edc	-0.013618197
254	0xbe4f5c23	-0.20249991
255	0x3f16c5e7	0.58895725

encoder.6.bias f4 [32]
0	0xbda548f3	-0.080705546
1	0x3e8d7c6e	0.27633995
2	0x3e86bd6c	0.26316392
3	0xbdcb3479	-0.09922118
4	0x3ea37604	0.31925976
5	0xbdc1a98d	-0.09456167
6	0x3cdc51ce	0.026894476
7	0x3dd722ef	0.1050471
8	0xbe70549e	-0.23469779
9	0x3e8021f6	0.2502591
10	0x3d8e10d8	0.069368064
11	0xbd731005	-0.05934145
12	0x3dcff8ea	0.101548985
13	0xbe4a5b65	-0.19761427
14	0x3ee09c65	0.4386932
15	0xbe355990	-0.17709947
16	0xbdd4c4e2	-0.10389115
17	0xbe9f5180	-0.31116867
18	0x3e646389	0.22303595
19	0x3ebe1772	0.37127262
20	0x3e3252d8	0.17414415
21	0xbe7cf7fa	-0.2470397
22	0x3e8abcf3	0.27097282
23	0xbdbea855	-0.093094505
24	0x3e5f2cac	0.21794385
25	0xbe96b49b	-0.29434666
26	0x3e20ace2	0.1569095
27	0xbe8e61c9	-0.2780898
28	0xbd2af55b	-0.041737895
29	0x3e2ba1ae	0.16760895
30	0x3ecdc377	0.4018819
31	0xbe8c21a4	-0.27369416

bottle_neck.0.conv_block.1.weight f4 [32, 32, 3, 3]
0	0x3efa064a	0.48832923
1	0x3eb4e474	0.35330546
2	0x3e9e6a22	0.30940348
3	0x3bc04307	0.0058673653
4	0x3d845985	0.06462387
5	0xbe8680d2	-0.26270157
6	0x3eced3b4	0.40395892
7	0xbda11cfd	-0.07866857
8	0xbe41e83b	-0.18936245
9	0xbdf4ec1a	-0.11959095
10	0xbf511056	-0.8166555
11	0xbd5f0b94	-0.0544544
12	0x3d95ca25	0.07313947
13	0xbf3babba	-0.7330891
14	0xbe856d2b	-0.2605985
15	0x3d74788f	0.059685286
16	0xbedd90cc	-0.43274534
17	0x3e1ebdb2	0.1550205
18	0xbe6c7b8a	-0.23094001
19	0xbdeaf5be	-0.11472653
20	0xbdfbafb9	-0.12289376
21	0x3eefd13f	0.4683933
22	0xbdb30776	-0.087416574
23	0xbe39ad57	-0.1813253
24	0xbeddbb6c	-0.43307054
25	0xbd5e6821	-0.054298524
26	0xbb8d0aaa	-0.00430425
27	0xbd497f97	-0.049193945
28	0x3e86f38f	0.26357695
29	0x3f308998	0.6895995
30	0xbf2f150a	-0.6839148
31	0x3b910e04	0.0044267196
32	0xbe8294f1	-0.25504258
33	0xbed1064b	-0.40825114
34	0xbf03467f	-0.51279444
35	0x3eb1aee9	0.34703758
36	0xbf4327a3	-0.76232356
37	0xbef32858	-0.47491717
38	0xbf06083b	-0.5235631
39	0x3eb2dc0e	0.34933513
40	0xbd9a59d1	-0.07536662
41	0x3ea37ac2	0.31929594
42	0x3c247cbb	0.010039504
43	0xbe9935cc	-0.29923856
44	0xbf046d42	-0.51729214
45	0x3e206e0c	0.1566698
46	0xbd6d7b84	-0.05797912
47	0x3e2e12ea	0.16999403
48	0xbdfad961	-0.12248493
49	0x3e693310	0.22773385
50	0x3da7795b	0.081774436
51	0xbe2863ed	-0.16444369
52	0x3e2aae82	0.16668132
53	0xbdcde996	-0.100543186
54	0x3e806a85	0.25081268
55	0xbd122578	-0.035680264
56	0xbed9fedb	-0.42577252
57	0x3e1d686f	0.1537187
58	0xbee3837f	-0.4443626
59	0xbf093f88	-0.53612566
60	0x3ee571b1	0.44813302
61	0xbe9a29df	-0.3011007
62	0x3e9be62b	0.30449042
63	0xbe177f9b	-0.14794771
64	0xbf3805af	-0.7188367
65	0x3cabb834	0.020961858
66	0x3eb1f2f8	0.34755683
67	0x3ef10f49	0.47081974
68	0xbd239c7f	-0.03994417
69	0xbeeb6f34	-0.4598328
70	0xbe784208	-0.24243939
71	0xbcc0ef65	-0.023551652
72	0xbd86dda8	-0.06585246
73	0xbd2a204d	-0.04153471
74	0xbebb06ea	-0.36528713
75	0x3f1e46a8	0.6182656
76	0x3d3eb41f	0.046558496
77	0xbea889da	-0.32917672
78	0xbe94deae	-0.2907614
79	0x3e73032c	0.23731679
80	0x3e904c81	0.28183368
81	0xbec8c3ed	-0.3921198
82	0xbf3428a0	-0.7037449
83	0xbe067204	-0.13129431
84	0xbde48242	-0.11157657
85	0xbf104dd0	-0.5636873
86	0xbd767e30	-0.060178936
87	0xbef7dab3	-0.48409042
88	0xbf154f68	-0.5832429
89	0xbeddb8b7	-0.4330499
90	0x3e99d69e	0.30046552
91	0xbe926f4b	-0.28600535
92	0x3e18026d	0.14844675
93	0x3edc212e	0.42994064
94	0xbea5e770	-0.32403135
95	0x3c869636	0.016429048
96	0x3ead84e9	0.33890465
97	0xbec48871	-0.38385347
98	0x3bae8af8	0.005326625
99	0x3f4d8bfb	0.8029172
100	0x3f7b8759	0.982534
101	0x3ef9ec80	0.48813248
102	0xbe467e2b	-0.19384067
103	0x3e8e1835	0.27752843
104	0xbd7f7e33	-0.062376212
105	0x3e5e9959	0.21738185
106	0xbdb84b3b	-0.08998724
107	0x3ce45b13	0.027875459
108	0xbe8f5157	-0.27991745
109	0xbebaf62c	-0.3651594
110	0xbe4366ec	-0.1908223
111	0x3f1e2c95	0.61786777
112	0x3d1f5485	0.038898963
113	0x3e106ea2	0.14104703
114	0x3de8df7c	0.11370751
115	0x3b4659d3	0.0030265942
116	0xbe8f92b5	-0.28041616
117	0xbdc178e7	-0.094468884
118	0xbe858cd5	-0.2608401
119	0xbe28579c	-0.1643967
120	0x3d609e2b	0.05483834
121	0x3e650b54	0.22367603
122	0x3e48edc3	0.19621949
123	0x3e3ddfc6	0.18542394
124	0xbe92bff0	-0.28662062
125	0xbe5d2cb8	-0.2159909
126	0x3e9720ae	0.2951712
127	0x3c5dd4a8	0.013539471
128	0xbcf2e694	-0.029650964
129	0x3deb72a7	0.114964776
130	0x3dc5c615	0.09656922
131	0xbe851fb4	-0.2600075
132	0x3f0b4336	0.5439943
133	0x3e50343d	0.20332427
134	0xbe5f7330	-0.21821284
135	0x3db33011	0.08749402
136	0x3d56f4c7	0.05247953
137	0x3e2cc7a7	0.16873036
138	0xbeb32044	-0.34985554
139	0xbd773322	-0.0603515
140	0xbeaedd53	-0.34153232
141	0x3eaef2b2	0.34169537
142	0xbcc87f69	-0.024474816
143	0x3e98d8f2	0.29853016
144	0xbdf7a390	-0.12091744
145	0x3dceffc6	0.10107379
146	0xbeb756ce	-0.35808414
147	0xbec84e9c	-0.39122474
148	0xbe8e1a7b	-0.27754578
149	0xbf2bd15b	-0.67116326
150	0x3d599a70	0.0531258
151	0x3deaaa24	0.11458233
152	0x3dc62974	0.09675875
153	0xbdb7ff70	-0.08984268
154	0xbdb70ca3	-0.08937957
155	0xbd8f2c8a	-0.06990917
156	0xbeecbb38	-0.46236587
157	0x3ebd8a85	0.37019745
158	0x3cad5b32	0.02116165
159	0x3e602ec1	0.21892835
160	0x3ed70568	0.41996312
161	0x3d21afe7	0.039474394
162	0x3f0a4008	0.54003954
163	0x3f0b9497	0.54523605
164	0x3e48cafe	0.19608685
165	0x3c47e082	0.012199523
166	0x3daaa35f	0.08331942
167	0xbdcb215c	-0.09918472
168	0x3ea46bca	0.32113487
169	0xbe75c0cd	-0.23999329
170	0x3edaefc0	0.4276104
171	0xbd0f77fb	-0.03502653
172	0x3d82b034	0.06381264
173	0x3c6fe626	0.014642274
174	0x3dc3b620	0.09556222
175	0xbe89b2db	-0.26894268
176	0xbd705bd2	-0.058681317
177	0xbeb65d6a	-0.35618144
178	0x3de83eb9	0.113400884
179	0xbe9ec640	-0.31010628
180	0xbd7574af	-0.05992573
181	0xbcedf970	-0.029049605
182	0xbec505bd	-0.3848094
183	0x3d06d1f6	0.032915078
184	0xbe8d447e	-0.27591318
185	0xbe871a9d	-0.26387492
186	0x3e8d95dc	0.27653396
187	0x3e08f363	0.13374095
188	0x3c38b436	0.011273434
189	0x3da2171a	0.079145625
190	0xbd88ccc9	-0.06679685
191	0xbebaab97	-0.36459038
192	0x3e06dee2	0.1317096
193	0xbe20e6d2	-0.15713051
194	0xbe24e9f1	-0.16104867
195	0x3c7fdd9b	0.0156168
196	0x3efb7155	0.49109903
197	0xbe9f48c9	-0.31110218
198	0xbedc53e2	-0.43032748
199	0xbe210f0e	-0.15728399
200	0xbee3cd65	-0.4449264
201	0xbe94e08e	-0.29077572
202	0xbf3e099c	-0.7423341
203	0xbe4f689a	-0.20254746
204	0xbc073988	-0.008253463
205	0xbdd230f9	-0.10263247
206	0xbf0c85e0	-0.5489178
207	0x3ebb13f1	0.36538652
208	0xbce6933b	-0.028146377
209	0xbe112659	-0.14174785
210	0x3e66a499	0.22523727
211	0x3eac9fdb	0.3371571
212	0xbe5420de	-0.20715663
213	0x3e98cf90	0.29845858
214	0x3f19f2ff	0.6013641
215	0x3d44f401	0.048084263
216	0x3e59efa6	0.21282825
217	0x3efea637	0.49736187
218	0x3d2e61cb	0.04257373
219	0xbe1a937c	-0.15095323
220	0x3ebf9c98	0.3742416
221	0xbe3c2694	-0.18374091
222	0x3e355cf2	0.17711237
223	0xbe0fa937	-0.14029394
224	0x3f482dd8	0.7819495
225	0x3ea393b0	0.31948614
226	0x3ebb452d	0.36576214
227	0xbe53143f	-0.20613192
228	0xbd7b3901	-0.06133366
229	0xbf0d5c79	-0.5521923
230	0xbdb37555	-0.08762614
231	0xbe9a8b62	-0.30184466
232	0xbd3f847d	-0.04675721
233	0xbaccfabd	-0.0015638691
234	0xbedb2129	-0.42798737
235	0xbf30f343	-0.6912119
236	0x3c8f3257	0.017480059
237	0x3f002fd4	0.5007298
238	0x3ecdf501	0.40225986
239	0xbd5c5f84	-0.05380203
240	0xbf3291ea	-0.697539
241	0x3da227df	0.07917761
242	0xbe2af9bf	-0.16696833
243	0x3dc824a5	0.097726144
244	0x3e9aef70	0.302608
245	0x3e826006	0.25463885
246	0xbe18330e	-0.14863226
247	0xbe1bca93	-0.15213995
248	0x3e772688	0.24135792
249	0xbe204e0c	-0.15654773
250	0xbf4b5f7e	-0.79442585
251	0x3e1a292b	0.15054767
252	0x3e3cd0af	0.18438981
253	0xbbc063e6	-0.005871284
254	0xbe0a6554	-0.13515216
255	0x3c8707ff	0.016483305

bottle_neck.0.conv_block.2.weight f4 [32]
0	0x3f5ccec9	0.8625303
1	0x3fafaad1	1.3724004
2	0x3f4693ab	0.77569073
3	0x3fab5718	1.3385954
4	0x3f9afb25	1.2107893
5	0x3f55f7f6	0.83581483
6	0x3f86ac92	1.0521414
7	0x3f8d4bf3	1.1038803
8	0x3fb55a84	1.4168248
9	0x3f91ec03	1.140015
10	0x3f6c6db9	0.92354923
11	0x3f94936e	1.1607492
12	0x3f842224	1.0322919
13	0x3f5bb7e5	0.85827476
14	0x3f84af7a	1.0366051
15	0x3f653bed	0.89544564
16	0x3f91c991	1.1389638
17	0x3f8135d0	1.0094547
18	0x3f5e18f7	0.86756843
19	0x3f81d1f8	1.0142202
20	0x3f599706	0.8499607
21	0x3f78a526	0.97126997
22	0x3f8674e8	1.0504427
23	0x3f8d5852	1.1042578
24	0x3f6114b8	0.8792224
25	0x3f709f40	0.93992996
26	0x3f775169	0.966086
27	0x3f61de09	0.88229424
28	0x3f82f8ef	1.0232219
29	0x3f88b9a1	1.068165
30	0x3f6dfc15	0.9296277
31	0x3f715189	0.9426504

bottle_neck.0.conv_block.2.bias f4 [32]
0	0xbf392728	-0.7232537
1	0xbea9f209	-0.3319247
2	0xbf1e4cf5	-0.6183618
3	0xbebc6a68	-0.36799932
4	0xbf0b3a0a	-0.54385436
5	0xbeda1bf1	-0.42599443
6	0xbe559966	-0.20859298
7	0xbf1858bb	-0.5951039
8	0xbee46f5d	-0.44616213
9	0xbe8e8030	-0.27832174
10	0xbef583f6	-0.4795224
11	0xbec95488	-0.39322305
12	0xbef26088	-0.47339272
13	0xbe9d8fb4	-0.307737
14	0xbf0911f6	-0.5354303
15	0xbebd9187	-0.3702509
16	0xbec27864	-0.37982476
17	0xbee45f14	-0.4460379
18	0xbf1af3d5	-0.6052831
19	0xbed8b6b5	-0.42326894
20	0xbee1361a	-0.4398659
21	0xbeb1c733	-0.3472229
22	0xbeac4d60	-0.33652782
23	0xbf11aa42	-0.5690042
24	0xbef70875	-0.4824864
25	0xbe94f8e4	-0.29096138
26	0xbf27a6f5	-0.6548913
27	0xbecb9334	-0.39760745
28	0xbf03f788	-0.5154958
29	0xbebfa3bd	-0.3742961
30	0xbf24ac56	-0.64325464
31	0xbef5eee0	-0.4803381

bottle_neck.0.conv_block.2.running_mean f4 [32]
0	0xc0b286b5	-5.5789437
1	0x3ffa77cb	1.9567808
2	0xbf2c1a5c	-0.6722772
3	0xc069eafb	-3.654967
4	0x3eb3a04c	0.35083234
5	0xbff29f0d	-1.8954788
6	0xc07f59af	-3.9898489
7	0xbfda8ff7	-1.7075185
8	0xc1280e30	-10.503464
9	0x3ea9b509	0.3314593
10	0xbf710c2d	-0.94159204
11	0xbf948d5a	-1.1605637
12	0xc019a794	-2.4008532
13	0xc0dec3d7	-6.961406
14	0x3f85f5ba	1.0465615
15	0xc0145752	-2.3178296
16	0xc080b2ce	-4.0218267
17	0x3f9f6e0e	1.2455461
18	0x4068a89b	3.6352909
19	0xbf5a1359	-0.8518577
20	0x3fc199fb	1.5125116
21	0x3f72817e	0.9472884
22	0xc0e3242d	-7.098166
23	0xc032119d	-2.782325
24	0x3fcf4337	1.6192387
25	0x3e8327e9	0.25616387
26	0x40043e67	2.0663087
27	0x3f65203a	0.895023
28	0x400b0248	2.1720142
29	0xbfd5c2a4	-1.6700025
30	0xc037e468	-2.8733158
31	0xc0c1a37a	-6.0512056

bottle_neck.0.conv_block.2.running_var f4 [32]
0	0x427c5874	63.08638
1	0x42272ff5	41.796833
2	0x423bcb99	46.948826
3	0x4280fedd	64.49778
4	0x423b4a5d	46.82262
5	0x421d02e1	39.25281
6	0x425637ca	53.55448
7	0x4223badf	40.93249
8	0x42595a04	54.337906
9	0x4283ec08	65.961
10	0x424b5c89	50.840366
11	0x4246d20a	49.705116
12	0x42557eab	53.3737
13	0x422c09c9	43.009556
14	0x41fad294	31.352821
15	0x42878c08	67.7735
16	0x42329387	44.64407
17	0x4256b1ff	53.673824
18	0x42446006	49.093773
19	0x425670c7	53.610134
20	0x424619a3	49.525036
21	0x4235669b	45.3502
22	0x4256331e	53.54992
23	0x422f2f95	43.796467
24	0x4250bed7	52.186367
25	0x4246b032	49.672066
26	0x4241bed2	48.436348
27	0x42429da5	48.65395
28	0x4204e16a	33.22013
29	0x42782851	62.03937
30	0x421938d1	38.305485
31	0x4280d056	64.406906

bottle_neck.0.conv_block.5.weight f4 [32, 32, 3, 3]
0	0x3e69b469	0.22822727
1	0xbede2f12	-0.43395287
2	0xbeea0549	-0.45707157
3	0xbee900d5	-0.45508447
4	0xbeaf4ad4	-0.34236777
5	0x3e8a7dd3	0.2704912
6	0xbe7eb71e	-0.24874541
7	0xbdb1a304	-0.08673671
8	0x3eaba201	0.33522037
9	0x3e9838fc	0.29730976
10	0xbdc2bc2d	-0.09508548
11	0x3f082392	0.53179276
12	0xbd9be6d2	-0.07612385
13	0xbefac815	-0.48980775
14	0xbe145979	-0.14487256
15	0x3e239288	0.15973866
16	0xbed51393	-0.41616496
17	0xbf0f0db4	-0.55880284
18	0x3e97d3bc	0.29653728
19	0x3f0dae3c	0.55343986
20	0x3dccac3c	0.099937886
21	0xbe70dcb0	-0.23521686
22	0x3ea1443b	0.31497368
23	0x3dd0d163	0.10196187
24	0xbe18f03e	-0.14935395
25	0x3eb16ef2	0.34654957
26	0x3e3d9e1b	0.18517344
27	0x3f305b2a	0.68889105
28	0x3f2222fa	0.6333462
29	0x3ef3393e	0.4750461
30	0x3d8cb460	0.06870341
31	0xbd8e29d5	-0.069415726
32	0x3d61e3aa	0.055148758
33	0x3dd02bf6	0.10164635
34	0xbe939b9f	-0.28829667
35	0x3e311250	0.17292142
36	0xbe343de7	-0.17601739
37	0xbeddeba4	-0.43343842
38	0xbee5d4f0	-0.4488902
39	0x3e1b944d	0.15193291
40	0xbeb1893d	-0.34675017
41	0xbe5cd41e	-0.21565291
42	0xbe82b193	-0.25526103
43	0xbd340976	-0.043954335
44	0xbe06766a	-0.13131109
45	0xbe88a745	-0.26690117
46	0xbf4dfd6b	-0.8046481
47	0xbd825d07	-0.063654
48	0xbf142935	-0.57875377
49	0x3e3c4af7	0.18387972
50	0x3eb245a0	0.34818745
51	0x3d5791e5	0.05262937
52	0x3bc3e5d4	0.0059783254
53	0xbe9e2a9c	-0.30891883
54	0x3ea4d4fa	0.32193738
55	0x3ec2ebea	0.38070613
56	0x3eda0e14	0.42588866
57	0x3e4f8228	0.20264494
58	0x3f10c64f	0.56552595
59	0x3f3bcc59	0.73358685
60	0xbc9bec71	-0.019033642
61	0x3dd25ddf	0.10271811
62	0xbe3807bb	-0.17971699
63	0x3eb81303	0.35952005
64	0x3da16cc1	0.07882071
65	0xbe83678f	-0.25664946
66	0x3a834043	0.0010013658
67	0xbd99fc55	-0.07518832
68	0xbea10b67	-0.31454012
69	0xbf2cb846	-0.6746868
70	0xbeb4603f	-0.3522968
71	0xbf437f38	-0.76365995
72	0x3f1f52a5	0.6223548
73	0x3f4cc9fe	0.79995716
74	0x3e8aa260	0.27077007
75	0x3d444682	0.047918804
76	0x3e6bdebf	0.2303419
77	0x3e8fbd0f	0.28073928
78	0xbf073a52	-0.52823365
79	0xbea356c6	-0.3190214
80	0x3d77eae3	0.06052674
81	0x3e07c653	0.13259248
82	0xbee38d86	-0.4444391
83	0xbedae4eb	-0.42752776
84	0xbde2c54c	-0.11072788
85	0x3ea8e892	0.32989937
86	0x3d2d9dab	0.042386692
87	0x3e5aa407	0.21351634
88	0x3e52d0ce	0.20587465
89	0x3f0932ec	0.53593326
90	0x3e791f66	0.24328384
91	0xbe3cb592	-0.18428639
92	0x3eafc29d	0.34328166
93	0x3dc4694b	0.095903955
94	0xbee265fc	-0.44218433
95	0xbdfa9fda	-0.122375205
96	0xbe3ee170	-0.18640685
97	0x3d76c7a4	0.060248986
98	0xbe20ca9a	-0.15702286
99	0x3ebd8519	0.37015608
100	0xbd8901ac	-0.06689772
101	0xbe98a8c2	-0.29816252
102	0x3db391e8	0.08768064
103	0xbee30c4f	-0.44345328
104	0xbd1e0a80	-0.038584232
105	0x3e816346	0.25271052
106	0xbe02204b	-0.12707631
107	0xbd9be970	-0.07612884
108	0xbecf5d71	-0.40500978
109	0xbf014c5e	-0.5050715
110	0x3ecbe19b	0.3982056
111	0x3d2fc00d	0.042907763
112	0x3d56007e	0.052246563
113	0xbe4acb6b	-0.1980416
114	0xbcd84a3d	-0.026402587
115	0x3dd03278	0.10165876
116	0xbe472b28	-0.19450057
117	0xbcbb4cd8	-0.02286379
118	0x3e4056df	0.18783139
119	0xbf335786	-0.70055425
120	0x3e5de406	0.21669015
121	0x3c3dd952	0.011587458
122	0x3e0228d3	0.12710886
123	0xbe0a923e	-0.1353235
124	0xbe5dc602	-0.21657565
125	0x3e473d4d	0.19456978
126	0x3ef7a012	0.4836431
127	0xbe0d4b9f	-0.13798378
128	0x3e9c27aa	0.3049901
129	0x3e0fe7ea	0.14053312
130	0xbd957e6c	-0.07299504
131	0xbe2aa810	-0.16665673
132	0x3c5f6dd8	0.013637029
133	0xbe258c28	-0.16166747
134	0x3df9fc04	0.12206271
135	0xbe88fe27	-0.26756403
136	0x3cff88a0	0.031193078
137	0xbe4168a1	-0.18887569
138	0x3e24db7a	0.16099349
139	0x3e9f50d3	0.3111635
140	0x3ec8f0f9	0.39246348
141	0xbea8bfeb	-0.32958922
142	0x3e834d9b	0.25645146
143	0xbd212546	-0.039342187
144	0x3edff0d9	0.4373844
145	0x3e265a89	0.16245474
146	0xbdf55431	-0.11978949
147	0xbdcf40e2	-0.10119797
148	0xbe60b6d4	-0.21944743
149	0x3f2cd363	0.6751005
150	0xbd046446	-0.03232219
151	0xbe86d6dc	-0.263358
152	0x3c848a5f	0.016179262
153	0x3ec68b3f	0.3877811
154	0x3e584e7d	0.21123691
155	0xbebade17	-0.36497566
156	0xbe119918	-0.14218557
157	0x3caf3165	0.021385858
158	0x3ebc9f9f	0.3684053
159	0x3e8b7592	0.27238137
160	0x3ede8012	0.43457085
161	0x3ea1a5fd	0.31571952
162	0x3d8064bb	0.06269213
163	0xbee40597	-0.44535515
164	0x3cc39193	0.023873126
165	0x3e803308	0.25038934
166	0xbd44b25c	-0.04802166
167	0xbe1530e1	-0.14569427
168	0x3e9fa134	0.31177676
169	0xbdc01c9c	-0.09380457
170	0x3d97c1a8	0.07409984
171	0xbdb0ca41	-0.08632327
172	0x3e8d59f6	0.27607697
173	0xbdd6c143	-0.104860805
174	0xbc8fed2f	-0.017569153
175	0xbdd4f96e	-0.103991374
176	0x3df412fd	0.11917684
177	0x3ddca2e5	0.10773257
178	0x3d742ebc	0.059614882
179	0xbe10ad2c	-0.1412856
180	0x3d96a001	0.07354737
181	0xbd73c293	-0.059511732
182	0xbec7b1f6	-0.3900296
183	0xbee7c5a7	-0.45267984
184	0xbe1a6327	-0.15076886
185	0xbf539ccf	-0.82661146
186	0x3ea96601	0.33085635
187	0xbe0c2643	-0.1368647
188	0xbf0772cf	-0.5290956
189	0xbedd5dba	-0.4323557
190	0xbecba833	-0.39776763
191	0xbf1d7fda	-0.6152321
192	0x3e10206e	0.14074871
193	0x3cda5111	0.026649984
194	0x3eb3febf	0.35155293
195	0xbea57c14	-0.32321227
196	0xbe415be2	-0.18882707
197	0x3df33c8e	0.11876784
198	0x3edc9490	0.43082094
199	0x3ebeb618	0.37248302
200	0x3e6f64d2	0.23378304
201	0x3d4b2b2c	0.04960172
202	0x3dd082ef	0.101812236
203	0xbed94ba3	-0.4244052
204	0x3e596591	0.21230151
205	0xbd1f405e	-0.038879745
206	0xbf01ad62	-0.50655186
207	0x3d978dd8	0.074001014
208	0x3f809839	1.0046455
209	0x3e3ff1ce	0.18744585
210	0xbdba41d9	-0.09094591
211	0x3dfeead9	0.124471374
212	0xbdf9444f	-0.12171232
213	0xbdc055aa	-0.09391339
214	0x3e0ef3e4	0.13960224
215	0xbe1e03b5	-0.15431102
216	0xbe06e86f	-0.13174604
217	0xbf635622	-0.88803303
218	0xbf00577d	-0.50133497
219	0x3eef8f6b	0.46789107
220	0xbd5f6893	-0.05454309
221	0x3f0b7255	0.5447133
222	0x3f162d23	0.58662623
223	0x3ddc50d3	0.107576035
224	0x3dde7f54	0.1086413
225	0xbe6f48d7	-0.2336763
226	0xbece2ed8	-0.40270114
227	0xbe42d03f	-0.19024752
228	0x3da58b2c	0.080831856
229	0x3efb8b2e	0.49129623
230	0x3f85c864	1.0451779
231	0xbeb7ba6a	-0.3588441
232	0xbec774c4	-0.38956273
233	0xbe8215c3	-0.25407228
234	0xbbb50094	-0.0055237506
235	0xbe76e16b	-0.24109428
236	0xbe1479ce	-0.1449959
237	0x3e507a09	0.20359053
238	0xbd62c531	-0.055363838
239	0x3ded11b6	0.11575644
240	0x3e78978a	0.24276558
241	0xbd558e78	-0.052137822
242	0x3f596fe2	0.84936345
243	0xbe706be1	-0.23478653
244	0xbed53e14	-0.41648924
245	0xbf5225ff	-0.8208923
246	0x3e5a71f1	0.21332528
247	0xbcc63036	-0.02419291
248	0x3ebc4d59	0.36777762
249	0x3f085d11	0.5326701
250	0x3e403cca	0.18773189
251	0x3e730887	0.23733722
252	0xbef2af14	-0.473992
253	0xbd43e7ea	-0.047828592
254	0xbe34ebcb	-0.17668073
255	0xbde9d95f	-0.11418413

bottle_neck.0.conv_block.6.weight f4 [32]
0	0x3f25a9be	0.6471213
1	0x3ede61cc	0.43433988
2	0x3f44117f	0.76589197
3	0x3f872380	1.0557709
4	0x3f47ec2f	0.7809476
5	0x3f71da2f	0.94473547
6	0x3f45fdaa	0.77340186
7	0x3f817524	1.0113873
8	0x3f4fcc2b	0.8117091
9	0x3f258826	0.6466087
10	0x3f595f8a	0.84911406
11	0x3f5047fe	0.8135985
12	0x3f1f1f5b	0.6215722
13	0x3f59865d	0.8497065
14	0x3ed4ea85	0.41585174
15	0x3f51059b	0.8164918
16	0x3f193077	0.59839576
17	0x3f4b0336	0.79301775
18	0x3f41ec85	0.75751525
19	0x3f2b998c	0.6703117
20	0x3f67da85	0.9056781
21	0x3ef70e19	0.48252943
22	0x3f01fa1c	0.5077226
23	0x3f487733	0.78306884
24	0x3f44ee4e	0.76926124
25	0x3f5d88cd	0.86536866
26	0x3f856baf	1.0423487
27	0x3f0cbae2	0.5497266
28	0x3f2960ac	0.66163135
29	0x3f52acf1	0.8229514
30	0x3f8d78af	1.1052455
31	0x3f8f6f83	1.1205906

bottle_neck.0.conv_block.6.bias f4 [32]
0	0xbcc9b675	-0.024623135
1	0xbd46d205	-0.048540134
2	0x3ab24dd5	0.0013603518
3	0xbe2814a9	-0.16414131
4	0xba994b37	-0.0011695389
5	0x3ddedc92	0.10881914
6	0x3ccee86e	0.025257315
7	0xbe78f741	-0.2431307
8	0xbe2b4740	-0.16726398
9	0x3d349722	0.044089444
10	0x3cda5fbe	0.026656982
11	0xbda9cdba	-0.08291192
12	0xbda8de88	-0.082455695
13	0xbdead220	-0.114658594
14	0xbdd31573	-0.103068255
15	0x3c907f5f	0.01763886
16	0xbe2ef747	-0.17086516
17	0x3cd892a4	0.026437111
18	0xbe08f9cd	-0.13376541
19	0xbb803a24	-0.003913181
20	0xbdb224f8	-0.086984575
21	0xbda02d69	-0.07821161
22	0xbc9bda9a	-0.019025136
23	0xbe4db256	-0.20087561
24	0xbd656e04	-0.056013122
25	0xbe4ccda2	-0.20000318
26	0x3bf4cd7f	0.007470786
27	0x3cd676f3	0.026179766
28	0xbdb6fc89	-0.08934886
29	0xbe37e767	-0.17959367
30	0xbe0942d5	-0.134044
31	0x3d67fb03	0.056635868

bottle_neck.0.conv_block.6.running_mean f4 [32]
0	0xbeedc934	-0.46442568
1	0x3fd42a78	1.657546
2	0xbf938e1d	-1.1527745
3	0xbf8430c9	-1.0327388
4	0xc05b3731	-3.4252436
5	0x3f006064	0.5014708
6	0xbf4b1d1d	-0.793413
7	0xbf830749	-1.0236598
8	0xbfe6919d	-1.8013188
9	0x402a7418	2.6633358
10	0xc016f51f	-2.358711
11	0xbf068321	-0.52543837
12	0xbfc2004b	-1.515634
13	0x3f081f70	0.5317297
14	0x3f20b605	0.6277774
15	0xbfacf195	-1.3511225
16	0xbe0d38d7	-0.13791214
17	0x3fd9f02d	1.7026421
18	0x3efb5f50	0.49096155
19	0xc090d23e	-4.5256643
20	0x3f2ce8e8	0.67542887
21	0xc0009d8f	-2.0096166
22	0xbf71164a	-0.94174635
23	0xbf3816f2	-0.7191001
24	0x4059b6fb	3.4017932
25	0x3f46d262	0.7766477
26	0xc019e334	-2.4044924
27	0xbf704610	-0.93856907
28	0xc019b52a	-2.4016824
29	0xbec373af	-0.38174197
30	0xc00329c7	-2.049425
31	0xc0392af5	-2.893247

bottle_neck.0.conv_block.6.running_var f4 [32]
0	0x41bac1b1	23.344576
1	0x41ae0b76	21.755596
2	0x415d0920	13.814728
3	0x41308bcb	11.034129
4	0x418602ba	16.751331
5	0x41979452	18.947422
6	0x41866b35	16.802347
7	0x41933a56	18.403484
8	0x41ccaf3e	25.585567
9	0x414fd02a	12.988321
10	0x41bc8311	23.563997
11	0x41422d92	12.136126
12	0x41cc4279	25.532457
13	0x412ca489	10.79017
14	0x41c3ae6a	24.460163
15	0x417654c9	15.3956995
16	0x41b69d87	22.826918
17	0x41750be1	15.3154
18	0x41a8300a	21.023457
19	0x41a9644b	21.173971
20	0x41797b26	15.592566
21	0x419f480a	19.910175
22	0x41a76e81	20.928957
23	0x414a3591	12.638078
24	0x41aa9b6b	21.325888
25	0x416776d3	14.46651
26	0x41d53f78	26.65599
27	0x41b3367d	22.401606
28	0x41882659	17.018724
29	0x417784a0	15.469879
30	0x4165ab34	14.354298
31	0x414975c1	12.5912485

bottle_neck.1.conv_block.1.weight f4 [32, 32, 3, 3]
0	0x3e23ede1	0.16008712
1	0xbddc0bec	-0.107444614
2	0x3f0111bb	0.5041768
3	0x3da3f8b1	0.080064185
4	0x3ec4f58a	0.3846858
5	0x3d7544ad	0.059879947
6	0xbd891ec8	-0.06695324
7	0xbe8b4426	-0.2720043
8	0x3d2cecce	0.042218022
9	0x3e73edcb	0.2382118
10	0xbf566310	-0.8374491
11	0x3ef5d984	0.48017514
12	0xbe9a5ebb	-0.301504
13	0xbe910b0c	-0.2832874
14	0xbd902c5b	-0.0703971
15	0x3c77f14f	0.015133216
16	0x3ce5cf09	0.028052824
17	0x3dde233d	0.10846565
18	0xbeb845f8	-0.35990882
19	0x3e1c867c	0.15285677
20	0xbe9887e3	-0.29791173
21	0xbd48ac13	-0.048992228
22	0xbe818d6c	-0.2530321
23	0xbe921110	-0.28528643
24	0x3f1af47c	0.60529304
25	0x3f149aad	0.58048517
26	0xbe1f3a26	-0.15549526
27	0x3e214677	0.15749536
28	0xbda4f61c	-0.08054754
29	0x3d56bbee	0.052425317
30	0x3f2c4509	0.6729284
31	0x3e60cdf6	0.21953568
32	0xbd8ab54e	-0.067728624
33	0x3c8bd445	0.017068991
34	0x3de781c1	0.113040455
35	0xbe3ecc9c	-0.1863274
36	0xbcd2ceff	-0.025733469
37	0x3f286010	0.6577158
38	0xbead106b	-0.33801588
39	0x3e14e14d	0.1453907
40	0xbe75cf6b	-0.24004905
41	0xbb8ce650	-0.0042999163
42	0x3cb61ab3	0.022229528
43	0x3df464f8	0.11933321
44	0x3e83d9db	0.25752148
45	0x3f06a992	0.52602494
46	0x3e37dce3	0.17955355
47	0xbd9cd919	-0.076585956
48	0x3f06fe1d	0.52731496
49	0x3e95e45e	0.29275793
50	0xbe09b50d	-0.13447972
51	0x3d4caa0d	0.04996686
52	0xbe3fd5e4	-0.18733937
53	0xbcc3e0f1	-0.023910971
54	0xbed42d72	-0.41440922
55	0xbcbcdcf2	-0.023054574
56	0xbe1dccd2	-0.15410164
57	0xbe361c8a	-0.17784324
58	0xbf1b5fee	-0.6069325
59	0x3e371c83	0.1788197
60	0xbefbc7f3	-0.49175987
61	0xbe503789	-0.20333685
62	0x3ea4d86a	0.3219636
63	0xbe566273	-0.20935993
64	0xbda899a8	-0.082324326
65	0x3e906c9e	0.28207868
66	0x3f3edc96	0.7455534
67	0x3e8bd6f7	0.27312443
68	0x3d03fd61	0.032224063
69	0x3eee993f	0.46601292
70	0x3c63e901	0.013910533
71	0xbe3faf90	-0.18719316
72	0x3ec80582	0.39066702
73	0xbe98e6e5	-0.2986366
74	0x3ebe95d0	0.37223673
75	0xbe95f4d1	-0.29288343
76	0xbf0db085	-0.5534747
77	0x3ecfcd5d	0.40586367
78	0x3e67ca4e	0.22635767
79	0x3eb2db31	0.34932855
80	0xbd1d31af	-0.03837746
81	0x3dd72d28	0.1050666
82	0xbd4d77e3	-0.05016316
83	0x3e55a4b4	0.2086361
84	0x3e96cdc2	0.29453856
85	0x3eb7893a	0.35846883
86	0x3e6df5c6	0.23238286
87	0xbe56680e	-0.20938131
88	0x3b4831e2	0.003054731
89	0x3de966b9	0.11396546
90	0x3bbab2f2	0.0056976015
91	0x3e984201	0.29737857
92	0x3ec42183	0.38306817
93	0x3d02e65e	0.031957977
94	0xbe7f19ca	-0.24912181
95	0x3ede3dc0	0.43406487
96	0xbecf2b15	-0.40462556
97	0xbeb58e2f	-0.3546004
98	0xbd9597db	-0.07304355
99	0x3ed79ed6	0.4211337
100	0xbeb36c1c	-0.35043418
101	0xbe51b33b	-0.20478527
102	0x3e1a0570	0.15041137
103	0xbee101e5	-0.43946758
104	0xbe3abb85	-0.18235596
105	0x3e081e8a	0.132929
106	0xbeec6ded	-0.46177617
107	0xbe697fff	-0.22802733
108	0xbe52bf58	-0.20580804
109	0xbde1f767	-0.110335164
110	0x3cf9199b	0.030407717
111	0x3ccde3ca	0.025133032
112	0xbf4d55f6	-0.8020929
113	0x3e9ab1ce	0.3021378
114	0xbed4d68d	-0.4156994
115	0xbe85fe8c	-0.26170766
116	0x3ce0bb76	0.027433138
117	0x3c893755	0.016750017
118	0x3ea5b113	0.3236166
119	0xbdbb80ae	-0.09155403
120	0xbe21083b	-0.15725796
121	0xbdef1edc	-0.11675808
122	0x3dca73c6	0.09885363
123	0xbe4c78b6	-0.19967923
124	0xbf121017	-0.570558
125	0xbcfaff60	-0.03063935
126	0xbf01acef	-0.506545
127	0x3de52fbe	0.11190747
128	0xbe0d67af	-0.13809083
129	0xbe1b5941	-0.15170766
130	0xbf494539	-0.7862125
131	0x3f0e3f1a	0.55565035
132	0xbefa4923	-0.48883924
133	0xbf2730b0	-0.65308666
134	0xbe495da9	-0.19664635
135	0x3e32b06d	0.17450114
136	0x3ddbc216	0.10730378
137	0xbe1a3096	-0.15057597
138	0x3e4d54df	0.20051907
139	0x3f16ede9	0.5895677
140	0xbed7bd8a	-0.42136794
141	0x3d85735a	0.06516142
142	0x3d723df2	0.059141107
143	0x3d03d0c0	0.0321815
144	0x3d43fc2e	0.04784792
145	0xbcba3212	-0.022728954
146	0xbded4414	-0.115852505
147	0x3e9a5d78	0.30149436
148	0x3d0ef9c1	0.034906153
149	0xbd967206	-0.07345967
150	0x3e7e3874	0.24826223
151	0x3daff352	0.085913315
152	0x3e42cd4e	0.1902363
153	0xbf19a6f6	-0.6002039
154	0x3e2b6843	0.16738991
155	0xbe2c4cbe	-0.1682615
156	0xbd3a6990	-0.04551083
157	0x3eb0f562	0.34562212
158	0xbdb95505	-0.09049419
159	0x3e0a777b	0.1352214
160	0xbeaee24c	-0.34157026
161	0xbc8882b0	-0.01666388
162	0x3c996198	0.018723294
163	0x3ea9a10f	0.3313069
164	0x3d5a29c3	0.053262483
165	0x3e43d707	0.19124995
166	0xbeceda88	-0.404011
167	0x3e1bf646	0.15230665
168	0x3e38face	0.18064424
169	0xbc1a201f	-0.009407072
170	0x3d9773de	0.07395147
171	0x3e7579fe	0.23972318
172	0x3ecdd4e2	0.4020148
173	0x3e1f7317	0.15571247
174	0xbed770d1	-0.4207826
175	0x3ee2a9a8	0.44270062
176	0x3e276f94	0.16351157
177	0x3e76e00b	0.24108903
178	0x3effd4fb	0.4996718
179	0x3d29883b	0.041389685
180	0x3eec61af	0.46168277
181	0x3cc8981b	0.024486592
182	0xbdb37d7f	-0.08764171
183	0xbe9a6054	-0.30151618
184	0xbe8f0383	-0.27932367
185	0xbe721c06	-0.23643503
186	0xbe32f6eb	-0.17477004
187	0x3e1753ae	0.14778015
188	0x3e3d141d	0.18464704
189	0x3e88d204	0.2672273
190	0xbe90ca17	-0.28279182
191	0xbd1b5934	-0.037926868
192	0xbec7b380	-0.39004135
193	0xbf622ef5	-0.883529
194	0x3dee69e5	0.116412915
195	0xbe28aee7	-0.1647297
196	0x3e1d905a	0.15387097
197	0x3dcd1a5c	0.10014793
198	0x3dea7fb8	0.11450142
199	0x3d11857a	0.035527684
200	0x3e2c8977	0.16849314
201	0xbeaa3565	-0.33243862
202	0x3e69f152	0.22845963
203	0x3eacef19	0.33776167
204	0xbe6c7617	-0.23091923
205	0x3e9d626e	0.30739158
206	0x3e4cc4ae	0.19996902
207	0x3dc06de8	0.09395963
208	0x3dbc6abd	0.09200046
209	0xbd095d36	-0.03353616
210	0x3f0aee19	0.5426956
211	0xbc2dc215	-0.010605355
212	0x3e5af366	0.21381912
213	0x3e541b8f	0.20713638
214	0x3e7f97f7	0.24960314
215	0x3e0cc89c	0.13748401
216	0xbe31151f	-0.17293213
217	0xbe8b07b7	-0.27154323
218	0xbf1e01f5	-0.61721736
219	0x3efadd23	0.4899684
220	0xbe09f160	-0.13470984
221	0xbe6ca00b	-0.23107927
222	0x3ea9595f	0.33075997
223	0xbe400383	-0.1875134
224	0x3c5fefff	0.013668059
225	0x3e902f89	0.28161266
226	0xbeeb9758	-0.46013904
227	0xbd7b77c4	-0.061393514
228	0xbf0458c3	-0.5169794
229	0x3df4a026	0.119446084
230	0x3e258498	0.16163862
231	0x3e249119	0.16070975
232	0x3deacd45	0.11464933
233	0xbe8896a9	-0.26677445
234	0xbe1fcefc	-0.15606302
235	0xbeb80945	-0.35944572
236	0xbec1d628	-0.378587
237	0xbdd12b52	-0.10213341
238	0xbd7c5e54	-0.061613396
239	0xbf15ce9e	-0.585184
240	0x3e48f719	0.1962551
241	0xbe6ae720	-0.2293973
242	0xbecc85a7	-0.3994572
243	0x3e953fba	0.29150182
244	0x3ed2e958	0.41193652
245	0x3d1d7f41	0.038451437
246	0x3e5ceb95	0.21574242
247	0x3ee2f731	0.44329217
248	0x3dd00419	0.101570316
249	0x3ed8fddf	0.42381188
250	0x3e6b05e5	0.22951467
251	0x3e540e38	0.20708549
252	0x3d623e86	0.05523541
253	0xbee7cdc5	-0.45274177
254	0x3e24c87b	0.16092102
255	0xbe8d0a8d	-0.27547112

bottle_neck.1.conv_block.2.weight f4 [32]
0	0x3f6f77f7	0.93542427
1	0x3f393248	0.7234235
2	0x3f8a792c	1.0818229
3	0x3f2c40d0	0.67286396
4	0x3f7ff4f7	0.9998316
5	0x3f2f413d	0.6845892
6	0x3f241d03	0.6410677
7	0x3f7a0612	0.9766551
8	0x3f869fd0	1.0517521
9	0x3f661eb4	0.898906
10	0x3f4936ec	0.7859943
11	0x3f7c4186	0.9853748
12	0x3f59c0c4	0.8505976
13	0x3f84b15c	1.0366626
14	0x3f608657	0.87704986
15	0x3fa5f287	1.2964638
16	0x3f713d4b	0.9423415
17	0x3f7593bf	0.9592857
18	0x3f937fb1	1.1523343
19	0x3f8a0f12	1.0785849
20	0x3f638f7f	0.8889083
21	0x3f680d49	0.9064527
22	0x3f871fc8	1.0556574
23	0x3f7fa78c	0.9986503
24	0x3f69c996	0.9132322
25	0x3f79f7ec	0.97643924
26	0x3f67a4ad	0.9048565
27	0x3f8249fc	1.0178828
28	0x3f8e77de	1.113033
29	0x3f5ae81e	0.8551043
30	0x3f658c4b	0.89667195
31	0x3f9e8182	1.2383273

bottle_neck.1.conv_block.2.bias f4 [32]
0	0xbf0e2052	-0.55518067
1	0xbf30c080	-0.6904373
2	0xbf61f9d3	-0.88271827
3	0xbeddbd85	-0.43308654
4	0xbf04102b	-0.5158717
5	0xbedd3ddc	-0.43211257
6	0xbf14e59e	-0.5816287
7	0xbf232be0	-0.6373882
8	0xbefb0d38	-0.49033523
9	0xbf0a16fe	-0.53941333
10	0xbf3ef882	-0.7459794
11	0xbf2b0fbc	-0.66820884
12	0xbf1ad8f8	-0.6048732
13	0xbf3e9230	-0.74441814
14	0xbf35dce2	-0.71040165
15	0xbf0efc24	-0.55853486
16	0xbeef0da9	-0.4669011
17	0xbef65556	-0.4811198
18	0xbf16b1b6	-0.58864915
19	0xbf0ca473	-0.5493843
20	0xbf210aef	-0.6290731
21	0xbf1b2ae2	-0.6061231
22	0xbf319f33	-0.69383544
23	0xbf219368	-0.6311555
24	0xbe905ec4	-0.281973
25	0xbf064a36	-0.52456987
26	0xbf2f2a68	-0.6842408
27	0xbf1a17f9	-0.6019283
28	0xbec1435e	-0.3774671
29	0xbf005ffd	-0.50146466
30	0xbee01252	-0.43763977
31	0xbe800c65	-0.25009456

bottle_neck.1.conv_block.2.running_mean f4 [32]
0	0x404b866c	3.1800795
1	0xbecebb86	-0.40377444
2	0xbf4db57c	-0.8035505
3	0xbfeaf924	-1.8357282
4	0x3e1dba14	0.15403014
5	0x40d57777	6.670833
6	0x4026d96b	2.6070201
7	0xc07170da	-3.772513
8	0x3fbfaead	1.4975182
9	0xc070e045	-3.7636883
10	0x3f4a7901	0.7909089
11	0x408fc3c4	4.492647
12	0x3fd27ca7	1.6444291
13	0x403ecbf0	2.9811974
14	0x3ee9c81d	0.45660487
15	0xbfea2216	-1.8291652
16	0xbf2ce0bc	-0.6753042
17	0xbf302a79	-0.6881481
18	0xc10929a2	-8.572664
19	0xc0231cd2	-2.548634
20	0xc061e4dc	-3.5295935
21	0xbf66b89e	-0.90125453
22	0x40b41cb0	5.628502
23	0x3f332bc2	0.69988644
24	0x408103d9	4.0317197
25	0xc0866864	-4.200243
26	0x3f28b6ee	0.6590413
27	0x40cd640b	6.4184623
28	0xbf8dda51	-1.108225
29	0x3f760afe	0.9611052
30	0xbf9adb15	-1.2098109
31	0xbddb4d08	-0.10708052

bottle_neck.1.conv_block.2.running_var f4 [32]
0	0x43174a71	151.29079
1	0x42badeee	93.43541
2	0x42a710da	83.53291
3	0x42bb8376	93.75676
4	0x434510bc	197.06537
5	0x4334e154	180.88019
6	0x42d5fc46	106.99272
7	0x42f35e29	121.68391
8	0x42b9e0b5	92.93888
9	0x42dc6b5a	110.20967
10	0x42d17302	104.724625
11	0x42eb0c29	117.52375
12	0x4320f3ef	160.95287
13	0x42e42c1f	114.086174
14	0x42e4f35c	114.47531
15	0x43448537	196.52037
16	0x432e3d12	174.23856
17	0x43529303	210.57426
18	0x432f273f	175.1533
19	0x4303bbf9	131.73427
20	0x43108497	144.51793
21	0x431ee3b7	158.88951
22	0x43371ee7	183.12071
23	0x4339e850	185.90747
24	0x4302db2a	130.85611
25	0x431c1400	156.07812
26	0x42f3a8dc	121.8298
27	0x42ac8610	86.26184
28	0x42fba295	125.81754
29	0x42df6cce	111.71251
30	0x42f0b255	120.348305
31	0x4313c96a	147.78677
