models/advG_epoch_60.pth (torch_old, 358184 bytes, 49 tensors)

encoder.0.weight f4 [8, 1, 3, 3]
00000000: e5d7 0fbe 42e4 92be 34b7 edbd cfbd d3be
00000010: 9d19 cebd 716e df3e 3a16 10be a574 293e
00000020: 1024 373f 4f50 80bd 804d 4d3e 017e c33e
00000030: 9052 42be 75d1 d53d 2cd8 e13d 335a d9be
00000040: 0111 c9be b003 29bf ab51 a33e c6db 523e
00000050: d444 c2be 9fe7 9d3d 3fb8 e4be 927f 8abe
00000060: 2746 00bf 12e1 14be d23f a43e 3cd2 65be
00000070: c40d 033d e8ab 0c3f ae74 d9be 51ae 99bd
00000080: 2229 a63e 714d 96be a9b2 adbe 4f29 e3bd
00000090: 93cc 653e bc44 f7be 79fb 80be 96b3 90be
000000a0: 6478 61be 8e06 653e 486b 14bf 757e b6bd
000000b0: 520d 983e 52b0 f0bd 87df 32be cf24 5fbe
000000c0: bc52 0c3e 741c 0e3f b39b e53e 0ac1 393e
000000d0: 4ded 3f3f d1da 8d3e ee1c 81bb 09af 8e3e
000000e0: 6913 b73f d6d7 17be f2bf 2f3e 3a71 bf3e
000000f0: 1507 a3bd d63e 513e e39a 24bd d4ca 723e
00000100: d33b a93d bae7 8d3e 9d7e 883e bbfe 293e
00000110: ace5 293d a2c8 67be c3b9 1cbf a716 00bf
-0.14047201 -0.28689772 -0.11607209 -0.4135575 -0.10063479 0.43638948 -0.14070979 0.16548403
0.715394 -0.06265318 0.20049095 0.3818207 -0.18976808 0.104403414 0.1102756 -0.4245163
-0.39270785 -0.6602125 0.31898245 0.2059165 -0.37943137 0.07710194 -0.4467182 -0.27050453
-0.50107044 -0.14538983 0.3207994 -0.2244348 0.03199555 0.5494981 -0.42471832 -0.07503951
0.32453257 -0.29355958 -0.3392537 -0.11091863 0.2244132 -0.48294628 -0.25191858 -0.28262013
-0.22018582 0.22365782 -0.579762 -0.089108385 0.29697663 -0.117523804 -0.17468081 -0.21791385
0.13703436 0.55512166 0.44845352 0.18140045 0.7497147 0.27706006 -0.0039402163 0.27867916
1.4302799 -0.14828429 0.17163065 0.37391073 -0.07960335 0.20434126 -0.040186774 0.23710185
0.08263364 0.27715856 0.26659098 0.16601078 0.041478798 -0.22635129 -0.6122095 -0.50034565

encoder.0.bias f4 [8]
00000000: a6b4 013e ffef 0ebf bc98 04be cfbb c1be
00000010: 5d9b af3a 90c8 f2bd 4088 273a ecec a7bb
0.12666568 -0.55834955 -0.12948889 -0.378386 0.0013397742 -0.118546605 0.0006390847 -0.005124679

encoder.3.weight f4 [16, 8, 3, 3]
00000000: fb3d d63d 921d d23e 397c dd3e ec95 db3d
00000010: 21fb 543d 6443 afbd 32b1 3ebf 22ee 4cbf
00000020: a1b1 27bf b31e acbe 1f13 1fbe 2315 5f3d
00000030: f392 e83d 2086 903e dc06 c23e 7b40 a93e
00000040: 47c9 823e dbf3 663e 0828 02be 902d 5fbf
00000050: ea5f 51bf 0b68 91be 2ec5 89be eaa9 943c
00000060: 29a7 5a3d e4bd 203e 30c9 2c3f 8156 0ebe
00000070: ac5a 17bd 44cb 86bd f429 10be bf9f 853e
00000080: 9131 063e 9aeb ef3c 55c4 73bd 6cea acbe
00000090: c17c 803e 23d4 053d d00d d1be 7496 d6be
000000a0: f0ee 26bf a410 a6bf e258 bebe ac16 fcbe
000000b0: 8ab3 c7be 3002 0c3e e0c3 5abc 41b0 9e3c
000000c0: cde2 9d3e bb7e b03d 7c1e 37be e26c 3dbe
000000d0: 95f4 9ebe f95f 0abf c81d c0bd 63fe 25be
000000e0: bbb2 043e c291 f1bd 16ed 03bd 0ac2 083e
000000f0: 868e df3d 0582 0abd f373 6dbe 9356 093e
00000100: 6cf6 8a3e 8598 a53e fb8a 993d 6641 a43e
00000110: fee1 2b3f 0561 433f bb9a 4d3f cbba 533f
00000120: 8a54 dabd 4003 1fbd 43fc 1a3e b11b aa3e
00000130: 2e1d f43e d8ab 183f a725 a03c 7ceb 22be
00000140: 5364 103d 6594 56be 34bd 36bd 0a3e 36bd
00000150: 1292 b93d d6fc debe 02a2 96be 8549 0b3e
00000160: a6bb e6bc 036e 2e3d 4bb8 2abe a49e bcbc
00000170: d203 783e b331 babe ff5b 4d3c db03 35be
00000180: dd38 26bf 5651 1bbf 7409 19bf f2e8 5b3e
00000190: 5aea 56bd 0e1c 043d c47e 4f3e ac9d 46bf
000001a0: fdd9 5abf 6aa2 a1ba a556 9dbe 480a 10bf
000001b0: 8e7b cabe 5275 52be 3698 b7be a5a6 7fbe
000001c0: bfed 3ebe 6817 5f3d 26d6 debe 8e99 b0be
000001d0: 39e2 35be 9c05 b6be 7a43 6bbe 3191 b7be
000001e0: 8b8e 853e 550a b73e 94cb f63e 6ef1 a13e
000001f0: 47be c93e 79df d03e 2b04 94be 41e9 1abf
00000200: 2d50 4dbe 3752 aabe b9fd 22bf 5233 0bbf
00000210: b344 cd3d 16d4 7fbd ab6e 253e e60f a03e
00000220: 73d1 debd 4ca1 b5bd 1c65 5a3e 3f54 d4be
00000230: 5e42 d7be cd83 b53e b518 833e 2c4b b03e
00000240: 72c0 e0be d287 10bf 17cd 0dbf 0a9a 863d
00000250: 9980 183e 940e 2fbe b956 8f3e 6d21 dc3e
00000260: a4ae 713e 7070 5d3d 99af ca3e 4e7a 393f
00000270: e9be 1ebe 1858 7ebe cb44 873b 0a24 9bbd
00000280: 555d ebbe 9d42 08bf 0743 33bd 805e cbbd
00000290: edf0 81be fdb2 6bbe baea 4bbe 24ea 4bbe
000002a0: 2388 32be 6440 b8be 9385 9ebe 83ac 493e
000002b0: af0c 053f 21e3 1e3f 7434 3abe 28d0 48be
000002c0: fde8 51be cd1d d7bd d75a cebe 806d 10bf
000002d0: e71a 73be 5b27 a9be 0ec1 1fbf 8ca9 babc
000002e0: 5d8f 683e 5db7 a1be 8b18 ee3e 6345 fd3d
000002f0: 185f 07be 7398 18bf 9da9 bbbe a135 08bf
00000300: 4cb5 0ebe 3566 13be 3a55 81be 8676 803e
00000310: 8f13 8d3e e672 0f3e ebca b2be 9460 f9bc
00000320: cbe1 bb3e ff4d 72be 4fef aabe ebde 6abe
00000330: 88bd a3be 903d 80be cbed 72be 29e0 4abd
00000340: 15ce 6ebc b39a a03e e911 88be 5a96 08bf
00000350: 048a 8dbe 2243 223e 8a87 e1be 0a89 1bbf
00000360: a26c d03c 1b56 0ebc caf9 9dbe 4b3b 0f3e
00000370: 893f b33e d346 4f3e b9a0 9abe 9bb2 943b
00000380: 8464 b53d 1924 20be 32f9 fbbe d137 26bf
00000390: 8150 3e3e 68d7 b8be f8a9 8dbf c2eb ad3e
000003a0: 96ce a03e e5c3 883e ea8e 59be a9c8 0abe
000003b0: ff70 253e 5c4a 59bf 977b 6cbf 5eea 12bf
000003c0: 694f 07bf 5b9b 5abf 58c8 77bf 3dad 073e
000003d0: 700f cdbc 3d48 21bf 2ae1 d93e 7aa0 2c3e
000003e0: 927a 00bf eca4 133f 64db 0c3f c73e 7a3e
000003f0: 813f 23bd 046a 643c 0050 a03e f4bc 37be
0.104610406 0.41038185 0.43258837 0.10721955 0.051997308 -0.085577756 -0.7448913 -0.8005086
-0.65505415 -0.33617172 -0.15534638 0.054463517 0.11356153 0.2822733 0.37895858 0.33057007
0.25544187 0.22553961 -0.12710583 -0.871789 -0.8178698 -0.2839969 -0.2690825 0.018147428
0.053382073 0.15697438 0.6749449 -0.13900186 -0.036951706 -0.065817386 -0.14078504 0.2609844
0.13104846 0.029287148 -0.05951341 -0.337726 0.2509518 0.032673012 -0.4083085 -0.41911662
-0.6520834 -1.2973828 -0.37177187 -0.49236047 -0.39004165 0.1367271 -0.013352364 0.019371154
0.30837098 0.08617922 -0.17882723 -0.18498567 -0.31045976 -0.5405269 -0.0938068 -0.16210322
0.12958805 -0.11795379 -0.032208525 0.1335527 0.10915856 -0.033815403 -0.23188762 0.13411932
0.2714113 0.32342926 0.074972115 0.32081145 0.6714171 0.76319915 0.80314225 0.827069
-0.10660656 -0.03882146 0.15135293 0.33224252 0.47678512 0.5963721 0.019549204 -0.15910143
0.035251927 -0.20955046 -0.044614032 -0.04449276 0.09061064 -0.43552274 -0.29420477 0.13602264
-0.02816565 0.042585384 -0.16671865 -0.023024864 0.24220207 -0.36366042 0.012534141 -0.17677252
-0.64930516 -0.60670984 -0.5978005 0.2147558 -0.05246959 0.032253318 0.20263201 -0.7758434
-0.85488874 -0.0012331728 -0.30730167 -0.5626569 -0.3954739 -0.20552567 -0.35858315 -0.24965914
-0.1864538 0.05446568 -0.43522757 -0.34492153 -0.17762078 -0.35551155 -0.22974959 -0.3585296
0.26085314 0.3575007 0.48202193 0.3162951 0.39402983 0.40795496 -0.2890943 -0.6051217
-0.20050116 -0.3326585 -0.636684 -0.54375184 0.10022869 -0.06245812 0.16155498 0.3126213
-0.10879793 -0.088686556 0.21327633 -0.41470525 -0.42042822 0.3545212 0.25604787 0.34432352
-0.43896824 -0.56457245 -0.5539107 0.06572349 0.14892806 -0.17095405 0.27995852 0.42994252
0.23601776 0.054062307 0.39587095 0.7245225 -0.15502514 -0.24838293 0.004128074 -0.07575233
-0.45969644 -0.53226644 -0.043765094 -0.09930134 -0.25379124 -0.23017497 -0.1991376 -0.19913536
-0.17434745 -0.35986626 -0.30961284 0.19694714 0.5197248 0.6206532 -0.18184072 -0.19610655
-0.20499034 -0.10503731 -0.4030368 -0.56417084 -0.23740731 -0.33037838 -0.62403953 -0.022785924
0.22710939 -0.31585208 0.465031 0.1236675 -0.13219869 -0.5960762 -0.36652842 -0.5320683
-0.13936347 -0.14394458 -0.25260335 0.25090426 0.27553985 0.14008674 -0.3492044 -0.03044156
0.36695704 -0.23662566 -0.33385703 -0.22936599 -0.31980538 -0.25046968 -0.23723523 -0.049530182
-0.014575501 0.31368026 -0.26576164 -0.5335442 -0.2764436 0.15845922 -0.4404872 -0.6075598
0.025442425 -0.008687521 -0.30854636 0.13987462 0.3500941 0.20241861 -0.30200747 0.004537893
0.088570625 -0.1563877 -0.49213558 -0.6492892 0.18585397 -0.36101842 -1.1067495 0.3396893
0.31407613 0.26711956 -0.21245924 -0.13553108 0.16156386 -0.8487909 -0.92376083 -0.57388866
-0.52855545 -0.85393304 -0.96790075 0.13249679 -0.025031775 -0.6300085 0.425546 0.16858092
-0.5018703 0.57673526 0.55022264 0.2443801 -0.039855484 0.013941292 0.31311035 -0.17943174

encoder.3.bias f4 [16]
00000000: 2a7c 02bf 0a1a 1c3e 7862 e3be 7e8c 2f3e
00000010: 57b3 823e 3ec5 3d3d bdac 9f3e f245 933e
00000020: 3677 793e 8cf4 c93e f5bb bcbe ff28 1dbd
00000030: 2d30 e1be da25 ad3e a44f a43d 5596 03bf
-0.5097071 0.15244308 -0.44411063 0.17143437 0.2552745 0.046330683 0.31186476 0.28764302
0.24361882 0.39444387 -0.3686215 -0.038369175 -0.43982068 0.3381794 0.08023003 -0.51401263

encoder.6.weight f4 [32, 16, 3, 3]
00000000: fece cb3e 6c02 2e3f 71c9 4fbc 13f5 5abd
00000010: 1bf0 9d3d 2aa4 6a3d 7bbb c2be 635f eabd
00000020: 74f5 293e 48bf 22bd 2a71 9b3d 51be 953c
00000030: 481e a1be 2868 363e adac 01bf 237a f93d
00000040: ef80 b03e 1b48 a53d 2d4e 2abf 095b 4fbc
00000050: 60b0 813e 9f60 6bbd f15e 983d 9725 2fbf
00000060: b41b c43e 92f7 623f a857 913e a71e 913e
00000070: 6fb2 2c3e 26e7 e43d b714 1f3f 0cc6 9fbb
00000080: 19a6 5e3d 2de5 b33e 8d8c d9bd ebe1 a23d
00000090: 7df3 87bd 4999 ed3e 5a38 6bbc 2790 a33e
000000a0: a117 d43e cbb8 6e3e 7011 9b3e 78ec 993e
000000b0: 7eb1 043f 56f1 be3e 3b25 00be 51de 333c
000000c0: c021 873e 7e69 6cbe de5e 7abd 3a78 543e
000000d0: 9556 b0be 17af a2be dbf2 93be 1b4c 0c3f
000000e0: a94c a73e 9e6d 313e 7811 ed3d d705 3f3e
000000f0: de4c 023f a065 b43e 0899 3a3f 699d 1e3f
00000100: d59a 263f 3b21 e73e 63c8 83bd ad6d 2cbd
00000110: 8cde 53bd 7abd 20bf ab0a ecbe 60a4 c4be
00000120: 24ca 8cbe d402 04be b610 b73d 8d9c 1ebf
00000130: 3fdb 16bf 8fa9 33bf 302d aabd 272f c23c
00000140: 34c1 f0be d0f9 4dbf 422c bfbe 2e35 a4be
00000150: 6cbe 013d 3280 d63e 0f67 10be 8c91 123f
00000160: f142 203f ac97 183f a4fc 2c3f 0f44 823d
00000170: db54 83bd 1bdb c13e 0968 e7bb 255a 933e
00000180: 96c1 3f3c 0e76 bcbd 2ec2 18be d651 8c3e
00000190: 85f3 f73e 6333 a23d a587 433d e66c cc3e
000001a0: 0048 a53e 8738 363d b808 05be 0f9c fc3e
000001b0: e994 5abd 0ef8 fb3e 42ee 013e 859d 33bf
000001c0: 76cd 5dbe 6438 033f b8cb 2f3d 1e1b eebe
000001d0: ae74 97bd 8fb7 30bf 7090 a9bd ce99 343e
000001e0: 4689 f9be 68df 53bf b4c6 a7be 1284 4cbe
000001f0: 508b 83bd edac 7b3c e4d7 613e 8ef3 a83e
00000200: e7e4 47be fdc9 2b3f f4ed 073e 7c7a cb3d
00000210: e378 0b3f acb2 b03e 1c4f 0b3d 7a3e 37be
00000220: 7478 573e a037 aebd 1bc6 9cbd 8160 13be
00000230: 2364 983d 1aeb 04be 2ea2 fdbd ca29 5bbe
00000240: 3332 66bd 9320 b2bd 5d5c 37be 9337 2abf
00000250: 506e 40bf dc4b a23e 8d2d 12bf 06bf 923d
00000260: af6f 6ebe f8d6 a53b 498b 91be e01c 243d
00000270: 4d00 0d3e e541 303e 8f6b 28be 1572 d0be
00000280: b7a5 07bf 6c82 d43d b5ec 4c3c cf7f 533d
00000290: 956b acbc 6683 523d f12b ccbe 0d3c 37bf
000002a0: 143f 14bf 1f47 37bf fdcb e43d c24b 433d
000002b0: b716 28be 57bf 61bd ae2a 3fbe c594 2c3e
000002c0: 95ca 38be dcfa 463d fdf0 5dbd b212 df3d
000002d0: 8a77 203e ca14 8d3e 0c7b 853c 9751 c6bd
000002e0: c3c6 96be 3b59 06bf a80a fd3c 1b78 babd
000002f0: 9374 64be c9a3 8c3e d494 853e 92cd a83e
00000300: 3c58 26be 9cd8 fe3e ff4d bb3e 9415 0e3d
00000310: 5718 3b3f 528b 5cbd 890f ac3e 544d 0e3e
00000320: b591 173e b9e3 b5bb ea0d 81bf 0ef3 e2be
00000330: c200 e0bd 6d98 8dbe a6c0 99be c86c 23bd
00000340: b1a4 5cbe ce88 72be 4a64 a0be 1a26 91be
00000350: 182b 4e3f bd5a b5be f385 f83e 0dad 1e3f
00000360: d422 79be d765 4c3e 538f 9a3e 457e 113f
00000370: 6e81 8f3f 9e3d 6bbc 8378 e33e 22b3 353e
00000380: 136d 3abe b09b 82be f4d4 f2be 532d 8cbe
00000390: 21fc a23e 2664 cfbe 5888 ebbe 64cc 12bf
000003a0: 3c0e d9be 2776 3a3c 7b85 513e 3c9a 803d
000003b0: 2220 203e 9856 dbbe 0332 dcbc 2115 a43d
000003c0: b651 2ebe 125d c83e 3985 b2bd 3299 7e3e
000003d0: a50f 18be 69ea 75be 45d6 94bd 965b dbbe
000003e0: cd33 87be 18fe a1be 54f9 06bf 8504 dbbe
000003f0: 1f97 d1be 511b 18be 01b6 48be 0a20 e13e
0.3980636 0.67972445 -0.012682305 -0.053456377 0.07711812 0.057285465 -0.3803366 -0.11443975
0.16597539 -0.0397332 0.07589944 0.018279226 -0.31468415 0.1781317 -0.5065411 0.12181499
0.3447337 0.08070394 -0.66525537 -0.012655982 0.25329876 -0.057465192 0.07439984 -0.6841673
0.38302386 0.8865901 0.2838719 0.28343698 0.16864942 0.111769006 0.62140983 -0.004875904
0.05435762 0.35135785 -0.10622511 0.07953247 -0.066382386 0.4640601 -0.014356697 0.31945917
0.41424277 0.2331268 0.3028674 0.30063224 0.5183333 0.372935 -0.12514202 0.010978297
0.26392937 -0.23087117 -0.06112563 0.20748988 -0.34441057 -0.31774208 -0.28896222 0.5480363
0.32675675 0.17326972 0.115755975 0.18654571 0.5089854 0.35233784 0.7288976 0.6195894
0.65080005 0.4514254 -0.06434705 -0.042096782 -0.05172591 -0.6278912 -0.4610189 -0.38406658
-0.2749797 -0.12891704 0.08938734 -0.6195763 -0.58928293 -0.701806 -0.083094 0.023704125
-0.47022402 -0.8045931 -0.37338454 -0.32071823 0.03167574 0.4189468 -0.14101814 0.57253337
0.62602144 0.5960643 0.67573 0.063606374 -0.06412669 0.37862477 -0.0070619625 0.28779712
0.011703869 -0.09202205 -0.14917824 0.27406186 0.48427978 0.079199575 0.047736783 0.39926833
0.32281494 0.044487502 -0.12991607 0.49337813 -0.053364668 0.49212688 0.12688544 -0.7016223
-0.21660408 0.5125792 0.04291889 -0.46505064 -0.07395302 -0.6903009 -0.082795024 0.17636797
-0.48737544 -0.82762766 -0.32768786 -0.19972256 -0.06423056 0.015361053 0.22055012 0.32998317
-0.19520913 0.67105085 0.13274366 0.099354714 0.54481333 0.34511316 0.03401099 -0.17894927
0.21042043 -0.085067034 -0.07654973 -0.14392282 0.074409746 -0.12980309 -0.12384449 -0.2140266
-0.056200217 -0.08697619 -0.17906328 -0.6649105 -0.75168324 0.316985 -0.57100755 0.07165341
-0.23284791 0.0050610267 -0.2842658 0.0400666 0.13769646 0.17212637 -0.1644728 -0.40712038
-0.52987236 0.103764385 0.012507607 0.05163556 -0.021047393 0.051394843 -0.39877275 -0.71576005
-0.5790875 -0.715929 0.1117172 0.04767967 -0.16414915 -0.055114117 -0.18668625 0.16853626
-0.18046029 0.048579082 -0.054184902 0.10892238 0.156706 0.27554923 0.016294025 -0.09683531
-0.29448518 -0.52479905 0.03088887 -0.091049396 -0.22310095 0.27468708 0.2609011 0.32969338
-0.16244596 0.49774635 0.36582944 0.034688547 0.73084015 -0.053843804 0.33605602 0.13896686
0.14801677 -0.0055508283 -1.0082371 -0.4432606 -0.109376445 -0.27655354 -0.30029792 -0.039898664
-0.215472 -0.23685 -0.31326514 -0.28349382 0.80534506 -0.3542079 0.48539695 0.61982805
-0.24329692 0.19960724 0.30187473 0.56833297 1.1211374 -0.014357952 0.4442788 0.17744115
-0.18205671 -0.25509405 -0.47428095 -0.2737833 0.31832984 -0.40506095 -0.4600246 -0.57343125
-0.42393672 0.011380709 0.20461075 0.06279418 0.15637258 -0.42839503 -0.026879316 0.080118425
-0.17023358 0.39133507 -0.087168165 0.24863127 -0.14849718 -0.24015202 -0.07267431 -0.42843312
-0.26406708 -0.3163917 -0.52724195 -0.42776886 -0.4093561 -0.1485417 -0.19600679 0.43969756

encoder.6.bias f4 [32]
00000000: 47cd c2bd d255 9b3e 6969 453e cba3 b5bd
00000010: 22fe f83e c69e 8fbd cfef e33d 0879 333e
00000020: 6c34 12be b033 9b3e 50f7 333e 5fab 623d
00000030: 520d f43d 5993 1bbd 3808 133f e450 25be
00000040: db86 4cbd 8239 b8be 7fe2 363e e5aa b83e
00000050: 9a98 913e 5dc5 9bbe 3bdc a93e 0389 1bbd
00000060: b52c 943d f00f adbe fbda 8d3e 34c6 66be
00000070: 99fb 04bd 7710 a63e ffde ca3e d872 9dbe
-0.0951181 0.30338913 0.19278492 -0.08869132 0.48631388 -0.070127055 0.11129724 0.17526639
-0.1427781 0.30312872 0.17574811 0.055339213 0.11916603 -0.03798232 0.57434416 -0.16144139
-0.049933296 -0.35981375 0.17859839 0.36067882 0.28436738 -0.30424014 0.33175835 -0.03797246
0.0723509 -0.33801222 0.2770613 -0.22536546 -0.032466505 0.32434437 0.39623258 -0.3075168

bottle_neck.0.conv_block.1.weight f4 [32, 32, 3, 3]
00000000: 0451 7c3e 2aec 1c3f 66ea d63e 6771 ccbc
00000010: 7dfb b7bc 8358 bdbe 0954 ad3e afa8 b13a
00000020: 51df fdbd db02 cdbd f2b7 59bf 9cfa 30be
00000030: 4321 333d 255f 21bf 2c85 6fbe 93ae b53e
00000040: ed0f 89be 5614 4d3e abaa 91be a4f3 16be
00000050: 5ae9 6dbe 5914 233f 3ab9 043e c0b1 dbbd
00000060: d28f afbe 6829 0ebe 2844 d43d d683 f7bb
00000070: 8530 f03e 5d0f 383f 8b87 31bf d00a 223d
00000080: 109d bbbe d5b1 67be a384 debe fdf3 8a3e
00000090: c03b 30bf 86bb 4ebf 68b4 35bf 33d6 703e
000000a0: c862 6fbd 0ee7 773e ec43 113d 77da 9cbe
000000b0: fd20 e4be b85f d83d a74f 59bd 823e ab3e
000000c0: 5d21 9abd 5b7e ca3e 6e6b 393e 240d f1bd
000000d0: 8168 7cbd a964 e6bd 844d a83e d7be b73d
000000e0: 1552 fcbe cc69 2e3c e848 d0be 5204 32bf
000000f0: 76c7 9d3e 8107 e2bd 1ab6 b83e 2308 95bd
00000100: 683a 1dbf a31b d43d 2a50 d83e b22e 473f
00000110: 50a1 a33d ded9 e3be 4df2 ebbe 6b04 fdbd
00000120: a31e 8fbe c37a 82be 51ec d2be 83cb 363f
00000130: 3a40 543e a570 23be 6102 e0be 3fc9 893e
00000140: 131a 163f b044 f8be 179a 75bf 54d6 5dbe
00000150: e17c 0abe f38b 25bf a9b0 c0bc c8bc d6be
00000160: 307b 0dbf fa97 cbbe 1b39 6a3e ff4e d1be
00000170: 67b7 bb3c 536b 663e b340 92be d998 253d
00000180: 3437 a73e 4204 debe a4db 233e 17e4 333f
00000190: 922c 963f ea61 fe3e e101 75be 3912 413d
000001a0: 334d 06be 69b2 2f3e d535 c3bd a52d 9cbb
000001b0: 7365 d5be fa10 10bf 8c8a bcbe 735f 163f
000001c0: 3ea8 2d3d e204 e83d 206f 86bd fb45 d63d
000001d0: 94ac 11bc 6e90 8abe 68c4 bdbe 9923 0bbf
000001e0: c45d b3bd 971c 8c3e a6d4 e73d ffff 9c3d
000001f0: 5550 90be 2180 58be 9f91 533e d895 923d
00000200: 2ad9 c3bd 074c 2fbd 943a 133e 24fc 99be
00000210: aee5 f43e 338d be3e ebed 5bbe 1db2 a4ba
00000220: 2c66 5b3e 09ed 993e a1fc 7bbe 67a4 50bd
00000230: 9447 c2be 2ec8 9e3e cc8e 713d 14e7 953e
00000240: ff68 13bd 4b2e 5d3e 6b2a 8ebe 835b fabe
00000250: 5d62 23be cf60 40bf 7488 453b 06b6 803e
00000260: 9436 5d3d c015 36bc e8af 87bd c9c4 12be
00000270: d031 e1be 00fc 043f 97e2 413e 43eb 623e
00000280: 50e0 143f 43c8 bfbd 0b32 0e3f caa7 3c3f
00000290: 5b69 813e f65e 6fbd 8f09 cf3d dc2c 6fbe
000002a0: 6fcb 503e 81ea a3be cd6e 093f 7190 3dbc
000002b0: acef c33c 45e0 593e b4c9 993e 9ceb 47be
000002c0: 718e babd 278b 11be af69 323e bb7e 91be
000002d0: bd2a 1abe 8b29 013c c95e 28bf 0cfd d23c
000002e0: 1d94 00bf 078d bfbe 982b ecbc 01cc ab3d
000002f0: 139f 1fbe 7ed5 19be 8d67 57be cae3 0cbf
00000300: cc0b 9f3d d046 98be cac9 89bc 6e0c 37be
00000310: 39f2 013f 56c1 8bbe 232b 06bf ab2d 3fbe
00000320: 3947 f4be 0408 8fbe 36bb 65bf f654 8ebe
00000330: c8ef 20be ede4 a7bd 1590 26bf cf7a 823e
00000340: bd55 0fbe f754 50be 2bd7 833e 7319 3b3e
00000350: 5c39 44be 18ba 6b3d 3d86 363f 595a 433d
00000360: 19ac 843e a0a0 2b3f 9c1c a63d f025 82be
00000370: e953 b43e 4bbf 81be 2ddc 303e d751 9fbe
00000380: 26d7 543f 93c4 ef3e c9e5 843e 6764 f7bd
00000390: 401f 943d f3ad e1be 25ee 2cbe 1f3e 60bd
000003a0: c8fd 4e3d 4d9c 773d 8132 e5be ee95 22bf
000003b0: 6a87 be3d c672 fc3e 718f 283f 6ac4 4c3d
000003c0: a84a 3cbf 2e3d fcbd d63e 76be 4c2b 6d3d
000003d0: 6d67 f23e 884a bf3e e773 c1bd 486a 96bb
000003e0: 9694 893e 0fb5 19be 78d2 5dbf d8dc 1c3e
000003f0: f34d 353e fc94 473d 011a bf3b d8be c5bd
0.2464028 0.6129786 0.41975707 -0.024956418 -0.022458786 -0.36981592 0.33853176 0.00135543
-0.1239611 -0.1001031 -0.85046303 -0.172831 0.043732893 -0.63035804 -0.23390645 0.35484752
-0.26769963 0.20027289 -0.28450522 -0.14741379 -0.23233548 0.63702923 0.12961283 -0.107272625
-0.34289414 -0.13882983 0.10364562 -0.007553558 0.46912017 0.7189844 -0.6934745 0.039561093
-0.36643267 -0.22626431 -0.4346057 0.27139273 -0.6884117 -0.8075489 -0.70978403 0.2351921
-0.058443815 0.24209234 0.035465166 -0.30635425 -0.44556418 0.10565132 -0.053054478 0.33446127
-0.07525895 0.39549527 0.18107387 -0.117700845 -0.0616231 -0.11249668 0.3287164 0.08971947
-0.49281374 0.010645341 -0.40680623 -0.6953784 0.3081624 -0.110365875 0.36076432 -0.072769426
-0.61417246 0.10356834 0.4224866 0.77805626 0.07989752 -0.44502157 -0.46083298 -0.12354358
-0.2795306 -0.25484285 -0.4119592 0.71404284 0.20727625 -0.15960939 -0.43751815 0.2691135
0.58633536 -0.48489904 -0.9593825 -0.21663791 -0.135242 -0.6466667 -0.023521738 -0.41940904
-0.55266094 -0.39764386 0.22873347 -0.40880582 0.022914601 0.22501878 -0.28564987 0.04042897
0.32659304 -0.43362623 0.16001755 0.7026991 1.1732352 0.49684078 -0.23926498 0.04713652
-0.13115387 0.17157902 -0.09531752 -0.0047661834 -0.41678962 -0.56275904 -0.36824453 0.58739394
0.042396776 0.11329056 -0.06564164 0.104625665 -0.0088912435 -0.27063316 -0.3706391 -0.5435119
-0.08758119 0.27365562 0.11319856 0.07666015 -0.28186288 -0.21142627 0.20661019 0.07157487
-0.09562905 -0.042797115 0.14377815 -0.3007518 0.47831482 0.372171 -0.21477477 -0.0012565289
0.21425694 0.30063656 -0.24608089 -0.050938036 -0.37945235 0.310121 0.058974072 0.2927786
-0.035988804 0.2159969 -0.27766737 -0.48897943 -0.15955491 -0.7514772 0.0030141147 0.25138873
0.054007128 -0.011113584 -0.06625348 -0.1433288 -0.43983316 0.5194702 0.18934093 0.22160058
0.58154774 -0.09364369 0.5554511 0.73693526 0.25275692 -0.05844017 0.10109245 -0.23356956
0.20390104 -0.3201485 0.53684694 -0.011570082 0.023917995 0.21276958 0.300367 -0.19523472
-0.091092 -0.14213239 0.17423128 -0.28417 -0.15055366 0.00788344 -0.6576963 0.025755428
-0.50226 -0.37412283 -0.02882938 0.0838852 -0.15588026 -0.15022847 -0.21035595 -0.5503508
0.07765922 -0.29741526 -0.016819853 -0.17875835 0.5076023 -0.2729594 -0.5240957 -0.18669765
-0.4771059 -0.27935803 -0.89738786 -0.27799195 -0.1571647 -0.08197961 -0.650636 0.2548432
-0.1399755 -0.20344912 0.25750098 0.18271427 -0.19162506 0.05755052 0.7129858 0.047693584
0.2591255 0.6704197 0.081109256 -0.2541957 0.35220268 -0.25341257 0.1727149 -0.31117126
0.8314079 0.46829662 0.25956562 -0.12079697 0.07232523 -0.44078025 -0.1688772 -0.054746743
0.050534993 0.060451794 -0.44765094 -0.63510025 0.09303172 0.49306315 0.65843874 0.049992003
-0.73551416 -0.123163566 -0.24047408 0.05790262 0.47344533 0.3736155 -0.09445935 -0.0045903064
0.26871175 -0.15010475 -0.86649275 0.1531862 0.17705517 0.048726067 0.0058319573 -0.09655541

bottle_neck.0.conv_block.2.weight f4 [32]
00000000: b579 6e3f 6f94 903f 6097 683f 73b6 a43f
00000010: 2248 a63f 1c5f 5e3f 30c9 8e3f 39f1 833f
00000020: 86ab bd3f 9254 873f 1871 763f 9289 9c3f
00000030: f55c 7f3f 9c2a 6c3f c2fc 853f c861 713f
00000040: 688a 8c3f 09c0 883f ca69 5a3f e1fd 8b3f
00000050: b58f 583f 2c6f 5a3f 525f 903f 110a 973f
00000060: 49cd 603f eb6a 703f f50a 7b3f d205 4b3f
00000070: 5796 873f a571 8c3f b10c 623f e8f4 643f
0.9315446 1.1295298 0.9085598 1.2868179 1.2990763 0.86863875 1.1155148 1.030799
1.481797 1.0572684 0.9626632 1.2229483 0.99751216 0.92252517 1.046776 0.9428983
1.0979738 1.0683604 0.8531767 1.0936853 0.8459428 0.85325885 1.127909 1.1799947
0.8781324 0.93913144 0.98063594 0.79305756 1.0592755 1.0972182 0.88300616 0.894362

bottle_neck.0.conv_block.2.bias f4 [32]
00000000: 8f13 1dbf 9dc5 00bf 1ad6 eebe 49c7 22bf
00000010: 996f 13bf c149 e5be 6baf b6bd 7914 3cbf
00000020: d88c e2be b164 b7be 130c d5be 80d5 d4be
00000030: 6f87 0fbf a07f bebe ffe9 22bf ea5e a0be
00000040: 7a95 dbbe cfb6 febe 4f58 31bf e5a5 c0be
00000050: 61a8 dfbe f99a 1dbf 528d 9dbe 13a3 c6be
00000060: 672d 07bf 8452 99be 9639 33bf 2198 f4be
00000070: 41f1 03bf 4288 a1be 608e 21bf 6d75 0abf
-0.6135797 -0.50301534 -0.46647722 -0.63585335 -0.5759216 -0.44782832 -0.08920177 -0.7346874
-0.4424808 -0.3581901 -0.41610774 -0.41569138 -0.5606603 -0.37206745 -0.636383 -0.31322414
-0.4288748 -0.49748847 -0.69275373 -0.37626567 -0.4368315 -0.61564595 -0.3077188 -0.3879629
-0.52803653 -0.29945767 -0.70009744 -0.47772315 -0.5154 -0.3154927 -0.6310787 -0.5408543

bottle_neck.0.conv_block.2.running_mean f4 [32]
00000000: e31c bec0 ab70 5540 973a ad3d a2fb 88c0
00000010: fc73 8b3e be07 16c0 96db 82c0 3810 c1bc
00000020: f7f7 3bc1 4e20 1b3f ba45 15bf 01c8 55bf
00000030: 65c7 0bc0 e4ea d4c0 f4e9 6d3f cc9e 90c0
00000040: 36e3 c4c0 cc4d 9440 5844 ae40 3281 1a3e
00000050: 7670 fe3e b768 e03f cb70 f5c0 6ab2 1bc0
00000060: 864a 6640 cc9c bbbf 523b c73f d6ba efbe
00000070: 4f8a 8a3f 295a eebf 34a7 ccbf bb8e dac0
-5.941026 3.3350017 0.08458441 -4.280717 0.27236927 -2.3442225 -4.089305 -0.023567304
-11.748038 0.6059617 -0.5830952 -0.83508307 -2.184045 -6.653673 0.9293511 -4.5193844
-6.1527357 4.6344967 5.4458427 0.15088347 0.49695176 1.7531956 -7.6700187 -2.4327645
3.5982985 -1.4657226 1.5564978 -0.46822232 1.0823458 -1.8621265 -1.5988526 -6.829923

bottle_neck.0.conv_block.2.running_var f4 [32]
00000000: 7c19 a242 a3bd 6b42 b18a 7242 5872 9142
00000010: cfa0 8442 490e 4342 7ccf 8042 b80c 3c42
00000020: 4f1a 8a42 03ab 9d42 7490 8142 c407 9042
00000030: e75f 8142 326a 5342 05e6 2142 89b1 9942
00000040: 1cd4 7642 054d 6142 7289 6c42 a782 8542
00000050: d259 4942 a5d4 4442 e77c 8542 db78 7842
00000060: 3a43 5e42 5ba0 8242 23eb 8242 0547 6942
00000070: d226 3b42 3e98 8d42 841e 6042 45b1 ab42
81.049774 58.935192 60.63544 72.72333 66.31408 48.76395 64.40524 47.01242
69.051384 78.83401 64.782135 72.01517 64.68731 52.853706 40.47463 76.84675
61.707138 56.325214 59.134224 66.75518 50.337715 49.20766 66.74395 62.118023
55.56565 65.313194 65.45925 58.319355 46.78791 70.79735 56.0298 85.84623

bottle_neck.0.conv_block.5.weight f4 [32, 32, 3, 3]
00000000: 63f7 bd3e 1334 bebe a8a9 e0be 93fa e6be
00000010: 8d72 a0be 39dc 773e c036 bcbe 741b e0bd
00000020: 0827 073f ac66 bc3e 540f aebb 330d 0b3f
00000030: 8a91 98bd b80a 15bf 9f7a 40be 1a7e 323e
00000040: a70e fdbe 674f 06bf 8a8b 2d3e cde4 2e3f
00000050: 4167 8c3d d378 3fbe 71ab e13e 167f 3a3e
00000060: b2f7 4ebd bb46 083f 1e88 873e 5bb8 173f
00000070: 9f02 283f ccbf 083f a589 0abd eed5 fbbd
00000080: e71a a23d a728 bfbd 2527 8cbe 6bf5 37bd
00000090: f019 54be b421 c2be 7998 abbe 8ea4 6d3c
000000a0: 8643 cabe 93e1 93be 09ac aebe 19ee 5e3d
000000b0: d9ff 8b3d 2c12 0abe 8087 55bf 2770 3bbe
000000c0: 4134 13bf 8004 bf3e d5dc ce3e 3246 f9bd
000000d0: 16ff 223d 408a 19bf cfd3 3f3e ec0f 123e
000000e0: 12e3 da3e e0d1 b83e 5773 273f 8c99 553f
000000f0: 9746 99bd e170 e7bc bc83 91bb a256 de3e
00000100: 6598 02bd 6f1f b7be cde9 c73d 7dce 18be
00000110: b729 08bf 05e7 19bf 6fc8 d5be 60dd 62bf
00000120: 4409 2d3f 17b9 243f 8969 043f 4215 e63d
00000130: 82c4 c23e 3085 003f 749b 45bf 5e20 e1be
00000140: 0e27 0e3e 9b16 333d 0c79 0cbf 3e0b 05bf
00000150: 6177 01be bd7f 8d3e dedd 8b3d eee0 853e
00000160: e8d2 703e 2e42 123f e704 643e 9bd0 5abe
00000170: f527 933e 18b3 103e a9e9 e8be 4e0c 4abd
00000180: a214 13bd 2309 5b3e 1122 00be c71a ac3e
00000190: 91c3 e5bc 36c4 aebe 8d56 fbbd c2a0 11bf
000001a0: bb35 5dbc a3d5 833e f2d2 1abe eab2 dcbd
000001b0: 3424 7abe 131d 09bf 8984 813e cef4 413e
000001c0: b5e6 0a3e 40c7 95bc c250 86bb 9c25 1d3d
000001d0: 94c2 76be dfcb 46bd c1d5 5e3e da04 3abf
000001e0: 9844 0b3e f185 563e 4588 883e 9c78 51be
000001f0: e543 c5bd bf9c 963e 9027 fa3e 7a19 45bb
00000200: abdf a83e d220 323e 0fcf a0bd 8182 7b3c
00000210: 69ca 5dbe 1851 cabe 0da2 bd3d bb0e 09be
00000220: 2d22 2e3e 9ca7 90bd 565f 0cbd 9d82 e83d
00000230: 6ea1 7b3e 9cf8 debe 55fc 903e 0e77 32be
00000240: f1c4 d93e 5c5a 653d f834 fc3d 00b9 09be
00000250: 8ae1 b7bd 6fe2 3f3f 9081 22bd 2195 32be
00000260: bce2 b73c 47aa 483e 814d 8d3e a01c 02bf
00000270: 66e7 24be 2d67 68be 1bcc e93e 57d2 b93e
00000280: ce15 1f3f aaa3 583e 2c0d b4bd ca90 34bf
00000290: 9b21 15bd ff0a 103e e9c7 55be d19c 2bbd
000002a0: 2bbe d63e b17e 2a3d 520d 0e3e f077 d3bd
000002b0: d05f 883e 0069 0abd 3c53 6dbe e341 87be
000002c0: 93f0 beba 9919 0b3b 4782 ce3d e369 f2bd
000002d0: 12a1 08be 5fd1 143d 46a7 55be f79f 0bbf
000002e0: 53d2 22be b682 7dbf 76d3 f43e eae3 ea3d
000002f0: 207d 97be d03c a8be 734f e9be 8a64 27bf
00000300: 4ad6 af3e c4dd 2f3e 8505 d93e 5d61 86bd
00000310: 23d4 d4bc b544 933e 78b7 f43e 54fd ec3e
00000320: 6180 cb3e 4277 f83d 5612 01be 0540 fbbe
00000330: b2b7 b73e 70c7 a8bd 3d10 16bf 7b84 263e
00000340: 3d8a 9a3f 2bc2 5a3e a191 38bb 3283 9e3e
00000350: 1f3f 18bd 6bb9 7ebd d2df 193e 6655 b4bd
00000360: 210f 8ebe ac88 74bf 47cf 26bf 1c0d a83e
00000370: b5d1 313c 40a7 f63e d3e4 2c3f 8196 ef3e
00000380: 000a 9e3d 244f 6bbe f483 b2be f6f9 97be
00000390: 190f 513e 9200 4b3f 25b7 8c3f 7d5b 99be
000003a0: 51a7 bbbe 3a03 abbe 60ea a1bd 70c8 67be
000003b0: fcd5 a3be 0b2e 863e 93f4 82bc ff97 38ba
000003c0: 4a41 963e 1510 26bc ddc6 453f 9c27 68be
000003d0: 7bab fbbe fe1b 2abf f032 333e 0b6a 073e
000003e0: 9de8 953e 41c1 ea3e 103f 413e 1f24 653e
000003f0: d31f 1ebf d657 433d 27c0 38be 4105 38be
0.37102804 -0.37149104 -0.43879437 -0.45113048 -0.31337395 0.24205102 -0.3676052 -0.10942736
0.5279393 0.36797082 -0.005311886 0.54317015 -0.074496344 -0.5821948 -0.18796776 0.17430916
-0.4942524 -0.5246491 0.16947761 0.6831787 0.068556316 -0.18698435 0.44076112 0.18212542
-0.05052919 0.53232926 0.26471037 0.5926568 0.65629 0.5341766 -0.033822674 -0.12296663
0.079152875 -0.09333926 -0.27373615 -0.044911783 -0.2071302 -0.37916338 -0.33514765 0.014504565
-0.3950464 -0.28883037 -0.34115627 0.054426286 0.068359084 -0.13483495 -0.8340988 -0.18304501
-0.5750161 0.3730812 0.40402856 -0.12171592 0.03979405 -0.5997658 0.18733142 0.14263886
0.42751366 0.36097622 0.6541037 0.8343742 -0.07484167 -0.028252067 -0.004440753 0.4342547
-0.031883616 -0.3576617 0.09761391 -0.14922519 -0.5318865 -0.6011813 -0.4175448 -0.8861904
0.67592263 0.64344925 0.51723534 0.11234523 0.3804055 0.5020323 -0.7719033 -0.43970007
0.13882086 0.04372273 -0.548722 -0.5197028 -0.12643196 0.2763652 0.06829427 0.2614817
0.23517954 0.5713223 0.22267495 -0.21368639 0.28741422 0.14130819 -0.4549077 -0.04932814
-0.03590835 0.21390204 -0.12512995 0.3361418 -0.028047355 -0.34134072 -0.122723676 -0.5688592
-0.01350158 0.2574893 -0.15119532 -0.10776313 -0.24427873 -0.5355999 0.2529643 0.18941042
0.1356457 -0.018283486 -0.0040989826 0.038365945 -0.24097663 -0.04853427 0.21761228 -0.7266365
0.13600385 0.20949532 0.26666465 -0.20456165 -0.096320905 0.29416463 0.4885831 -0.0030075
0.32983145 0.17395332 -0.07851993 0.015350939 -0.21659245 -0.39514995 0.09259424 -0.13384525
0.17005225 -0.07063219 -0.034270607 0.113530375 0.245733 -0.4354905 0.28317514 -0.17428228
0.42533067 0.055994377 0.123147905 -0.13449478 -0.08978565 0.74954885 -0.03967434 -0.174397
0.022446983 0.19596206 0.27598193 -0.5082493 -0.16103896 -0.22695608 0.45663533 0.3629329
0.62142646 0.21156183 -0.08791575 -0.7053343 -0.036409 0.14066695 -0.20877041 -0.0418976
0.41941962 0.04162473 0.13872269 -0.10325611 0.266356 -0.033791542 -0.23176283 -0.26417455
-0.0014567546 0.0021224974 0.10083442 -0.118366025 -0.13342693 0.036332484 -0.20864591 -0.5454096
-0.15900545 -0.99027574 0.47817582 0.114692524 -0.2958765 -0.32858896 -0.45568427 -0.65387785
0.34343177 0.1717444 0.42387024 -0.06561539 -0.02598006 0.28763357 0.47796226 0.46287024
0.39746383 0.121321216 -0.12604651 -0.4907228 0.35882336 -0.08241165 -0.5861853 0.16261475
1.2073437 0.21363132 -0.0028162973 0.3095947 -0.037169572 -0.062188547 0.15026787 -0.08805351
-0.27745917 -0.95521045 -0.6516003 0.32822502 0.010853221 0.48174477 0.6753666 0.46794513
0.07716751 -0.22979409 -0.34866297 -0.29682893 0.20415916 0.79297745 1.0993391 -0.29952613
-0.3665109 -0.334009 -0.079060316 -0.22635055 -0.31999195 0.26207003 -0.015985763 -0.0007041692
0.29346687 -0.01013567 0.77256566 -0.2267136 -0.49154267 -0.6644896 0.174999 0.13224046
0.29279032 0.45850566 0.18871713 0.2237706 -0.6176731 0.04769119 -0.1804205 -0.17970754

bottle_neck.0.conv_block.6.weight f4 [32]
00000000: 79a7 103f d44e 003f da6f 5a3f e8a2 6d3f
00000010: aa17 543f a8e2 3a3f ab18 4b3f d3bd 863f
00000020: 8ce7 233f 0030 113f c90e 5c3f 02b1 753f
00000030: 907c 183f 88f9 3d3f c23d e93e ed41 353f
00000040: cab2 093f b1b2 483f 53c0 3b3f 819f 383f
00000050: aa6a 6e3f 838f c33e b27e d53e 0f1a 583f
00000060: 5e51 573f 16ea 6a3f 7056 893f ee65 d23e
00000070: 79af 153f 44ea 563f 104b 8d3f 8045 a03f
0.56505543 0.5012028 0.8532692 0.928267 0.8284861 0.730021 0.79334515 1.052668
0.6402519 0.5671387 0.8596006 0.9597322 0.5956507 0.7420888 0.4555493 0.7080372
0.53788435 0.7839766 0.7334034 0.72118384 0.93131506 0.38195428 0.41698223 0.8441476
0.8410853 0.91763437 1.0729504 0.4109339 0.58470875 0.8395121 1.1038532 1.252121

bottle_neck.0.conv_block.6.bias f4 [32]
00000000: b05a 61bd c81c bcbc a803 87bd c255 07be
00000010: b182 1dbc c4f6 ab3d 4a8d 573b 7ddd 59be
00000020: fdd7 c5bd d361 653d 3e6b bdbd 954b 47be
00000030: 333f e7bd 7b11 abbd ece1 1bbe 0863 20bd
00000040: 6d26 d8bd 4c9b 913d 9670 cabd 3df9 b3bc
00000050: 0fa4 91bd 4fa9 a9bd 0142 44bd f197 8cbe
00000060: 00b8 d3ba 9304 54be 2d78 90bd 33c0 9cbd
00000070: 28f2 3abe 3a63 d2bd 6d21 8abd 2493 3c3b
-0.055018127 -0.022962943 -0.06592494 -0.13216308 -0.009613679 0.08396676 0.0032890611 -0.21275897
-0.09660337 0.056001496 -0.092489704 -0.19462426 -0.11291351 -0.083529435 -0.15222901 -0.039156944
-0.10554204 0.07109699 -0.09884755 -0.021969432 -0.0711137 -0.08284246 -0.04791451 -0.27459672
-0.0016152859 -0.2070487 -0.07054172 -0.076538466 -0.18256438 -0.10272832 -0.06744657 0.0028774226

bottle_neck.0.conv_block.6.running_mean f4 [32]
00000000: 1e08 3e3f dbed b13f a930 d53e c0a6 d6bf
00000010: b6db 40c0 c97d 343f aa43 5cbe ac88 91bd
00000020: 7da8 58bf ae8b 5440 35eb 02c0 1b7e 91bf
00000030: c3fb 5cbf c8e0 c9be ed01 a93e bac2 9bbf
00000040: 5b6a 4d3f fddd 583f af72 7dbf adae 8bc0
00000050: d77a 3a3f 20e0 84bf f6b0 50be bfd5 29bf
00000060: d4a5 3640 d8d8 ef3d 40a4 15c0 08aa 29c0
00000070: 722d 24c0 ce7d aabe 73ad 75bf fa96 16c0
0.74231136 1.3900713 0.41638687 -1.6769638 -3.01341 0.7050443 -0.21510187 -0.07106146
-0.8463209 3.3210254 -2.045606 -1.1366609 -0.8632166 -0.39429307 0.33009282 -1.2168801
0.8024041 0.8471373 -0.9900312 -4.3650727 0.7284369 -1.0380898 -0.20380005 -0.66341776
2.8538713 0.117112815 -2.33815 -2.651003 -2.5652738 -0.33299106 -0.9596779 -2.3529649

bottle_neck.0.conv_block.6.running_var f4 [32]
00000000: bf36 ef41 24a7 e141 1d40 9a41 b855 8141
00000010: 1d86 8841 3f08 ba41 5690 bf41 6e5d 8e41
00000020: 8434 0a42 71e2 8c41 5dc0 ec41 e4f8 5c41
00000030: bdf9 0342 be9e 6041 5a01 e741 390f a141
00000040: 4c6f 0b42 f56f a241 31d6 d641 ecbc c441
00000050: a5dd 8841 dfa3 ad41 4cd1 de41 d11f 8941
00000060: 7500 b641 6d17 9441 cc76 f141 5813 bb41
00000070: cdf9 9b41 ac3e 8a41 f53f 9941 71ef 6e41
29.901731 28.206612 19.281305 16.166855 17.065485 23.254026 23.945477 17.79562
34.551285 17.610567 29.593927 13.810764 32.993885 14.038755 28.87566 20.132433
34.85869 20.304667 26.854586 24.592247 17.108225 21.705015 27.852196 17.140535
22.750223 18.511438 30.183006 23.384445 19.496973 17.280602 19.156229 14.933457

bottle_neck.1.conv_block.1.weight f4 [32, 32, 3, 3]
00000000: b26a b2ba 4d78 46be ea1d ba3e c123 543e
00000010: 9c50 f93e 7749 d43d b155 eebd 2486 96be
00000020: 5c07 d4bd 5610 233e 8fac 52bf ba28 223f
00000030: 68d0 abbe 8372 a3be a2e8 0dbc 6f82 c83d
00000040: 74d2 5a3d 18cd 8b3e 688a b0be fa59 1e3e
00000050: ab73 a8be cc65 16be 46e6 52be 0b26 8dbe
00000060: 492a f43e 824a 023f 81e7 c4be 0216 9b3e
00000070: 2842 093d b5b1 71bc 1d2b 2c3f 1777 2e3e
00000080: 6447 40be bc72 a43d 4fab 873e b21d 98be
00000090: f4d3 54bd 049b 493f 6088 debe 29a4 623e
000000a0: fbe3 a0be 2fcd 863d 5b73 1c3d b57d c53d
000000b0: 5a45 003f 41e3 353f 26cc 263e 8c1f 28be
000000c0: 65dd 203f deb7 463d 4f52 3fbe 27dc 983b
000000d0: 1b03 85be 64a2 01be da40 e3be 04a2 64be
000000e0: e979 5abe 255c c6bd 31c1 30bf 2226 aa3e
000000f0: 0790 e8be c2e4 59be f4b5 023f 8afd 09be
00000100: f017 5bbe 91d1 843e c7b3 4c3f d471 4a3e
00000110: 9bb1 0cbe 5452 083f a8fd 6abd 591b 84be
00000120: 5b31 b43e 5f88 d4be fbd4 003f 51ff edbe
00000130: c496 22bf 8f03 c43e 3c1d 223e 7869 4c3e
00000140: 2244 16be 50b8 653e 3a21 65bc 308f 463e
00000150: efbf fa3d 9d85 d03e 486e 563e 87a0 0abe
00000160: 4833 573d 5f06 833e 88cd a6bd 34b6 923e
00000170: d179 d13e 25eb 5a3e 9a41 aabe 5282 203f
00000180: fa33 b7be e70e f8be 4624 863d 11de 083f
00000190: f1d6 cebe 9089 71be 5c2c a33e 896c a6be
000001a0: b30c e7bd 6b45 933e 1ef5 19bf 7255 b0be
000001b0: 41c4 6dbe 3531 8dbb 921e 31bd d7a7 aebd
000001c0: b3b2 52bf 728a a43e 5d90 bdbe 577d 85be
000001d0: 6fc0 743e f191 0abd e310 973e 2932 09be
000001e0: ee22 42bd f511 fdbd c0c9 733e 6a2b 0bbc
000001f0: 4f6a 38bf 60b6 473d 500e c8be b862 8c3d
00000200: f75a fb3c d32e 07be 7027 75bf 0ad4 2e3f
00000210: 8a32 cebe b87e 3fbf c548 6d3d b328 853d
00000220: 30c2 86bb e2aa e1be 2fc6 8a3e deb6 e13e
00000230: de78 04bf 50de 9dbd fb64 493d 6ee4 21be
00000240: 24fa 14bd 765e 54be 9cd6 a0be 7694 b73e
00000250: fff0 ecbd 1901 033d 69f6 2a3c 91a9 ad3c
00000260: 0d0d e53d 7d59 10bf b074 7e3e d671 2bbe
00000270: 718c 5dbd f8d6 cd3e 4563 1ebe f777 9ebd
00000280: 6862 babe b6f1 eabd 4d6e dbbd 9746 4f3e
00000290: 298b 4f3c 7625 773e 5bb3 06bf 0bdc 903e
000002a0: 1f65 bb3c d22f 30be c96e 16bc 50b5 1e3d
000002b0: cb70 da3e 5d4f 1d3d 1af0 fdbe b215 083f
000002c0: 33c0 0a3e ce72 093e 541a 123f fd14 fb3b
000002d0: ceaa 033f bcc5 57bb 2022 92bd 1f79 e3be
000002e0: b09c 90be 66d3 a2be c356 95bd b055 a13d
000002f0: c653 853e f009 843e 8f7f aabe cf19 0b3e
00000300: 7117 bbbe ade3 6fbf 5fdb ca3d 1857 09bd
00000310: 3698 243e aa24 483e c30a edbc 5a7e b5bd
00000320: 3b82 bb3b 9a50 a9be 472c cb3e 4d3c c73e
00000330: a0d8 43be 022d d13e 07af 863e fb16 163e
00000340: 307c abbd f2ce 3bbc 7b7d 143f 7eed 0bbe
00000350: 13f1 6a3e 5905 c03e 89e8 8a3e 337c dd3e
00000360: e353 a1bc 5de9 2fbe 8165 17bf eac9 eb3e
00000370: 6e00 babe 7c62 e7be 2196 f93e f108 dcbd
00000380: a338 963c 9ffe f53d 4efd 1bbf 243f f73d
00000390: 46ed fbbe a277 3c3e 28f4 543e 730c 283e
000003a0: e698 0e3e 85d5 afbe 5f33 25be 4915 05bf
000003b0: 01f8 f2be 71a6 ddbc de12 aa3d 413c 0dbf
000003c0: 153b fd3d e5e3 a7be a821 10bf 4555 813e
000003d0: 612f 8b3e 830e 09bd 44dd 443e 4dc5 123f
000003e0: bfbe 083e d542 0c3e 974e 8f3e b325 c93d
000003f0: d5e1 31bd 4dac fbbe ff78 133e 6297 bebe
-0.001361212 -0.19381829 0.36350948 0.20716764 0.48694313 0.10365575 -0.11637438 -0.29399216
-0.10352966 0.159242 -0.82294554 0.63343394 -0.3355744 -0.31923303 -0.008661421 0.09790503
0.05342336 0.27304912 -0.34480596 0.15464011 -0.32900748 -0.1468727 -0.20595655 -0.27568087
0.4768851 0.5089494 -0.38457873 0.30290228 0.033510357 -0.014751841 0.67253286 0.17037617
-0.18777233 0.08029696 0.26497886 -0.29710156 -0.051959947 0.7875216 -0.4346342 0.22132935
-0.31423935 0.065821044 0.03819595 0.09643117 0.5010582 0.71049887 0.16288814 -0.16418284
0.6283782 0.048515193 -0.18683742 0.004664916 -0.25978932 -0.12659603 -0.44385415 -0.22327429
-0.21335568 -0.09685544 -0.69044787 0.33232218 -0.45422384 -0.2127867 0.5105889 -0.13475624
-0.2139585 0.25941136 0.7996182 0.19769984 -0.13739626 0.5325062 -0.05737081 -0.25802115
0.35193905 -0.41510293 0.5032498 -0.46483853 -0.635113 0.38283965 0.15831465 0.19962108
-0.14674428 0.22433591 -0.013984973 0.19390559 0.1224364 0.4072694 0.20940506 -0.13537799
0.05253914 0.25590798 -0.08144671 0.28654635 0.4091325 0.21378763 -0.33253175 0.62698853
-0.35781842 -0.4844887 0.06549887 0.53463846 -0.40398362 -0.23587632 0.3186978 -0.3250468
-0.11281719 0.287639 -0.60139644 -0.3444019 -0.23219396 -0.0043088445 -0.043242045 -0.08528107
-0.82303923 0.32136875 -0.37024203 -0.2607219 0.23901533 -0.033830587 0.2950507 -0.13398041
-0.047396593 -0.12356941 0.2380743 -0.008494237 -0.72037214 0.04875791 -0.3907342 0.068547666
0.030683024 -0.13201456 -0.957633 0.68292296 -0.40272933 -0.7480273 0.057930727 0.065019034
-0.0041125044 -0.44075686 0.27104327 0.4408483 -0.5174693 -0.07708418 0.049168568 -0.15809795
-0.036371365 -0.20739159 -0.31413734 0.35855454 -0.11569404 0.03198347 0.010434725 0.02119902
0.1118413 -0.5638655 0.248492 -0.16742644 -0.054089013 0.4020307 -0.15467556 -0.07737725
-0.36403203 -0.11471884 -0.107143976 0.20241772 0.012667456 0.24135384 -0.52617425 0.2829288
0.022875367 -0.17205742 -0.009181687 0.03874713 0.4266418 0.038405765 -0.49597245 0.53158104
0.1354988 0.13422701 0.57071424 0.007662414 0.514325 -0.0032924255 -0.07135415 -0.44428346
-0.28244543 -0.3180191 -0.07291939 0.07877672 0.26040477 0.25788832 -0.33300444 0.13584064
-0.36541322 -0.9370678 0.09905123 -0.033530325 0.16073689 0.19545236 -0.028935796 -0.0886199
0.005722312 -0.33069307 0.39682218 0.38913193 -0.19125605 0.4085465 0.2630541 0.14657204
-0.08373296 -0.011462914 0.5800397 -0.13664815 0.22943525 0.3750408 0.27130535 0.4325882
-0.01969332 -0.17178865 -0.5913926 0.46052486 -0.36328453 -0.45192325 0.48747352 -0.10743893
0.018337553 0.12011456 -0.6093339 0.1207259 -0.49204463 0.18405011 0.20796263 0.16410999
0.13925514 -0.3434259 -0.16132878 -0.51985604 -0.47454837 -0.027056905 0.0830438 -0.55170065
0.12364785 -0.32791057 -0.56301355 0.25260368 0.27184585 -0.033461105 0.19225031 0.5733231
0.13354014 0.1369737 0.27989647 0.09821644 -0.04342826 -0.49154893 0.14401625 -0.3722487

bottle_neck.1.conv_block.2.weight f4 [32]
00000000: 4140 763f 7994 313f a7ad 953f d5ab 0e3f
00000010: 908f 7d3f 020b 2d3f 9c5a 433f 012d 7e3f
00000020: 83fb 803f ae5d 713f fa8a 533f af8b 893f
00000030: f8d1 5d3f 6921 873f c33e 4f3f 838b a93f
00000040: 7c33 623f 6441 833f 8c0b 923f b8bf 873f
00000050: 9ee8 653f 8b59 6f3f cd30 7e3f 0ca9 7a3f
00000060: e279 5c3f a42d 7c3f 1b3f 843f 593b 843f
00000070: fbda 853f 887f 5a3f 986d 5f3f 0fc9 8e3f
0.96191794 0.69367176 1.169362 0.55730945 0.99047184 0.6759492 0.76310134 0.9928742
1.0076755 0.9428357 0.82633936 1.0745753 0.8664851 1.0557071 0.8095514 1.3245701
0.8835981 1.0254331 1.1409774 1.0605383 0.8980807 0.93496007 0.99293214 0.97914195
0.8612348 0.9850714 1.0331758 1.0330611 1.0457453 0.8535085 0.872766 1.1155108

bottle_neck.1.conv_block.2.bias f4 [32]
00000000: 13e8 21bf 564c 41bf 4214 6dbf 4f5c 18bf
00000010: 4412 efbe 3b8e e1be 7480 01bf fdf2 1ebf
00000020: 80a2 2abf 0223 1cbf f713 36bf c64c 28bf
00000030: 1077 23bf 8fd5 39bf a8a0 58bf bcf6 f3be
00000040: 39d4 1ebf 4454 25bf 3835 13bf 2b13 0cbf
00000050: 3c4a 24bf 6117 3abf 990a 61bf 9705 1bbf
00000060: 32c4 aabe b935 f4be 86ad 2cbf 3c91 11bf
00000070: ed6c efbe 6336 efbe 0225 bcbe f746 a1be
-0.6324474 -0.75507104 -0.92609036 -0.5951585 -0.46693623 -0.44053826 -0.5058663 -0.6208952
-0.66654205 -0.6099092 -0.71124214 -0.65742147 -0.6385355 -0.7259149 -0.8462014 -0.4764918
-0.62042576 -0.64581704 -0.5750308 -0.5471675 -0.6417577 -0.72691923 -0.87906796 -0.60555404
-0.3335281 -0.47697237 -0.67452276 -0.56862235 -0.4676279 -0.4672118 -0.36746985 -0.31499454

bottle_neck.1.conv_block.2.running_mean f4 [32]
00000000: f06f da3f 1a28 12be adba dc3f 8262 96be
00000010: eb45 e13e 96d2 c640 7b9e 3540 d345 8ec0
00000020: 205d 83bf b9be 64c0 155e 3d3e de39 d33f
00000030: c9c3 2340 86ae 3440 c9e3 4740 7a4c 63c0
00000040: fd34 dabf 7273 04bf 75ca fcc0 8b4e 00c0
00000050: b6c7 5bc0 03d7 cfbf c9e8 ea40 eff7 f7bd
00000060: a32b 7b40 135c a3c0 00f2 db3e 3558 9540
00000070: 58ad 94bf 166a bc3e 17cf aabe 374a 6a3d
1.7065411 -0.1427311 1.7244469 -0.2937203 0.43998656 6.2132063 2.8377979 -4.4460235
-1.0262794 -3.5741408 0.1849292 1.6502035 2.5588248 2.823152 3.123278 -3.5515428
-1.7047421 -0.51738656 -7.899714 -2.004794 -3.4340644 -1.6237491 7.340916 -0.121078365
3.9245384 -5.1049895 0.4295807 4.6670175 -1.16154 0.36799687 -0.33361122 0.057199683

bottle_neck.1.conv_block.2.running_var f4 [32]
00000000: 1493 4443 709d dd42 4d05 f242 60ba eb42
00000010: 86aa 4e43 e088 5b43 594a 2343 2240 f042
00000020: da58 f742 f330 0643 cb3f fc42 0edb 1143
00000030: c455 4143 c572 f342 bb80 c842 b4df 6b43
00000040: 5b1f 4543 3f93 3543 22d3 3b43 e96a 2b43
00000050: f102 1543 7074 5143 9092 5d43 4d4e 3a43
00000060: 6913 0743 1c5a 1343 d7bb f942 f365 da42
00000070: f4a0 ff42 93d1 ed42 9c16 2643 9f68 3543
196.57452 110.807495 121.01035 117.86401 206.6661 219.53467 163.29042 120.12526
123.67354 134.19121 126.124596 145.85568 193.33502 121.72416 100.25143 235.87384
197.12248 181.57518 187.82474 171.41762 149.01149 209.45483 221.57251 186.30586
135.07582 147.35199 124.866875 109.19912 127.81436 118.909325 166.08832 181.40868

bottle_neck.1.conv_block.5.weight f4 [32, 32, 3, 3]
00000000: 3feb 2fbf 2b92 b8be 6be6 b8bd c39a abbe
00000010: 9afa a63e 0896 28be f084 3c3d 06db e13c
00000020: abdb 973e 7578 cf3d 9ec9 a5bd e502 ba3d
00000030: 6d8e b7be 47d8 093e 6e1d 053f a17a 3bbe
00000040: c400 a23c cbf9 f5be b8bb a0be 913a 623c
00000050: a485 85be 91a2 833d 7175 f63d fe6c 2c3d
00000060: 063f 4a3e 0260 ca3e 272e 973f d55e e8bd
00000070: 8483 d9bd b106 28be 30ef 0dbc d5b5 8ebe
00000080: 6ff7 44be 2eac 80be b0ad 223e e26e 62be
00000090: d747 6abf fa9a 7e3d 7e29 16be 8137 3bbe
000000a0: 894e 373f 320e 153c 5891 e8bb 5ce6 8ebe
000000b0: 3247 b7be 948d 81be b05d a8bd 4db2 853e
000000c0: 507a 2fbe ee35 143e d2cf 42bd 575e b6be
000000d0: 2662 263e 3ed6 a7be 6210 e2be 025f dbbe
000000e0: f166 adbe 7efa 1fbe 419d 693e 53d0 38be
000000f0: f638 8bbe 0bb2 103f 67a8 2bbf c8c8 0ebf
00000100: 34d2 573e e362 0a3d 44d0 3dbf f329 9cbe
00000110: e40d 75be 5f88 0e3e 1f82 c2be f905 30bf
00000120: c412 603e 1510 babe 7f6e 493e c5b5 de3d
00000130: 5037 633d 5da4 eabd 1059 253f 85df 803e
00000140: 746f 9d3e 02b4 70bd 62cb 91be 6675 8e3c
00000150: 2de0 8c3e a38d 983d 2d94 613f 0b93 473e
00000160: 6945 da3e 07e6 bb3d 59a4 7fbc 2d5a 8cbb
00000170: f1fe 35be 31df c83e b34e b33d f554 cc3e
00000180: 8b55 ca3e ae55 38bf 58f6 f1bd 2366 943c
00000190: 4051 a83e 978b 1b3f 1e4b 52be 8294 a33e
000001a0: 1be8 bcbd 0941 323e db0d 943e 7522 2abf
000001b0: adc1 8c3e 8103 80be d6fd 113e d672 3bbd
000001c0: a353 e53e c0de d13e 53f6 6a3e ecdf bf3d
000001d0: 6ece 89be b978 5b3e 0d59 81bc 8bf5 533f
000001e0: 5b1f b3be 4008 103d e0b2 1a3f d319 9abe
000001f0: 2c03 9bbe 69ef eabe 70ea 9c3c 7740 e3bd
00000200: 0ecb 73be 8320 753e b575 f1be 73cc ef3e
00000210: 732f 09bf 0cfe 313c e218 46bf bfc8 03bf
00000220: c43c cf3d 9699 da3c c883 663f 8cc3 ae3e
00000230: c3b8 513e 53a7 8b3e 24d7 343e fd13 edbc
00000240: 697e 3bbf 17b1 44be 083a 4e3e 517e d03e
00000250: 50f7 893e c94e 933e 2f02 aabe 1e6e eabe
00000260: eb9f 16bf 7a03 963e e5e2 fe3e f012 5f3f
00000270: 8e1d bcbb 8799 203f d20e b13e 60ca 013f
00000280: 5a91 f93e 2824 603f a689 abbe c097 9cbe
00000290: cb25 333d f1ae 9dbe 6d41 313d 6603 343e
000002a0: aa9b 4a3f 7ff3 4e3e d30a d33e d03d a33e
000002b0: e43d e7bd 3681 2d3f 4a27 9abc 8304 7cbe
000002c0: 10a3 5abf b060 de3e d60f 2dbe 941f 813e
000002d0: 1124 fbbe 3a84 c6be 0ee4 72be d405 d43d
000002e0: 6da9 e3be d507 af3c 76b6 0dbf 801a abbd
000002f0: 01fb 9b3d e0da cfbe 5a9f 8b3e 90e1 7cbe
00000300: e659 9ebd a68e a13e 749e 8abe 7a9c c1bd
00000310: d90c e83e ee79 0dbf e5e8 813e b5d6 8c3d
00000320: 6362 b03e 614d 773e 8e7a 0f3f 0db7 d63e
00000330: 41eb eabd 003c 34be 8a85 d0bd 88fb 0fbf
00000340: dd54 d5be 6981 7a3e dec3 903d fbb1 a43e
00000350: f08a 763e de59 8a3e 89dc 8bbe afaf 9c3e
00000360: a107 a1be 5a01 95bb deed 26bc 1313 d9be
00000370: 2e6e 8cbd fc77 323e 8652 3abc 1fd8 3bbe
00000380: 4373 8cbc e296 d93e a6ad 843d e0c4 52be
00000390: ec92 283f 5ba8 023f a9b2 a23e 624b 003c
000003a0: f5bf d23e c7f7 00be 99a1 a1be 02f8 43bd
000003b0: 059e 083e 7c65 f63c f34f 283f 8a19 a83d
000003c0: 38e0 d23d f311 323e 89fd 613e 383d cebe
000003d0: 3a42 94be bc9b 00bf 4587 8a3e 43ae 233e
000003e0: e46b a43e 0af3 bbbd 6075 31be 5628 003f
000003f0: 686a d6be fa86 923d 0c8b 183e 0090 7dbe
-0.6871833 -0.36049017 -0.09028324 -0.3351651 0.3261307 -0.16463482 0.046025217 0.027570259
0.2965978 0.10130397 -0.08095096 0.09082583 -0.3585085 0.1346141 0.5199803 -0.18308498
0.019775756 -0.4804214 -0.31393218 0.013807909 -0.26078522 0.064274915 0.12034119 0.04209613
0.19750604 0.39526373 1.181096 -0.11346213 -0.10620788 -0.16408803 -0.008662984 -0.27873102
-0.19235013 -0.25131363 0.15886569 -0.22112611 -0.9151587 0.062159516 -0.14664266 -0.18282892
0.7160421 0.009097623 -0.0070974045 -0.27910125 -0.35796505 -0.25303328 -0.082209945 0.26112595
-0.17136502 0.14473698 -0.047561474 -0.3561885 0.16248378 -0.3278064 -0.44153124 -0.42845923
-0.338676 -0.15622899 0.22813894 -0.1804822 -0.27191895 0.5652167 -0.67053837 -0.5577512
0.2107628 0.033785712 -0.74145913 -0.30500755 -0.2393108 0.13919209 -0.379899 -0.68759114
0.21882159 -0.36340395 0.19671057 0.108745135 0.055472672 -0.11457131 0.64589024 0.25170532
0.30749094 -0.05876542 -0.2847548 0.017389964 0.27514783 0.0744889 0.88116723 0.19489686
0.4263108 0.091747336 -0.015603148 -0.0042832107 -0.17773034 0.39232782 0.08755245 0.39908567
0.3951839 -0.72005737 -0.118145645 0.018115109 0.3287449 0.6075987 -0.20536467 0.3194924
-0.09223958 0.17407621 0.2891682 -0.6645883 0.27491513 -0.25002673 0.14256987 -0.045763813
0.44790372 0.40990257 0.22945528 0.093688816 -0.26915306 0.21432771 -0.015789533 0.82796544
-0.3498486 0.035164118 0.6042919 -0.30097827 -0.30275857 -0.4588578 0.019154757 -0.1109628
-0.23807928 0.23938183 -0.47160116 0.4683567 -0.53588027 0.010863792 -0.7738172 -0.5147819
0.10119012 0.026684564 0.9004483 0.34133565 0.20480637 0.27276096 0.17660195 -0.028940195
-0.7323976 -0.1920818 0.20139325 0.40721372 0.26946497 0.28771046 -0.3320479 -0.45787138
-0.58837765 0.29299527 0.49782482 0.8713827 -0.005740828 0.62734264 0.3458162 0.50699425
0.48743707 0.8755517 -0.33503455 -0.30584526 0.043737214 -0.30797532 0.043275286 0.17579421
0.79143775 0.20210074 0.41219196 0.31883097 -0.112911016 0.67775285 -0.018817563 -0.24611096
-0.85405064 0.43433142 -0.16900572 0.25219405 -0.49050954 -0.38772756 -0.23719808 0.10352674
-0.444652 0.02136604 -0.5535654 -0.08354664 0.076162346 -0.40596676 0.27270013 -0.2469542
-0.077319905 0.31554145 -0.27074015 -0.09453674 0.45322302 -0.55264175 0.25372997 0.068768896
0.34450063 0.24150611 0.5604638 0.41936532 -0.11470652 -0.17601013 -0.101817206 -0.5624318
-0.41666308 0.24463429 0.07068609 0.32167038 0.24076438 0.27021688 -0.27316692 0.30602786
-0.31451133 -0.0045472803 -0.010188548 -0.42397365 -0.068569526 0.17428583 -0.011372214 -0.18344162
-0.017144805 0.42497927 0.06478433 -0.20582914 0.65849185 0.5103814 0.31776932 0.007830473
0.41162077 -0.1259452 -0.31568602 -0.04784394 0.1334153 0.030077688 0.6574699 0.08207996
0.102966726 0.1738966 0.22069372 -0.4028108 -0.28956777 -0.5023763 0.27056327 0.15984444
0.32113564 -0.091772154 -0.17329931 0.5006155 -0.41878057 0.07154651 0.14896792 -0.24761963

bottle_neck.1.conv_block.6.weight f4 [32]
00000000: 412e 553f b46b 1e3f c601 8a3f 05bf 4b3f
00000010: e8db 4d3f f929 7b3f dfe2 4c3f 9ec3 6b3f
00000020: d124 393f 5f24 433f 912f 153f 3767 313f
00000030: 78e7 463f 8752 643f 589c f43e 9ecd 1b3f
00000040: 6272 da3e 325d 043f 78b4 513f 27dc 553f
00000050: a3af 0d3f f014 413f b0b5 e33e 8647 253f
00000060: 3454 903f afbb 543f 05eb 023f 89e6 193f
00000070: 62f9 033f 64f4 ec3e 4639 623f 2674 043f
0.832737 0.6188309 1.0781791 0.7958835 0.80413675 0.9811092 0.8003368 0.92095363
0.723218 0.7622737 0.58275706 0.6929812 0.77696943 0.89188427 0.4777553 0.6086062
0.42665392 0.51704705 0.81916 0.8353905 0.55346125 0.75422573 0.44474554 0.6456226
1.1275697 0.8309888 0.5113986 0.60117394 0.515524 0.46280205 0.8836864 0.5173973
