models/advG_epoch_20.pth (torch_old, 358184 bytes, 49 tensors)

encoder.0.weight f4 [8, 1, 3, 3]
0	0xbd80f009	-0.06295783
1	0xbe2180d9	-0.15771808
2	0xbdc4e6de	-0.09614347
3	0xbe9add9c	-0.302472
4	0xbd9ff952	-0.07811226
5	0x3e6dc0c0	0.2321806
6	0xbde5e819	-0.1122591
7	0x3e18926f	0.1489961
8	0x3ef7d691	0.4840589
9	0xbd492e6d	-0.04911654
10	0x3e0bff81	0.13671686
11	0x3e7c4732	0.24636534
12	0xbe33ef2a	-0.17571703
13	0x3d28d493	0.04121835
14	0x3d66863d	0.056280363
15	0xbea42c17	-0.32064888
16	0xbe36563e	-0.17806336
17	0xbebce800	-0.36895752
18	0x3de266bf	0.110547535
19	0x3dcb7d67	0.09936028
20	0xbeac0f29	-0.33605316
21	0x3d151d7d	0.036405075
22	0xbe71e75b	-0.23623411
23	0xbe72bc5a	-0.23704663
24	0xbee09873	-0.4386631
25	0xbe3ceaf7	-0.18449007
26	0x3dd553dd	0.10416386
27	0xbe21bd71	-0.15794922
28	0xbd0a8553	-0.033818554
29	0x3e98ae2c	0.29820383
30	0xbe8d6aae	-0.27620453
31	0xbccdce2d	-0.025122726
32	0x3e634b29	0.2219664
33	0xbea4e5ff	-0.32206723
34	0xbe6501a6	-0.2236391
35	0xbd9e2868	-0.07722551
36	0xbb42b36e	-0.0029709
37	0xbea0c3b9	-0.31399325
38	0xbe25e44f	-0.16200374
39	0xbe82930b	-0.2550281
40	0xbe03deda	-0.1287798
41	0x3df69e9b	0.1204197
42	0xbeca8a34	-0.39558566
43	0xbcb26a6b	-0.02177926
44	0x3e443685	0.19161423
45	0xbd8f5d5f	-0.07000231
46	0xbe0e0669	-0.13869633
47	0xbe1ef849	-0.15524401
48	0x3d9aa291	0.07550538
49	0x3e9e6bd0	0.3094163
50	0x3ea5fb1b	0.3241814
51	0x3e01f002	0.12689212
52	0x3ebd7761	0.3700514
53	0x3e6dbcb8	0.23216522
54	0x3cc50d68	0.024054244
55	0x3e4f14f4	0.20222837
56	0x3f4bae6f	0.7956304
57	0xbd97c18c	-0.07409963
58	0x3e0ed153	0.13947038
59	0x3e86c039	0.2631853
60	0xbd793a07	-0.060846355
61	0x3da665bd	0.08124874
62	0xbba5af6c	-0.0050563123
63	0x3e68e2a4	0.22742707
64	0x3d8f030e	0.069830045
65	0x3e1595a4	0.14607865
66	0x3e07eddc	0.1327433
67	0x3d35fa6f	0.044428285
68	0xbd3698e1	-0.04457939
69	0xbe13ef6b	-0.144468
70	0xbeab9526	-0.3351223
71	0xbebf0f9f	-0.37316605

encoder.0.bias f4 [8]
0	0x3e5fc1f6	0.21851334
1	0x3d9ecf66	0.07754402
2	0x3c04f467	0.008114911
3	0xbe0d1ff2	-0.13781717
4	0x3e3ccb7d	0.18437
5	0xbca24d30	-0.019812196
6	0x3e42a3e2	0.19007829
7	0x3dccd3f7	0.100013666

encoder.3.weight f4 [16, 8, 3, 3]
0	0x3db96c89	0.090539046
1	0x3e559d8a	0.20860878
2	0x3ea1e84b	0.31622538
3	0x3d2c9e2c	0.042143032
4	0x3ca671a7	0.020317866
5	0xbd87bb6e	-0.06627546
6	0xbef7a6a7	-0.48369333
7	0xbed121c2	-0.40846068
8	0xbec19f0d	-0.3781666
9	0xbe807fd7	-0.25097534
10	0xbe050401	-0.12989809
11	0x3e1c7e9e	0.15282676
12	0x3dafeea9	0.08590443
13	0x3da28de4	0.0793722
14	0x3ea90308	0.33010125
15	0x3e1f60b9	0.1556424
16	0x3dce9ae3	0.10088136
17	0x3c7177e3	0.014738056
18	0xbe243f6f	-0.16039823
19	0xbf1ef286	-0.6208881
20	0xbf2440cc	-0.6416137
21	0xbe568a09	-0.20951094
22	0xbe58b063	-0.21161036
23	0xbd0f9dc8	-0.03506258
24	0xbe09bbef	-0.13450597
25	0x3d88367b	0.06651016
26	0x3eb5e0bb	0.35523018
27	0xbe0ec36e	-0.13941738
28	0xbdfde671	-0.12397469
29	0x3dd296ae	0.10282646
30	0xbddd1ce3	-0.10796525
31	0x3dab0ec7	0.08352428
32	0x3df158c8	0.11784512
33	0x3bc63cc5	0.0060497248
34	0xbd6aeaa6	-0.057352684
35	0xbe7b5ca2	-0.24547055
36	0x3d5474ad	0.051869083
37	0xbd39d47d	-0.04536866
38	0xbe2a8505	-0.16652305
39	0xbe827e13	-0.25486812
40	0xbee82e92	-0.4534803
41	0xbf355fd8	-0.7084937
42	0xbe869274	-0.2628361
43	0xbec07b13	-0.37593898
44	0xbe9e547b	-0.30923828
45	0x3e02c98d	0.12772198
46	0x3d3dfc53	0.046383213
47	0x3e00b518	0.12569082
48	0x3e28d349	0.16486849
49	0x3c8c6752	0.01713911
50	0xbe14a6d6	-0.14516768
51	0xbd1bf691	-0.03807694
52	0xbe846c94	-0.2586409
53	0xbebb9980	-0.3664055
54	0xbbd84e44	-0.006601127
55	0xbda17295	-0.07883183
56	0x3db6289f	0.088944666
57	0x3d025018	0.031814665
58	0x3cec6d4d	0.028860712
59	0x3e0e9df4	0.13927442
60	0x3d5a103b	0.053238135
61	0x3cc3193b	0.023815742
62	0xbdd0e315	-0.101995625
63	0x3dc1cd75	0.09463016
64	0x3dfc9aaf	0.12334191
65	0x3e1b7a47	0.15183364
66	0x3ca5e653	0.020251429
67	0x3e7d6ab8	0.24747741
68	0x3f028b8d	0.5099419
69	0x3ea66515	0.32498994
70	0x3eeca9b2	0.46223217
71	0x3eb44065	0.3520538
72	0xbe055921	-0.13022281
73	0xbdd705c3	-0.10499146
74	0x3d8f5c64	0.07000044
75	0x3d3881b8	0.045045584
76	0x3e59c11c	0.21265072
77	0x3eb39d6c	0.3508104
78	0xbcb6383a	-0.022243608
79	0xbd36f319	-0.04466543
80	0x3cbb8c80	0.022894144
81	0xbe638511	-0.2221873
82	0xbd2342e8	-0.03985873
83	0x3d93c2c4	0.07214883
84	0xbd752972	-0.05985398
85	0xbe600066	-0.21875152
86	0xbe55e056	-0.20886359
87	0xbe1c33b5	-0.152541
88	0xbd2d3984	-0.04229118
89	0x3da677c9	0.08128316
90	0xbd7941d3	-0.06085379
91	0xbd5ab135	-0.053391654
92	0x3e18416e	0.1486871
93	0xbe77ccea	-0.24199262
94	0xbe014072	-0.1262224
95	0xbe158a8d	-0.14603634
96	0xbeb4a30d	-0.35280648
97	0xbedc40d0	-0.43018198
98	0xbecebc1d	-0.40377894
99	0xbd9d5b2d	-0.07683406
100	0x3d15da02	0.03658486
101	0x3cc3b058	0.023887798
102	0xbe04ef0d	-0.12981816
103	0xbeb65bfd	-0.35617056
104	0xbebd08c4	-0.3692075
105	0xbe54f0ab	-0.20794933
106	0xbe85e56f	-0.26151606
107	0xbe98676a	-0.297664
108	0xbe619a91	-0.22031619
109	0xbd87884e	-0.06617795
110	0xbe032053	-0.128053
111	0xbe383518	-0.17989004
112	0xbda5cb14	-0.08095375
113	0xbd012842	-0.031532533
114	0xbe85b667	-0.26115724
115	0xbe329121	-0.17438175
116	0xbe23842d	-0.1596839
117	0xbe718ead	-0.23589583
118	0xbe51c880	-0.20486641
119	0xbe8e4fdf	-0.27795312
120	0x3e1bc4ad	0.15211745
121	0x3e4e6db9	0.20159043
122	0x3e659a81	0.2242222
123	0x3e83b14f	0.25721213
124	0x3e81c34f	0.2534432
125	0x3e754d69	0.23955311
126	0xbe546b2b	-0.20744006
127	0xbeaa68e3	-0.33283147
128	0xbe562e5e	-0.20916125
129	0xbe76a4af	-0.2408626
130	0xbed035b9	-0.40665987
131	0xbedbae8b	-0.42906603
132	0xbc89ce79	-0.016822087
133	0x3c8b8c93	0.017034804
134	0xbd38f556	-0.045155846
135	0x3e5f8126	0.2182661
136	0xbc414505	-0.011796241
137	0x3d400bb1	0.04688615
138	0xbaf294a3	-0.0018507432
139	0xbeafdeae	-0.3434958
140	0xbea36bb2	-0.31918103
141	0x3e21a60f	0.15786003
142	0x3d8736b6	0.06602232
143	0x3e1d1875	0.15341361
144	0xbe434c3a	-0.19072047
145	0xbe4c093e	-0.199254
146	0xbeb04d51	-0.34433988
147	0x3cf0d669	0.029399114
148	0x3cfcb0d7	0.030846043
149	0xbdad31fe	-0.08456801
150	0x3e838734	0.2568909
151	0x3e988d6b	0.29795393
152	0x3e7dae4c	0.2477352
153	0x3c92e9b4	0.017933704
154	0x3e7d392f	0.24728845
155	0x3eca34ea	0.39493495
156	0xbde8e1ad	-0.11371169
157	0xbdb7ab5e	-0.089682326
158	0xbd2bf9af	-0.041986164
159	0xbeac2c97	-0.3362777
160	0xbee07576	-0.43839616
161	0xbf07599f	-0.52871126
162	0xbbd36995	-0.0064517953
163	0xbe635a18	-0.22202337
164	0xbe3397d4	-0.17538387
165	0xbe6ccc40	-0.2312479
166	0xbe17f2e7	-0.14838754
167	0xbe033944	-0.12814814
168	0xbe18c758	-0.14919794
169	0xbe5c1d3b	-0.21495526
170	0xbe881946	-0.26581782
171	0x3dca48c7	0.098771624
172	0x3ec538c5	0.38519874
173	0x3ec6b3ea	0.3880914
174	0xbd911a60	-0.07085109
175	0x3d1be796	0.038062654
176	0xbd8ef91c	-0.069811076
177	0xbe1896b5	-0.1490124
178	0xbec22ca8	-0.37924695
179	0xbea349d1	-0.31892255
180	0xbdaad446	-0.08341269
181	0xbe8fd650	-0.28093195
182	0xbf078497	-0.5293669
183	0xbcd56448	-0.026048794
184	0x3d8d7ad6	0.06908195
185	0xbe2cc13b	-0.16870587
186	0x3e88abad	0.26693478
187	0x3e3b295b	0.18277495
188	0x3ce50048	0.027954236
189	0xbe401c9d	-0.18760915
190	0xbe1f7a49	-0.15573992
191	0xbe8cf382	-0.27529532
192	0x3cf7ea19	0.030262994
193	0xbcbab7d5	-0.022792736
194	0xbe61c5df	-0.22048138
195	0x3e2744a8	0.16334784
196	0x3e0e4f47	0.1389743
197	0x3db0ab4e	0.08626424
198	0xbe8c99b5	-0.2746102
199	0xbdf5c6df	-0.12000822
200	0x3e34cd6f	0.17656492
201	0xbe0b479b	-0.13601534
202	0xbe4656ab	-0.19368999
203	0xbe11fb51	-0.14256026
204	0xbd5828b7	-0.052773204
205	0xbcd80de1	-0.026373805
206	0xbe5fa930	-0.21841884
207	0xbe63fff8	-0.22265613
208	0xbdd7caab	-0.10536703
209	0x3df00c59	0.11721105
210	0xbe8084cc	-0.25101316
211	0xbe70938c	-0.23493785
212	0xbe28c6f4	-0.16482145
213	0xbd6d09f5	-0.057870824
214	0xbe41d4bf	-0.18928812
215	0xbeb37280	-0.35048294
216	0xbd9d139e	-0.07669757
217	0xba89005e	-0.001045238
218	0xbe413b4c	-0.18870276
219	0x3d9b74c8	0.07590634
220	0x3e923e7f	0.28563306
221	0x3d61e1e0	0.05514705
222	0xbda71824	-0.08158901
223	0xbcd42897	-0.025898261
224	0xbdc48a60	-0.095967054
225	0xbd97af4f	-0.07406484
226	0xbe1b8f02	-0.15191272
227	0xbe985f3a	-0.29760152
228	0x3dd585a1	0.10425878
229	0xbdddbfeb	-0.10827621
230	0xbefbf01a	-0.4920662
231	0x3dbbf144	0.09176877
232	0x3e20d95f	0.1570792
233	0x3e126f1b	0.14300196
234	0xbd8d1f49	-0.06890733
235	0xbd62bd63	-0.055356394
236	0x3e71a164	0.23596722
237	0xbef0e07b	-0.47046265
238	0xbed31c9b	-0.41232762
239	0xbea81cd2	-0.32834488
240	0xbece9c34	-0.4035355
241	0xbf0a0ae5	-0.53922874
242	0xbea70137	-0.32618114
243	0x3e10c94e	0.14139292
244	0x3dc3b152	0.095553055
245	0xbea0efc8	-0.3143294
246	0x3e58c234	0.21167833
247	0x3e0db4fc	0.13838571
248	0xbedea167	-0.43482515
249	0x3e8cea16	0.27522343
250	0x3e820986	0.2539789
251	0x3dabe037	0.08392375
252	0xbd9183f3	-0.071052454
253	0x3dd4f67d	0.103985764
254	0x3e704759	0.23464717
255	0xbe436975	-0.19083197

encoder.3.bias f4 [16]
0	0xbe859ef6	-0.2609784
1	0x3ebc6d3c	0.3680209
2	0xbe7a9b2c	-0.24473256
3	0xbe4a36a4	-0.19747406
4	0x3e23ff3f	0.16015337
5	0xbd807c14	-0.06273666
6	0x3ea56f8f	0.32311675
7	0x3ea1b7ab	0.3158544
8	0x3e563fe2	0.20922807
9	0xbdc54105	-0.09631542
10	0xbea4b6cc	-0.32170713
11	0x3d885381	0.06656552
12	0xbe534310	-0.20631051
13	0xbd908f77	-0.07058614
14	0xbc4bd36e	-0.0124405455
15	0xbea3512d	-0.3189787

encoder.6.weight f4 [32, 16, 3, 3]
0	0x3e970919	0.29499128
1	0x3ea10fbb	0.31457314
2	0x3e11274a	0.14175144
3	0xbd89a777	-0.067213945
4	0x3d494e22	0.04914678
5	0xbc5e8094	-0.01358046
6	0xbdd8a15a	-0.1057765
7	0x3b9c3235	0.0047667273
8	0xbdf8c5e9	-0.12147123
9	0xbe2f6073	-0.17126636
10	0x3cbbbc03	0.0229168
11	0x3d8c2507	0.06843
12	0xbc75baef	-0.014998182
13	0xbd97cb15	-0.07411782
14	0xbeedc406	-0.46438617
15	0x3d36437e	0.04449796
16	0x3dad3800	0.08457947
17	0x3d00334b	0.031298917
18	0xbea72b4d	-0.32650223
19	0xbd5c7063	-0.053818118
20	0xbd29d307	-0.041461017
21	0xbc9537b7	-0.018215043
22	0x3d376573	0.044774484
23	0xbec0da88	-0.37666726
24	0x3ec4d0b0	0.38440466
25	0x3f027cf2	0.509719
26	0x3e9f3a8b	0.31099352
27	0x3c91bc21	0.017789902
28	0x3e3302c2	0.17481521
29	0x3e161f1a	0.14660302
30	0x3e2f413e	0.17114732
31	0xbd407c97	-0.046993818
32	0xbe1dce4f	-0.15410732
33	0x3de18402	0.110115066
34	0xbcfbbbd6	-0.030729216
35	0xbe00e0b6	-0.1258572
36	0xbd739914	-0.05947216
37	0x3e78654c	0.24257392
38	0x3b45c694	0.0030178176
39	0x3e581999	0.21103515
40	0x3ea5fe31	0.32420495
41	0x3e06f8c8	0.1318084
42	0x3eaa6a96	0.33284444
43	0x3dfec594	0.12440029
44	0x3dd70563	0.10499074
45	0x3e30ea44	0.17276865
46	0x3d417dd8	0.047239155
47	0x3c8b62ed	0.017014945
48	0x3ca16c5f	0.019704996
49	0xbc8d1cdc	-0.017225675
50	0xba3ca8a8	-0.00071967626
51	0x3d01e50b	0.031712573
52	0xbeae3ed3	-0.34032306
53	0xbe96f9ab	-0.29487357
54	0xbdb9f7c1	-0.090804584
55	0x3e44bbda	0.19212285
56	0x3e391ef7	0.18078218
57	0x3c94e707	0.018176569
58	0x3e22de48	0.15905106
59	0x3e018216	0.1264728
60	0x3ea66169	0.32496193
61	0x3edddf7d	0.4333457
62	0x3eb27a71	0.3485904
63	0x3eeac59a	0.45853883
64	0x3e964674	0.29350626
65	0x3e991f1b	0.29906544
66	0xbe0c8e94	-0.13726264
67	0x3d6bbcbb	0.057553034
68	0x3db27b8a	0.087149695
69	0xbe9dfe71	-0.30858186
70	0xbe61faa9	-0.22068276
71	0xbe8ac014	-0.2709967
72	0xbe916e5d	-0.28404513
73	0x3dcd2383	0.10016539
74	0x3dc7f596	0.09763639
75	0xbea55511	-0.32291463
76	0xbebccd2c	-0.36875284
77	0xbf0cfcb7	-0.5507311
78	0xbe01f3d9	-0.12690677
79	0xbe382f33	-0.17986755
80	0xbe7f54d1	-0.24934699
81	0xbf2f43d6	-0.68462884
82	0xbeae7725	-0.34075275
83	0xbe5a465e	-0.21315905
84	0x3dc98ad6	0.09840934
85	0x3e46d75b	0.19418089
86	0xbd872756	-0.065992996
87	0x3ede855f	0.4346113
88	0x3ecfe133	0.406015
89	0x3f102555	0.56306964
90	0x3e537f80	0.20654106
91	0x3dd7bbf1	0.10533894
92	0x3dbc669c	0.09199259
93	0x3e2c7690	0.16842103
94	0xbd705256	-0.05867227
95	0x3c8ee4a5	0.01744301
96	0x3d3cfb15	0.046137888
97	0xbe1e0079	-0.15429868
98	0xbe9c9239	-0.3058031
99	0x3cfcc165	0.030853936
100	0x3e4af885	0.19821365
101	0x3e3d3256	0.18476233
102	0x3d57cbb4	0.0526845
103	0x3e783b6f	0.24241422
104	0x3dcbecc3	0.09957268
105	0x3c094540	0.008378327
106	0xbdd91d1c	-0.10601255
107	0x3dce609e	0.10077022
108	0xbe857579	-0.26066187
109	0x3ea9a9a5	0.3313724
110	0x3e9cea1f	0.3064737
111	0xbe35c009	-0.17749037
112	0x3deaf2db	0.11472102
113	0x3e1bf887	0.15231524
114	0xbc68b252	-0.014202671
115	0xbe598a0c	-0.21244067
116	0x3c88536e	0.016641345
117	0xbe81b720	-0.25335026
118	0x3d5df4a8	0.0541884
119	0x3de901e0	0.11377311
120	0xbec7c79b	-0.39019474
121	0xbef22857	-0.47296402
122	0xbe36c8f2	-0.17850092
123	0xbc927231	-0.017876716
124	0x3d77c2cc	0.060488507
125	0x3da6b592	0.081401005
126	0xbdb1fd0d	-0.08690844
127	0x3d55f079	0.052231286
128	0xbdae42e3	-0.085088514
129	0x3ea08521	0.3135157
130	0x3e135db7	0.14391218
131	0xbe3af5d4	-0.18257838
132	0x3e6843d9	0.22682132
133	0x3eadd7c8	0.3395369
134	0x3db9b738	0.09068149
135	0xbc955dd4	-0.018233217
136	0x3d70ab34	0.058757022
137	0x3d73cc3e	0.059520952
138	0x3d49788e	0.049187236
139	0xbc9fd0f1	-0.01950881
140	0x3e87f8c1	0.26556972
141	0xbdd42e97	-0.10360449
142	0xbd401a59	-0.046900127
143	0xbdee5870	-0.11637962
144	0x3d6594ea	0.05605022
145	0xbd617dd1	-0.05505163
146	0xbe845ee4	-0.25853646
147	0xbee749f6	-0.45173615
148	0xbeea0839	-0.45709398
149	0x3d6ab397	0.057300176
150	0xbe83cf12	-0.2574392
151	0xbd27d4e3	-0.04097451
152	0x3e17351d	0.14766355
153	0xbde68d7b	-0.11257454
154	0xbd9669f2	-0.07344426
155	0x3d5a524d	0.053301144
156	0x3cf2f306	0.029656898
157	0x3e0a39f3	0.13498668
158	0xbdcd4be7	-0.10024243
159	0xbea8a801	-0.32940677
160	0xbeca73bd	-0.39541426
161	0xbd949b92	-0.07256235
162	0xbc3c12da	-0.011479104
163	0x3e51a16d	0.20471735
164	0xbd18efef	-0.037338194
165	0x3d44a667	0.048010256
166	0xbec99e40	-0.39378548
167	0xbebfc715	-0.37456575
168	0xbe8721de	-0.26393026
169	0xbf21a6f8	-0.631454
170	0xbdf2744e	-0.118385896
171	0xbd2d9870	-0.042381704
172	0xbdc14351	-0.09436668
173	0x3c88e29c	0.016709618
174	0xbe4e13f8	-0.20124805
175	0x3d8be18b	0.06830128
176	0x3dd0e631	0.102001555
177	0xbe079c73	-0.13243274
178	0xbe81a02c	-0.25317514
179	0x3e5efd9b	0.2177643
180	0x3dde6fc2	0.1086116
181	0x3e641268	0.22272646
182	0xbe336a5e	-0.17521045
183	0xbe0e1ac8	-0.13877404
184	0xbd0356e3	-0.032065284
185	0xbe891565	-0.26774135
186	0xbd863db9	-0.065547414
187	0xbd3818ba	-0.044945456
188	0x3d4e9c52	0.050442047
189	0x3df8577b	0.121260606
190	0x3db82cdc	0.08992931
191	0x3e7337e2	0.23751786
192	0xbdb28dd4	-0.08718458
193	0x3e8f545e	0.27994055
194	0x3e84c11a	0.25928575
195	0xbcbf5c23	-0.023359364
196	0x3ec83784	0.39104855
197	0xbdc5ef20	-0.0966475
198	0x3de7c4b1	0.11316813
199	0x3c0ffa05	0.008787637
200	0xbd572de7	-0.05253401
201	0x3e4a6094	0.19763404
202	0xbf1da8f8	-0.6158595
203	0xbe962a19	-0.29328993
204	0xbd45e152	-0.048310585
205	0xbdfe90cc	-0.124299616
206	0x3d607e68	0.05480805
207	0x3e13f694	0.14449531
208	0x3d1e629d	0.038668264
209	0xbdd0fa60	-0.10204005
210	0xbe47b858	-0.19503915
211	0xbe94edd4	-0.29087698
212	0x3ed27d8b	0.41111407
213	0xbe141d5b	-0.14464323
214	0x3e81ba5f	0.25337502
215	0x3ed21085	0.41028228
216	0xbd864541	-0.06556178
217	0x3e5a7c3e	0.21336457
218	0x3e9709a0	0.2949953
219	0x3eb288ee	0.34870094
220	0x3f1e230e	0.6177224
221	0x3d8769c4	0.0661197
222	0x3e6f325c	0.23359054
223	0x3dc9d4b4	0.09855023
224	0xbe7667cb	-0.24063031
225	0xbe13fa06	-0.14450845
226	0xbdca8f6a	-0.09890635
227	0xbe97f70a	-0.29680663
228	0x3ce877ad	0.028377378
229	0xbe9b1c5e	-0.3029508
230	0xbe878877	-0.26471302
231	0xbd816c8b	-0.06319531
232	0xbeae5438	-0.3404863
233	0xbe2d1fdd	-0.16906686
234	0x3d1f60ca	0.038910665
235	0x3c0d468d	0.008622778
236	0x3e3fb544	0.18721491
237	0xbea5ebcd	-0.32406464
238	0x3d3b9cbb	0.045803767
239	0x3e07de27	0.13268338
240	0xbd8d547e	-0.06900881
241	0x3d8eff4e	0.06982289
242	0x3cdb87bb	0.02679812
243	0x3e78493f	0.24246691
244	0xbded5d13	-0.11590018
245	0xbed9272f	-0.42412707
246	0x3dd38af8	0.103292406
247	0xbe7d4f65	-0.24737318
248	0xbea4a9ff	-0.32160947
249	0xbda3ed19	-0.08004207
250	0xbebfcc8b	-0.3746074
251	0xbc63bf14	-0.013900537
252	0x3bca326e	0.0061705625
253	0xbe1c4ab5	-0.15262873
254	0xbdca5a65	-0.09880523
255	0x3ebbe132	0.36695248

encoder.6.bias f4 [32]
0	0xbddeee9f	-0.10885357
1	0x3e4c05c7	0.19924079
2	0x3e2a2995	0.16617425
3	0xbd05f153	-0.032700848
4	0x3e38b5cb	0.18038099
5	0x3c5276b8	0.012845688
6	0xbdb3083e	-0.087418064
7	0x3e6ee32b	0.23328845
8	0xbdac235e	-0.08405183
9	0x3d7fb7ff	0.06243133
10	0x3d9425be	0.07233761
11	0x3e736c95	0.2377189
12	0xbdf9aede	-0.121915564
13	0xbda79dfe	-0.081844315
14	0x3f0a5787	0.54039806
15	0xbe377121	-0.17914249
16	0xbdf54f64	-0.11978033
17	0xbe950177	-0.2910268
18	0x3e19c0c9	0.15014948
19	0x3e56686b	0.2093827
20	0x3e0bae8a	0.136408
21	0xbd79332c	-0.060839817
22	0x3e1ce199	0.15320434
23	0xbdf9137b	-0.12161919
24	0x3e0e9b28	0.13926375
25	0xbca92f4c	-0.020652436
26	0x3e0099a7	0.12558614
27	0xbe963b1b	-0.2934197
28	0x3ddfa78f	0.10920631
29	0xbd94b8ce	-0.07261811
30	0x3ecd38ee	0.40082496
31	0xbe07bd4e	-0.13255808

bottle_neck.0.conv_block.1.weight f4 [32, 32, 3, 3]
0	0x3e8a817a	0.27051908
1	0x3e00f0f2	0.12591913
2	0x3e6235a3	0.22090773
3	0x3e32d9a7	0.1746584
4	0xbe24884d	-0.1606762
5	0xbe8797ec	-0.26483095
6	0x3d8a1136	0.06741564
7	0x3cbba9f0	0.022908181
8	0xbe9ad9ad	-0.30244198
9	0xbe38efec	-0.18060273
10	0xbf0a9560	-0.5413418
11	0xbe26690a	-0.16251007
12	0xbe19ab20	-0.15006685
13	0xbf143a4b	-0.5790145
14	0xbd45e13e	-0.04831051
15	0xbb0b6f67	-0.0021276118
16	0xbe77e2d3	-0.2420762
17	0x3dd1acfa	0.10238071
18	0x3c163f90	0.009170428
19	0xbde578b1	-0.11204661
20	0x3e83285e	0.25616735
21	0x3e7d66b8	0.24746215
22	0x3da11399	0.07865066
23	0x3b08767e	0.002082258
24	0xbe5560a0	-0.20837641
25	0xbe0a2240	-0.13489628
26	0x3e827b0d	0.25484505
27	0x3da4f4a4	0.08054474
28	0x3e4554ec	0.19270676
29	0x3f142b68	0.5787873
30	0xbf367914	-0.712785
31	0xbc2d4bdc	-0.010577168
32	0xbe23ce9c	-0.15996784
33	0xbe9c9441	-0.3058186
34	0xbdd1beea	-0.10241492
35	0xbd12bc79	-0.035824273
36	0xbeff1267	-0.49818727
37	0xbe6a2b23	-0.22868018
38	0xbe97cba1	-0.29647544
39	0x3e76b75a	0.2409338
40	0x3e282365	0.16419752
41	0x3e30177c	0.17196459
42	0x3d0e97c4	0.034812704
43	0xbe554009	-0.20825209
44	0xbe4731ab	-0.1945254
45	0xbae45209	-0.0017419468
46	0x3d1e33f9	0.038623784
47	0x3d06270d	0.032752085
48	0xbd89300e	-0.06698619
49	0xbd209ca3	-0.03921188
50	0x3d332452	0.04373581
51	0xbea488aa	-0.32135516
52	0x3e0e5cc8	0.1390258
53	0xbe5a03b9	-0.21290483
54	0x3e49a0ac	0.19690198
55	0xbc3e1975	-0.011602749
56	0xbeb92070	-0.3615756
57	0x3e074439	0.13209619
58	0xbe59e52c	-0.21278828
59	0xbefcfdc7	-0.49412367
60	0x3e8af431	0.27139428
61	0xbe9f6a11	-0.3113561
62	0x3e6feef5	0.23430999
63	0xbd5262aa	-0.051363625
64	0xbec44544	-0.38334095
65	0x3e160b5e	0.14652774
66	0x3e227cf1	0.15867974
67	0x3e0d6fef	0.1381223
68	0xbc969b4e	-0.018384602
69	0xbed291fe	-0.41127008
70	0xbe7570df	-0.23968838
71	0xbcec23b5	-0.02882562
72	0xbdbe03d7	-0.09278076
73	0x3cc05b59	0.023481058
74	0xbdd2d35d	-0.102942206
75	0x3e8f70ac	0.2801565
76	0x3cbafa24	0.022824354
77	0xbe2cb127	-0.16864453
78	0xbe63f9fd	-0.22263332
79	0x3e27b2f7	0.16376863
80	0x3e115145	0.14191158
81	0xbe6076c0	-0.219203
82	0xbeff507f	-0.498661
83	0x3d085bbb	0.033290606
84	0xbe36c619	-0.17849006
85	0xbed0c830	-0.4077773
86	0x38549c97	5.0690574e-05
87	0xbe05d139	-0.13068093
88	0xbeadfaf4	-0.33980525
89	0xbd9b0143	-0.075686
90	0x3e3fe862	0.18740991
91	0xbe5cd365	-0.21565016
92	0x3c9edfe7	0.019393874
93	0x3e977381	0.2958031
94	0xbec12d04	-0.37729657
95	0x3dd19dae	0.10235153
96	0x3ea24b99	0.316983
97	0xbe9b258f	-0.30302092
98	0xbdcf8697	-0.10133093
99	0x3f1ac13b	0.60451096
100	0x3f14e2a7	0.58158344
101	0x3d9c06e7	0.07618504
102	0x3d28ab51	0.041179005
103	0x3e237f2d	0.15966482
104	0xbdbddbdf	-0.09270453
105	0x3dd7a70c	0.105299085
106	0xbe6245d3	-0.22096948
107	0xbd852c68	-0.065026104
108	0xbdd4117d	-0.10354898
109	0xbe510f5f	-0.2041602
110	0xbe3d83d7	-0.18507324
111	0x3ebb28da	0.36554605
112	0x3e069bd2	0.13145378
113	0x3ccdc535	0.02511845
114	0x3e743038	0.23846519
115	0x3d55925f	0.052141543
116	0x3c2a8790	0.010408297
117	0x3d2d69fb	0.0423374
118	0xbe698947	-0.22806273
119	0xbc4c776c	-0.012479644
120	0x3e4f04f2	0.2021673
121	0x3db8152b	0.089884125
122	0x3e37c057	0.17944466
123	0x3ea4534e	0.32094806
124	0xbecad11d	-0.39612666
125	0x3d5c65b6	0.053807937
126	0x3e134f74	0.14385778
127	0xbda16db5	-0.07882253
128	0x3dc03752	0.093855515
129	0x3eab1a85	0.3341867
130	0x3d87137a	0.06595512
131	0x3d108db4	0.03529139
132	0x3ea2738b	0.31728777
133	0xbcc9fb32	-0.024655912
134	0xbd8148f9	-0.063127466
135	0x3dc1f94e	0.09471379
136	0xbde40f0f	-0.11135685
137	0x3dcf7fe8	0.10131818
138	0xbe81e02a	-0.25366336
139	0xbe3672b3	-0.17817192
140	0xbea4721a	-0.32118303
141	0x3e7d8b6d	0.24760218
142	0x3e443ed7	0.19164596
143	0xbce3a36e	-0.02778789
144	0xbbd9ca8b	-0.0066464595
145	0xbdeac769	-0.11463816
146	0xbdbc3342	-0.09189464
147	0xbe6ba99a	-0.23013917
148	0xbe4b6e01	-0.19866182
149	0xbe90f104	-0.2830888
150	0xbd322fbc	-0.043502554
151	0x3e71decb	0.23620145
152	0xbda5397c	-0.08067605
153	0xbd879f91	-0.06622232
154	0xbddbc04d	-0.10730038
155	0xbe09b93f	-0.13449572
156	0xbd6e23ad	-0.05813949
157	0x3eb84f09	0.359978
158	0x3cf9c99f	0.030491648
159	0x3e1ce3bb	0.15321247
160	0x3e160100	0.14648819
161	0x3d6d5151	0.057938877
162	0x3f01a7f2	0.5064689
163	0x3ed329a7	0.41242716
164	0x3eb2c1e4	0.34913552
165	0x3e1df567	0.15425645
166	0x3dc1cc60	0.094628096
167	0x3c2d83a3	0.010590467
168	0x3dafbb28	0.08580619
169	0xbdf09635	-0.117474
170	0x3eccebef	0.40023753
171	0xbe66ef51	-0.2255223
172	0x3de02c5a	0.109459594
173	0x3d9745c5	0.07386354
174	0xbe80ebdc	-0.25179946
175	0x3cd51f56	0.026015919
176	0xbe6e4f3a	-0.2327241
177	0xbeced11c	-0.40393913
178	0x3e1b82ff	0.1518669
179	0xbe41e359	-0.18934382
180	0x3d894b74	0.06703845
181	0xbd8d9bf1	-0.06914509
182	0xbe4caaf8	-0.19987094
183	0xbd6460fc	-0.055756554
184	0xbcbfd154	-0.023415245
185	0xbe104a82	-0.14090922
186	0x3e6c906d	0.23101969
187	0x3e4a5a51	0.19761015
188	0x3dd7c919	0.10536403
189	0x3dbb449f	0.09143948
190	0x3dbd8b28	0.092550576
191	0xbe3d8a36	-0.18509755
192	0xbdd4c10d	-0.10388384
193	0xbdd5a47c	-0.104317635
194	0xbe5da683	-0.2164555
195	0x3dcf2ce9	0.10115988
196	0x3f0681a5	0.5254157
197	0xbe7c975b	-0.24667113
198	0xbe00f4bd	-0.1259336
199	0xbe39d148	-0.1814624
200	0xbe126702	-0.14297107
201	0xbe78361c	-0.24239391
202	0xbec1661c	-0.37773216
203	0xbe81cb02	-0.25350195
204	0x3e010f40	0.12603474
205	0x3bae98a8	0.0053282566
206	0xbec336b4	-0.38127673
207	0x3ea89dbc	0.32932842
208	0x3d445d14	0.04794033
209	0xbe5c3ae6	-0.21506843
210	0x3e5eaa46	0.21744642
211	0x3ead11b7	0.33802578
212	0xbdf362c0	-0.118840694
213	0x3e868499	0.2627304
214	0x3e890882	0.26764303
215	0xbe08a664	-0.13344723
216	0x3e5b5aad	0.21421309
217	0x3e9066b9	0.2820337
218	0xbe0d6b33	-0.13810425
219	0xbdf988f5	-0.121843256
220	0x3ead5a10	0.33857775
221	0xbe084ab3	-0.13309745
222	0x3d54f746	0.05199363
223	0x3bdb70ff	0.00669682
224	0x3f1d6016	0.6147474
225	0x3d63252a	0.055455364
226	0x3e85515d	0.26038638
227	0xbe02ae03	-0.12761693
228	0xbc109536	-0.008824637
229	0xbe9c5b63	-0.30538473
230	0xbda7fe6b	-0.08202823
231	0xbe31a054	-0.17346317
232	0x3d9df15a	0.0771205
233	0xbdab91d3	-0.08377423
234	0xbe85394d	-0.2602028
235	0xbe8dc00f	-0.27685592
236	0x3e29779e	0.16549537
237	0x3eb1b632	0.34709316
238	0x3e6fc344	0.23414332
239	0x3d949e6b	0.07256778
240	0xbf1290fb	-0.5725247
241	0xbcc12300	-0.02357626
242	0xbd9b8684	-0.07594016
243	0x3df021ed	0.11725221
244	0x3e9b9240	0.30385017
245	0x3e69d2ec	0.22834367
246	0xbd1ea8d4	-0.038735226
247	0x3c86090c	0.016361736
248	0xbc998d32	-0.018744085
249	0xbe5f7ec8	-0.21825707
250	0xbebd23d4	-0.36941397
251	0x3e09dd7f	0.134634
252	0x3d496fdb	0.04917894
253	0xb9f72b8a	-0.0004714395
254	0x3d3ad9b7	0.045617785
255	0x3e2b623c	0.16736692

bottle_neck.0.conv_block.2.weight f4 [32]
0	0x3f74d946	0.9564403
1	0x3f95338a	1.1656353
2	0x3f52212a	0.82081854
3	0x3f9d1cae	1.2274377
4	0x3f9b4c7e	1.2132719
5	0x3f55b6ed	0.8348225
6	0x3f9115e0	1.1334801
7	0x3f693263	0.9109251
8	0x3fa9773c	1.3239512
9	0x3f904164	1.1269956
10	0x3f7f120e	0.99636924
11	0x3f994011	1.1972677
12	0x3f73a838	0.95178556
13	0x3f743031	0.95386034
14	0x3f5ce1bf	0.8628196
15	0x3f6ca004	0.92431664
16	0x3f88d5d8	1.069026
17	0x3f83b039	1.0288154
18	0x3f6f11ab	0.93386334
19	0x3f6c60a8	0.92334986
20	0x3f70efbc	0.94115806
21	0x3f59298d	0.84829026
22	0x3f72bbaf	0.9481763
23	0x3f7d5109	0.98951775
24	0x3f5417f5	0.82849056
25	0x3f8c501c	1.0961947
26	0x3f887d91	1.066332
27	0x3f4fdb3e	0.8119391
28	0x3f67a57a	0.9048687
29	0x3f8f616c	1.1201606
30	0x3f57b055	0.84253436
31	0x3f7d9035	0.9904817

bottle_neck.0.conv_block.2.bias f4 [32]
0	0xbef42c85	-0.47690216
1	0xbe812d1b	-0.25229725
2	0xbec30db9	-0.38096407
3	0xbe865515	-0.26236787
4	0xbea89912	-0.32929283
5	0xbec2babf	-0.380331
6	0xbe77b4f4	-0.24190122
7	0xbf1da99e	-0.6158694
8	0xbeb19ad5	-0.3468844
9	0xbe7b26ec	-0.24526566
10	0xbe606838	-0.21914756
11	0xbe610824	-0.21975762
12	0xbee849e8	-0.45368886
13	0xbe71bc60	-0.23607016
14	0xbf22e016	-0.6362318
15	0xbe9198be	-0.28436846
16	0xbe84b947	-0.25922605
17	0xbed71c46	-0.42013758
18	0xbedd0927	-0.43171045
19	0xbecdf7e5	-0.4022819
20	0xbe831e52	-0.2560907
21	0xbe6f4c4c	-0.23368949
22	0xbe19ae5f	-0.15007924
23	0xbecd2cf9	-0.40073374
24	0xbe8195e8	-0.25309682
25	0xbe17614b	-0.14783208
26	0xbead4164	-0.33838952
27	0xbf016d29	-0.5055719
28	0xbef75c46	-0.48312587
29	0xbe6c6e1f	-0.23088883
30	0xbf085162	-0.5324918
31	0xbeda246b	-0.4260591

bottle_neck.0.conv_block.2.running_mean f4 [32]
0	0xc021fbd8	-2.5309963
1	0x3f859a7e	1.0437772
2	0x3e1baf91	0.15203692
3	0xc07d1af3	-3.9547698
4	0x3f95c0fa	1.1699517
5	0xbfa1637c	-1.2608485
6	0xbfbd780b	-1.4802259
7	0xbf82c48b	-1.021623
8	0xc0c873b2	-6.264123
9	0xbeafc76b	-0.3433183
10	0xbf3bb9b6	-0.7333025
11	0xbf9df779	-1.2341148
12	0xc00bddb8	-2.1854076
13	0xc0a58e5a	-5.173627
14	0x400e2075	2.220731
15	0xbfc247cb	-1.517816
16	0xbf92b987	-1.1462868
17	0x3ea5acdb	0.3235844
18	0x403973f7	2.897703
19	0xbe954a2d	-0.29158154
20	0x3fa44226	1.2832687
21	0x3f2bae5d	0.6706293
22	0xc025c79f	-2.590309
23	0xc012bded	-2.2928421
24	0x3fc2c73b	1.521705
25	0x3f434e18	0.76291037
26	0x3f9408eb	1.1565222
27	0x3e7d5bcd	0.2474205
28	0xbed5ff75	-0.4179646
29	0xbfc1a9ea	-1.5129979
30	0xbf42c01b	-0.7607438
31	0xc04c7631	-3.1947138

bottle_neck.0.conv_block.2.running_var f4 [32]
0	0x41eaa803	29.332037
1	0x41bbeb7e	23.489986
2	0x41c9cb35	25.224222
3	0x41e66bab	28.802572
4	0x41a9b951	21.215487
5	0x41ad6c9d	21.678034
6	0x41e61802	28.761723
7	0x41b94eb0	23.163422
8	0x41d74ebb	26.913443
9	0x41ffab9b	31.958792
10	0x41e3a6ed	28.456507
11	0x41d4f931	26.621675
12	0x41d04e8c	26.038353
13	0x41e48805	28.566416
14	0x418aa78b	17.331808
15	0x420003e4	32.0038
16	0x41b74a8b	22.911398
17	0x41afaf37	21.960554
18	0x41c4bc2f	24.591887
19	0x41d4a82a	26.582111
20	0x41e4bccc	28.592186
21	0x41c88b3b	25.067984
22	0x419ee8ca	19.863667
23	0x41e4d48e	28.603786
24	0x41b52340	22.642212
25	0x41a1fd70	20.248749
26	0x41bd4dd2	23.662998
27	0x419b8968	19.442093
28	0x419d07ab	19.628744
29	0x41dd3076	27.648663
30	0x41a02eee	20.022915
31	0x41e40bcb	28.505758

bottle_neck.0.conv_block.5.weight f4 [32, 32, 3, 3]
0	0x3dc5104f	0.09622251
1	0xbd6bf7ee	-0.05760949
2	0xbe742d11	-0.23845316
3	0xbea8ce38	-0.32969832
4	0xbe47f6f3	-0.19527797
5	0x3e3d9f6e	0.18517849
6	0xbcd11673	-0.0255234
7	0x3c8edd9c	0.017439656
8	0x3e7152f9	0.23566808
9	0x3e90c3da	0.28274423
10	0x3c3a43f1	0.011368738
11	0x3e8b650b	0.27225527
12	0x3d5c71e5	0.053819556
13	0xbf02b051	-0.5105029
14	0xbdbc3eb5	-0.09191648
15	0x3dd5b626	0.10435133
16	0xbe929e2e	-0.28636307
17	0xbe68ff3c	-0.22753614
18	0x3dfe44ff	0.12415504
19	0x3e7294c9	0.2368957
20	0xbca35b8d	-0.019941116
21	0xbeb5cf02	-0.35509497
22	0x3c953087	0.018211616
23	0x3b15271f	0.0022758914
24	0x3dc5848f	0.09644424
25	0x3ea6ef76	0.3260457
26	0x3e865735	0.2623841
27	0x3e68e1cd	0.22742386
28	0x3eb5812b	0.3545011
29	0x3ece953e	0.40348238
30	0xbdd06986	-0.10176377
31	0xbe609992	-0.21933582
32	0x3d8b7e2b	0.06811174
33	0xbd992350	-0.074774384
34	0xbe2b188c	-0.16708583
35	0x3d8713f9	0.06595606
36	0x3d063bcd	0.032771874
37	0xbe9bd8d8	-0.30438876
38	0xbdf0a584	-0.117503196
39	0x3d2ec879	0.042671654
40	0xbe429223	-0.19001059
41	0xbe8fec06	-0.2810976
42	0xbd7ec1a5	-0.062196393
43	0xbe090449	-0.13380541
44	0x3d949a4b	0.072559915
45	0xbe439811	-0.19100977
46	0xbee14c84	-0.4400369
47	0xbdcbbef8	-0.09948534
48	0xbec498f1	-0.38397935
49	0x3e72a144	0.2369433
50	0x3eb57c1b	0.35446247
51	0xbd5961a9	-0.05307165
52	0xbd60d714	-0.054892614
53	0xbdc5989a	-0.09648247
54	0x3df0eec7	0.11764293
55	0x3e80a5bb	0.25126442
56	0x3e9219c6	0.2853529
57	0x3e89ac76	0.2688939
58	0x3eeb097d	0.45905676
59	0x3f0ef4cd	0.55842286
60	0x3be995cc	0.007128453
61	0xbce73bb5	-0.028226713
62	0xbd817b8b	-0.06322392
63	0x3ea822b3	0.32838973
64	0x3ccf97e7	0.025340987
65	0xbdd53502	-0.10410501
66	0x3e5670cd	0.20941468
67	0x3d0f9c13	0.035060953
68	0xbde5790c	-0.112047285
69	0xbee67726	-0.45012778
70	0xbdd7f757	-0.10545223
71	0xbf0106c8	-0.5040097
72	0x3ee439bc	0.44575298
73	0x3f2927f3	0.6607658
74	0x3d089147	0.033341672
75	0x3dcfd860	0.10148692
76	0x3ea94603	0.33061227
77	0x3e72b8ad	0.2370326
78	0xbe9b35b8	-0.30314422
79	0xbe3c58cc	-0.18393248
80	0xbab24fe6	-0.0013604134
81	0xbd96d9c9	-0.07365758
82	0xbeb57932	-0.35444027
83	0xbee3c518	-0.44486308
84	0xbe10d66a	-0.14144292
85	0x3e4de658	0.201074
86	0xbc81edb4	-0.015860416
87	0x3e5a8507	0.21339808
88	0x3e99d261	0.3004332
89	0x3efa1813	0.48846492
90	0x3d9f43cf	0.07776605
91	0xbdbdd6f3	-0.09269514
92	0x3e2aee05	0.1669236
93	0x3bd48c2a	0.0064864354
94	0xbeb35560	-0.35026073
95	0xbd8059c9	-0.06267125
96	0xbe072f8d	-0.13201733
97	0x3e0a09ee	0.1348035
98	0xbddfdeef	-0.10931193
99	0x3ea02105	0.31275192
100	0xba6c50cb	-0.00090147246
101	0xbe095df7	-0.13414751
102	0x3e52eea1	0.20598842
103	0xbe44c2ff	-0.1921501
104	0x3cf129d2	0.029438887
105	0x3e91776e	0.2841143
106	0xbdc85d11	-0.09783376
107	0x3dbc3c06	0.09191136
108	0xbe83b2c4	-0.25722325
109	0xbdfbd2eb	-0.12296089
110	0x3dff06de	0.12452482
111	0xbdc990ad	-0.09842048
112	0x3e868c27	0.26278803
113	0xbdbf1d47	-0.09331756
114	0xbe5090f0	-0.2036779
115	0x3de56609	0.11201102
116	0xbde9bdab	-0.114131294
117	0x3e125c7d	0.14293094
118	0x3de5121f	0.11185097
119	0xbeb813e4	-0.35952675
120	0x3d330cd6	0.043713413
121	0x3b82caf6	0.00399148
122	0x3e541567	0.2071129
123	0x3d482e71	0.048872415
124	0xbe6cbedf	-0.23119687
125	0x3d45e294	0.048311785
126	0x3e4d11a0	0.20026255
127	0xbd9a7e55	-0.07543627
128	0x3e639d4c	0.22227973
129	0x3cda0e73	0.026618218
130	0xbda0b631	-0.0784725
131	0x3e0a4cc7	0.1350585
132	0x3d95ed38	0.073206365
133	0xbe35d242	-0.17755988
134	0xbd0eb187	-0.034837272
135	0xbd7eb962	-0.062188514
136	0x3c91fb08	0.017819896
137	0xbd84f227	-0.064914994
138	0x3d25754d	0.04039507
139	0x3db0cf57	0.08633297
140	0x3cc95264	0.02457542
141	0xbe4b132d	-0.19831534
142	0x3e5e124f	0.21686672
143	0xbe23d149	-0.15997805
144	0x3ed3ec04	0.41391003
145	0x3d4cffe2	0.050048716
146	0xbcc34f43	-0.023841506
147	0xbd2e6b93	-0.04258306
148	0xbd5958f1	-0.053063337
149	0x3f05ebd4	0.5231297
150	0x3d39a1dc	0.045320377
151	0xbdb1214e	-0.086489305
152	0xbd9963cd	-0.074897386
153	0x3e484c55	0.19560368
154	0xbd165bcc	-0.036708638
155	0xbed2348a	-0.4105571
156	0xbe373070	-0.17889571
157	0xbded4565	-0.115855016
158	0x3e12bf0a	0.14330688
159	0x3dc89679	0.097943254
160	0x3e9dc91c	0.30817497
161	0x3d747dc6	0.05969026
162	0xbd8e26b0	-0.06940973
163	0xbe9e9e93	-0.30980358
164	0xbe0af6da	-0.13570729
165	0x3e170328	0.14747298
166	0xbc1416d5	-0.009038647
167	0xbe3c5e47	-0.18395339
168	0x3eaf5c0f	0.34249923
169	0x3c395a8f	0.011313095
170	0x3e94595d	0.2897443
171	0xbca50c18	-0.020147368
172	0x3b732006	0.0037097945
173	0x3d65d605	0.056112308
174	0xbea09095	-0.31360307
175	0xbe0ec646	-0.13942823
176	0x3c8f8a6f	0.017522065
177	0xbc81fe7c	-0.015868418
178	0x3d959bbc	0.073050946
179	0xbd0bd607	-0.03413966
180	0x3d8247ae	0.06361328
181	0x3d40f6cf	0.047110375
182	0xbe3a031c	-0.18165249
183	0xbeaa5507	-0.33267996
184	0xbdda6e5a	-0.10665579
185	0xbf052107	-0.5200352
186	0x3e599979	0.21249951
187	0xbba9670d	-0.0051697553
188	0xbebe1b9c	-0.3713044
189	0xbe6b1afd	-0.22959514
190	0xbe1a5552	-0.1507161
191	0xbed51b31	-0.41622308
192	0x3e45ae7e	0.19304845
193	0x3bb4381f	0.005499854
194	0x3e8b7985	0.2724115
195	0xbe671a19	-0.22568549
196	0x3db8c614	0.090221554
197	0x3cd0161f	0.025401173
198	0x3ebeb9e6	0.37251204
199	0x3e98feea	0.29881984
200	0x3e729a96	0.23691782
201	0x3cfdd51a	0.030985404
202	0x3e563586	0.20918855
203	0xbe8d885f	-0.27643105
204	0xbdb7b1ea	-0.08969481
205	0x3b567955	0.0032726128
206	0xbecd64a8	-0.40115857
207	0x3db71c47	0.0894094
208	0x3eeb59a7	0.45966837
209	0x3e2213eb	0.1582791
210	0xbdf9362f	-0.12168538
211	0x3e4d1738	0.20028389
212	0x3dd510e0	0.10403609
213	0x3c88fc8c	0.016721986
214	0x3dd6c137	0.104860716
215	0xbe4fe575	-0.20302375
216	0xbe93b263	-0.28847036
217	0xbf0725ea	-0.5279223
218	0xbec8d28b	-0.39223132
219	0x3e988350	0.29787683
220	0x3d948a9a	0.07252999
221	0x3ebae1c3	0.36500368
222	0x3e860001	0.26171878
223	0xbc0acafc	-0.008471247
224	0x3cc09fe2	0.023513738
225	0x3ce3363d	0.027735824
226	0xbe107a5f	-0.14109181
227	0xbd5d8c08	-0.054088622
228	0xbb13975a	-0.0022520632
229	0x3eca7664	0.3954345
230	0x3f19e07b	0.60108155
231	0xbeae91c9	-0.340956
232	0xbe04efc3	-0.12982087
233	0xbe06f95e	-0.13181064
234	0x3e529cb6	0.20567593
235	0x3d346795	0.044044096
236	0x3da59d67	0.08086663
237	0x3df8358a	0.12119587
238	0xbc96d178	-0.01841043
239	0xbd0b16b6	-0.033957206
240	0x3ebddcd2	0.37082535
241	0x3e823c2b	0.2543653
242	0x3ee8fe12	0.4550634
243	0xbe5fd106	-0.2185708
244	0xbe87fe14	-0.26561034
245	0xbef75b88	-0.4831202
246	0x3e9d97f3	0.3077999
247	0x3e5372f1	0.20649315
248	0x3edaab33	0.4270874
249	0x3e83d412	0.25747734
250	0x3e98caee	0.29842323
251	0x3d7d2dba	0.061811186
252	0xbe63de60	-0.22252798
253	0x3c2948c0	0.010332286
254	0xbe163059	-0.1466688
255	0x3d71c0e0	0.05902183

bottle_neck.0.conv_block.6.weight f4 [32]
0	0x3f31fd86	0.6952747
1	0x3efa6dd2	0.4891191
2	0x3f573d37	0.8407778
3	0x3f73cf8a	0.95238554
4	0x3f451c61	0.7699643
5	0x3f8529d3	1.0403389
6	0x3f55702e	0.833743
7	0x3f8d8e1f	1.1058997
8	0x3f62de94	0.8862088
9	0x3f4a4a3c	0.7901952
10	0x3f51f1e1	0.820097
11	0x3f4717e9	0.7777086
12	0x3f49e0d1	0.7885867
13	0x3f62c880	0.8858719
14	0x3f080d68	0.53145456
15	0x3f4900bb	0.7851674
16	0x3f4d95b6	0.80306566
17	0x3f41f2a7	0.75760883
18	0x3f3b83f9	0.7324825
19	0x3f45f530	0.7732725
20	0x3f5d89d7	0.8653845
21	0x3f04415a	0.5166222
22	0x3f144a1f	0.579256
23	0x3f86217f	1.0478972
24	0x3f38f010	0.72241306
25	0x3f6affc6	0.9179653
26	0x3f8dec44	1.1087728
27	0x3f0da85d	0.55335027
28	0x3f3cf914	0.73817563
29	0x3f64069b	0.8907258
30	0x3f852106	1.0400703
31	0x3fa24a7c	1.2678981

bottle_neck.0.conv_block.6.bias f4 [32]
0	0x3c1e31ff	0.009655475
1	0xbbae0aee	-0.0053113615
2	0xbc9734dc	-0.018457823
3	0xbe09eaff	-0.1346855
4	0xbcd9d1a2	-0.026589219
5	0x3d087b67	0.03332081
6	0xbd3c0d73	-0.045911264
7	0xbdaf101a	-0.08547993
8	0xbcadd74a	-0.021220822
9	0xbd1bbc4d	-0.038021374
10	0x3adaaa93	0.0016682915
11	0xbdcd4777	-0.100233965
12	0xbde3f18d	-0.111300565
13	0xbdafbeb0	-0.08581293
14	0xbe047321	-0.12934543
15	0x3d0169d8	0.03159508
16	0xbe09aa36	-0.13443837
17	0x3cf7bf07	0.030242456
18	0xbda3b35f	-0.07993197
19	0xbb38f1f2	-0.0028220383
20	0xbc070add	-0.008242336
21	0xbd9e9e94	-0.0774509
22	0xbd05fdf3	-0.032712888
23	0xbe11fd2d	-0.14256735
24	0xbd1ad521	-0.03780091
25	0xbe7240bc	-0.23657507
26	0x3c4839a2	0.012220772
27	0xbe00cfd1	-0.12579276
28	0xbdba5bf1	-0.09099568
29	0xbdb73bdf	-0.089469664
30	0xbe4f45d3	-0.2024148
31	0xbaa0b39a	-0.0012260557

bottle_neck.0.conv_block.6.running_mean f4 [32]
0	0x3f308370	0.6895056
1	0x3fecb263	1.8491939
2	0xbdcb5801	-0.09928895
3	0xbf9a0335	-1.2032229
4	0xc02e95c1	-2.7278903
5	0xbe57c05b	-0.21069472
6	0xbfb8e9d8	-1.4446363
7	0x3da4bea7	0.080441765
8	0xbefe9ae4	-0.49727547
9	0x3fadcf13	1.3578819
10	0xbf9f464c	-1.2443328
11	0x3f8614f1	1.0475141
12	0xbf5f27df	-0.87170213
13	0x3f2f7489	0.68537194
14	0xbdb3a125	-0.0877097
15	0xbfe59dec	-1.7938819
16	0xbf4a5054	-0.7902882
17	0x3f4b6ac2	0.79459774
18	0x3f2947d7	0.66125244
19	0xc0644812	-3.5668988
20	0xbedc6c51	-0.4305139
21	0xbf858396	-1.0430782
22	0xbf271927	-0.65272754
23	0xbe59eebb	-0.21282475
24	0x40170b7c	2.360076
25	0x3faf92c2	1.3716662
26	0xbfd6d9df	-1.6785239
27	0x3e95eb4e	0.29281086
28	0xbf2a4e74	-0.6652596
29	0xbeb6090b	-0.35553774
30	0xbf8db425	-1.1070601
31	0xbfeeea08	-1.8665171

bottle_neck.0.conv_block.6.running_var f4 [32]
0	0x417a02c9	15.62568
1	0x4144aec1	12.292665
2	0x410b5cda	8.710169
3	0x40e4eaf2	7.15368
4	0x414be283	12.742801
5	0x412c1005	10.753911
6	0x410ff89c	8.998196
7	0x41317b59	11.092614
8	0x41651037	14.316459
9	0x410c111c	8.754177
10	0x41499765	12.599462
11	0x40fbfb8b	7.874456
12	0x419b488f	19.410429
13	0x40b11c5f	5.5347133
14	0x4148d87b	12.552852
15	0x412e846d	10.9073305
16	0x41565aa0	13.397125
17	0x4129b0a7	10.605628
18	0x414aa31a	12.66482
19	0x412f1e8c	10.944958
20	0x410c4eed	8.769269
21	0x41749b44	15.287907
22	0x41870dde	16.881771
23	0x411d298e	9.822645
24	0x4120d165	10.051122
25	0x40f1aef1	7.552605
26	0x4156d68b	13.427379
27	0x41546d89	13.276742
28	0x411b0904	9.689701
29	0x4109039e	8.563383
30	0x410d67b0	8.837814
31	0x40f6aa0a	7.7082567

bottle_neck.1.conv_block.1.weight f4 [32, 32, 3, 3]
0	0x3e567d35	0.209462
1	0xbe19351a	-0.14961663
2	0x3f0023eb	0.50054806
3	0xbda85a0e	-0.082203016
4	0x3e134c51	0.14384581
5	0xbdfe346f	-0.12412345
6	0xbd2184f4	-0.039433435
7	0xbe664f13	-0.22491102
8	0x3e5a7bbd	0.21336265
9	0x3ca9a057	0.020706339
10	0xbf0605d9	-0.5235267
11	0x3ee25e19	0.44212416
12	0xbdc8abe0	-0.097984076
13	0xbdd8ab84	-0.10579589
14	0x3e49111b	0.19635431
15	0x3cc71cf2	0.024305794
16	0x3debfc6c	0.11522755
17	0x3db95960	0.0905025
18	0xbe94c209	-0.29054287
19	0x3e7ad119	0.24493827
20	0xbe9681af	-0.29395816
21	0x3df9c964	0.12196615
22	0x3c206c22	0.009791406
23	0xbe1ce503	-0.15321736
24	0x3e28cd82	0.16484645
25	0x3ed7bd2d	0.42136517
26	0xbe888b21	-0.26668647
27	0x3e2e496a	0.17020193
28	0xbd23c784	-0.039985195
29	0x3dcce5be	0.10004757
30	0x3ec10a6c	0.37703264
31	0x3e50e0bb	0.20398228
32	0xbea7522d	-0.32679883
33	0xbc87a904	-0.016560085
34	0x3c932e23	0.017966336
35	0xbe1646d5	-0.14675458
36	0xbe6c59f9	-0.23081197
37	0x3e5e3b92	0.21702412
38	0xbed8d6d1	-0.42351392
39	0x3e63c670	0.22243667
40	0xbe787d55	-0.2426656
41	0xbd3a89ae	-0.045541458
42	0xbe7fb1de	-0.24970195
43	0x3e1792b2	0.14802054
44	0x3da7aab4	0.08186856
45	0x3ef31d3f	0.4748325
46	0x3e0f151f	0.13972901
47	0xbd9b11a0	-0.07571721
48	0x3e914381	0.28371814
49	0x3c33f323	0.010983261
50	0xbe4946b1	-0.19655873
51	0xbd014684	-0.03156139
52	0xbdd22dd0	-0.10262644
53	0x3e1b36de	0.15157649
54	0xbe2e420c	-0.17017382
55	0xbcb1714d	-0.021660471
56	0xbe3594fa	-0.17732611
57	0xbeb67973	-0.35639533
58	0xbed1e47a	-0.40994626
59	0x3e250153	0.16113786
60	0xbed083cf	-0.40725562
61	0xbe409fce	-0.1881096
62	0x3e25b7fb	0.16183464
63	0x3df25899	0.11833305
64	0x3ddaf4ad	0.106911995
65	0x3e722f9c	0.23650974
66	0x3f172a06	0.590485
67	0x3e3aa7d1	0.1822808
68	0x3c8c620b	0.017136594
69	0x3ebaa58a	0.3645442
70	0xbda66978	-0.08125585
71	0xbe52bf07	-0.20580684
72	0x3d86998c	0.065722555
73	0xbe23ecf9	-0.16008367
74	0x3d5ffa70	0.054682195
75	0x3d65003a	0.05590842
76	0xbe8b9aab	-0.2726644
77	0x3e3510ea	0.17682233
78	0x3df72c93	0.12069049
79	0x3e44c06f	0.19214033
80	0xbe094fd8	-0.13409364
81	0x3d3b2814	0.04569252
82	0xbd37572a	-0.04476086
83	0x3e83b82e	0.25726455
84	0x3e998988	0.2998774
85	0x3e8c3238	0.27382064
86	0x3e52b346	0.205762
87	0xbda11681	-0.078656204
88	0x3de7616c	0.112978786
89	0x3e62ce4e	0.22149011
90	0x3dafe812	0.08589186
91	0x3e51198d	0.20419903
92	0x3e9bb48a	0.30411178
93	0x3dc88331	0.09790648
94	0xbd316876	-0.043312512
95	0x3e8fc5e2	0.2808066
96	0xbd982801	-0.07429505
97	0xbe22f549	-0.15913881
98	0x3d2210b7	0.03956672
99	0x3e9f41ee	0.31104988
100	0xbe0f5c35	-0.14000018
101	0xbebdda4f	-0.3708062
102	0x3d975465	0.07389144
103	0xbe2cc2f9	-0.16871251
104	0xbd86e007	-0.065856986
105	0x3e709023	0.23492484
106	0xbe6cd4cf	-0.23128055
107	0x3d9a4756	0.075331375
108	0xbeaad77c	-0.33367527
109	0xbdbb39f9	-0.09141917
110	0xbe2b6c5e	-0.16740558
111	0x3d5e5c74	0.05428739
112	0xbf1e7824	-0.6190207
113	0x3ddc30f2	0.10751523
114	0xbee364cf	-0.44412848
115	0xbc969513	-0.018381631
116	0x3d1a6a37	0.03769895
117	0xbd162d8f	-0.03666454
118	0x3ddb4b81	0.107077606
119	0xbd5a3f72	-0.053283162
120	0xbe027a47	-0.12741958
121	0xbce3987b	-0.02778267
122	0x3e24bed2	0.16088417
123	0x3d2083c2	0.039188154
124	0xbeaf0173	-0.34180793
125	0x3d3d31f9	0.046190236
126	0xbe80c040	-0.25146675
127	0xbd7bebe8	-0.061504275
128	0xbd06a8ef	-0.03287595
129	0xbda42888	-0.08015543
130	0xbeae7917	-0.3407676
131	0x3ea91000	0.3302002
132	0xbeb04fea	-0.3443597
133	0xbed13ae9	-0.40865257
134	0x3d288257	0.041139927
135	0x3c96445b	0.018343141
136	0xbbd9fa94	-0.0066521857
137	0xbe518b79	-0.20463361
138	0x3d0cc4ba	0.0343673
139	0x3e1df829	0.15426697
140	0xbed2e718	-0.41191936
141	0x3d8bcd3f	0.06826257
142	0xbb8c07d5	-0.0042733946
143	0x3d3eebb3	0.0466115
144	0x3dc70572	0.097178355
145	0x3c756ca3	0.014979514
146	0x3d76e384	0.06027557
147	0x3ddad902	0.10685922
148	0xbd689763	-0.056785
149	0xbdc1073c	-0.09425208
150	0x3e5f5b52	0.2181218
151	0x3dad017f	0.08447551
152	0x3b6ee0f5	0.0036450003
153	0xbe91cddd	-0.28477374
154	0x3dbeb746	0.093123004
155	0xbda0bc5e	-0.07848428
156	0xbcbcb724	-0.023036547
157	0x3ef2b344	0.47402394
158	0xbda9abe0	-0.08284736
159	0x3d73a8cb	0.059487145
160	0xbe17082e	-0.14749214
161	0xbdc67eb7	-0.09692138
162	0x3d2233bf	0.03960013
163	0x3e7a43d8	0.24439943
164	0xbdbf9f19	-0.09356517
165	0xbc1095d5	-0.008824785
166	0xbde85dc8	-0.11346012
167	0xbddb5f44	-0.1071153
168	0x3e0bc333	0.13648681
169	0xbbb929ac	-0.0056507196
170	0x3d372a78	0.044718236
171	0xbe195585	-0.1497403
172	0x3e8d9ab5	0.27657095
173	0xbdffade8	-0.12484342
174	0xbe344115	-0.17602952
175	0x3e91073c	0.28325832
176	0xbc966405	-0.01835824
177	0x3c9e6bed	0.019338572
178	0x3e6b78e3	0.22995333
179	0xbe1a15dd	-0.15047403
180	0x3e7e5ed8	0.24840868
181	0x3e93e794	0.28887618
182	0xbd64ff66	-0.05590763
183	0xbe717728	-0.23580611
184	0xbe8fa31a	-0.28054124
185	0xbdde94f2	-0.10868253
186	0xbd82cb59	-0.06386442
187	0x3e755722	0.2395902
188	0x3e2c05af	0.16799043
189	0xbe134629	-0.14382233
190	0xbd6af7af	-0.057365116
191	0xbe69eb32	-0.22843626
192	0xbe3ba361	-0.18324043
193	0xbef49e9f	-0.47777268
194	0x3d1b4cc7	0.037915017
195	0xbe59e35d	-0.21278138
196	0x3adc3e92	0.0016803315
197	0x3d3e2331	0.04642028
198	0xbd63f166	-0.055650137
199	0xbd8524ed	-0.06501184
200	0x3d843bd0	0.06456721
201	0xbe93ef70	-0.28893614
202	0xbd69ffca	-0.057128705
203	0x3e261626	0.16219386
204	0xbd4eb576	-0.050466023
205	0x3e65a338	0.22425544
206	0x3e3f9f0f	0.1871302
207	0x3dabc817	0.083877735
208	0xbc929c76	-0.017896872
209	0x3da46d38	0.08028644
210	0x3f1195eb	0.5686938
211	0x3d84204c	0.06451473
212	0x3d960607	0.073253684
213	0x3ea13343	0.31484422
214	0x3eac7120	0.33680058
215	0x3eceaa58	0.40364337
216	0x3d0f332b	0.034960907
217	0x3d248b29	0.040171776
218	0xbec9656f	-0.393352
219	0x3e900152	0.28126007
220	0x3e028dff	0.1274948
221	0xbca89e6c	-0.020583354
222	0x3ea277a7	0.31731912
223	0x3dac2744	0.08405927
224	0x3da76eaf	0.08175408
225	0x3d9530ff	0.07284736
226	0xbe9afa45	-0.30269065
227	0x3d6e2fc3	0.058151018
228	0xbe3b49e2	-0.18289903
229	0x3e84818e	0.25880092
230	0x3e05df01	0.1307335
231	0x3d8f6f44	0.07003644
232	0x3c7b38d4	0.015333373
233	0xbda6945c	-0.08133766
234	0xbe7b467c	-0.24538606
235	0xbe2ba3e0	-0.16761732
236	0xbec621e7	-0.3869774
237	0xbd0bf668	-0.03417054
238	0xbe555689	-0.20833792
239	0xbf0787ef	-0.52941793
240	0xbd26f481	-0.04076052
241	0xbebad8e7	-0.36493608
242	0xbefe2152	-0.49634796
243	0x3e63954d	0.22224922
244	0x3edfdfa1	0.43725303
245	0x3e011675	0.12606223
246	0x3cb38521	0.021914067
247	0x3eb7fffd	0.3593749
248	0xbe16fb04	-0.14744192
249	0x3e6d22cc	0.23157805
250	0xbdfb4197	-0.1226837
251	0xbe077766	-0.1322914
252	0xbda83e06	-0.08214955
253	0xbe968f6a	-0.2940629
254	0x3c103dce	0.008803798
255	0x3d298e4e	0.041395478

bottle_neck.1.conv_block.2.weight f4 [32]
0	0x3f86b982	1.0525362
1	0x3f56e600	0.839447
2	0x3f95c2ba	1.1700051
3	0x3f35cc18	0.7101455
4	0x3f8baca4	1.0912061
5	0x3f1eeefe	0.62083423
6	0x3f0f432f	0.5596189
7	0x3f77ff3e	0.96873844
8	0x3f683ada	0.907148
9	0x3f6b410e	0.9189614
10	0x3f2fbfcf	0.6865205
11	0x3f95b53b	1.1695932
12	0x3f79361e	0.973482
13	0x3fa00a2e	1.2503107
14	0x3f441252	0.76590455
15	0x3f96f6d7	1.179408
16	0x3f7f825f	0.99808306
17	0x3f50f44f	0.81622785
18	0x3f7a9892	0.97889054
19	0x3f803c6a	1.0018437
20	0x3f6b6f42	0.9196664
21	0x3f585e07	0.84518474
22	0x3f6abcca	0.9169432
23	0x3f88c6df	1.0685691
24	0x3f681677	0.9065928
25	0x3f5c2e83	0.8600847
26	0x3f7415ab	0.9534556
27	0x3f81b28e	1.0132616
28	0x3f859c52	1.043833
29	0x3f51d6a7	0.8196816
30	0x3f5508de	0.83216655
31	0x3f9de246	1.2334678

bottle_neck.1.conv_block.2.bias f4 [32]
0	0xbf0280a1	-0.5097752
1	0xbf0279f1	-0.5096732
2	0xbf0be3ce	-0.5464448
3	0xbec83c2d	-0.3910841
4	0xbece6e5e	-0.40318578
5	0xbea7c797	-0.32769462
6	0xbef6db5b	-0.4821423
7	0xbee960a6	-0.4558155
8	0xbf01de35	-0.50729686
9	0xbee703a6	-0.4511997
10	0xbf1eeb07	-0.62077373
11	0xbf06e06e	-0.526862
12	0xbede3260	-0.43397808
13	0xbedf11b0	-0.43568182
14	0xbf37aca6	-0.71747816
15	0xbf012afc	-0.50456214
16	0xbed8725d	-0.42274752
17	0xbef029e0	-0.46906948
18	0xbecd8086	-0.40137118
19	0xbee8f807	-0.4550173
20	0xbee9bf9e	-0.45654005
21	0xbf11005c	-0.56641173
22	0xbf224a5c	-0.63394713
23	0xbef8479f	-0.48492143
24	0xbe850c2b	-0.25985846
25	0xbf0cc65a	-0.5499016
26	0xbef9cadb	-0.4878758
27	0xbedd7bc8	-0.432585
28	0xbe9b225b	-0.3029965
29	0xbee468c3	-0.44611177
30	0xbeadcf8b	-0.33947405
31	0xbea22448	-0.31668305

bottle_neck.1.conv_block.2.running_mean f4 [32]
0	0x40627830	3.5385857
1	0x3fb9d88c	1.451921
2	0xbfa42be9	-1.28259
3	0xc0123113	-2.2842453
4	0x3f8d1f01	1.1025087
5	0x4091bdab	4.554403
6	0x3ffcc1e6	1.9746673
7	0xc080652e	-4.012351
8	0xc0070ef0	-2.1102867
9	0xc008eeb6	-2.1395698
10	0x3ec30836	0.38092202
11	0x3fe8dc5a	1.8192246
12	0x3f18577b	0.59508485
13	0x40726830	3.787609
14	0x400b9b0b	2.181338
15	0xbf1d6c77	-0.6149363
16	0x3f8c2210	1.0947895
17	0xbf39838a	-0.7246634
18	0xc0952cec	-4.6617336
19	0xbf9d889a	-1.2307312
20	0xbf5db0cc	-0.86597896
21	0xbf63ac14	-0.88934445
22	0x3fa18ffe	1.2622068
23	0x400cfc5e	2.2029033
24	0x40509370	3.2589989
25	0xc0a5c6b6	-5.1805067
26	0x3f5591c6	0.8342556
27	0x406351f3	3.5518768
28	0xc0231d0e	-2.5486484
29	0x3fc1f486	1.5152748
30	0xbf1ccd82	-0.6125108
31	0x3ea8d618	0.3297584

bottle_neck.1.conv_block.2.running_var f4 [32]
0	0x4303fc06	131.98447
1	0x42485a50	50.088196
2	0x424e047a	51.50437
3	0x42958bd1	74.77308
4	0x42e1a3b1	112.81971
5	0x42b47179	90.22163
6	0x424e5efa	51.59275
7	0x4285a075	66.81339
8	0x4250221e	52.033318
9	0x4299e8f6	76.955
10	0x429462de	74.1931
11	0x42c10de1	96.52711
12	0x429eb3ba	79.35103
13	0x4282ad48	65.33844
14	0x42881733	68.04531
15	0x42f50561	122.510506
16	0x42bf7e66	95.74687
17	0x42bde8ae	94.95445
18	0x42cea982	103.33107
19	0x427c24f2	63.03608
20	0x429e3bc7	79.11675
21	0x42b107e5	88.51542
22	0x42b157c9	88.671455
23	0x42e90870	116.51648
24	0x42aa9d14	85.30679
25	0x42c585c7	98.761284
26	0x426690b1	57.6413
27	0x424e59c6	51.58767
28	0x425ea174	55.65767
29	0x429145a5	72.636024
30	0x42a73f4f	83.62365
31	0x42a3e692	81.95033
