models/defG_epoch_20.pth (torch_old, 358184 bytes, 49 tensors)

encoder.0.weight f4 [8, 1, 3, 3]
0.022127097 0.015643243 0.012396651 -0.0027708686 -0.07925012 -0.058653485 0.032954194 0.23907971
-0.04910717 0.0073800054 -0.01515833 -0.012721524 -0.010753688 0.00040739134 0.05336982 0.022289842
0.03761748 -0.51714367 0.086784974 -0.045675095 -0.099417485 0.09856338 -0.053001128 -0.08794361
0.0033457684 -0.038302474 -0.05706029 0.0055976505 0.019752158 -0.4802284 0.024523214 -0.027612507
0.01594458 0.01815795 0.0049753073 0.016166404 -0.023584303 -0.02261122 -0.012720702 0.017329253
0.032197982 0.015003801 0.027406663 -0.4284551 0.06995952 -0.028741693 0.045355264 -0.063812904
-0.09125156 0.2712091 0.09804453 -0.038585473 0.05381856 -0.07756655 -0.014093907 -0.0013715664
-0.029821325 -0.036497 0.07756694 0.07230772 -0.08788208 0.31929585 0.048837278 0.01638093
-0.02131667 -0.055925608 0.22371994 0.052258622 -0.08388052 0.06589104 -0.031244617 -0.08736208
00000000: e343 b53c 4226 803c 531b 4b3c 7697 35bb
00000010: e34d a2bd a33e 70bd fafa 063d 50d1 743e
00000020: 9a24 49bd f9d3 f13b a55a 78bc f06d 50bc
00000030: 3d30 30bc 2497 d539 509a 5a3d 3099 b63c
00000040: c914 1a3d 8763 04bf 52bc b13d cf15 3bbd
00000050: 659b cbbd 99db c93d b617 59bd c81b b4bd
00000060: ae44 5b3b 0ee3 1cbd 0db8 69bd 7f6c b73b
00000070: 47cf a13c 7fe0 f5be e8e4 c83c a033 e2bc
00000080: 359e 823c fbbf 943c e707 a33b 686f 843c
00000090: de33 c1bc 2a3b b9bc 7e6a 50bc 14f6 8d3c
000000a0: 08e2 033d 81d2 753c f083 e03c 785e dbbe
000000b0: f046 8f3d b373 ebbc 71c6 393d 57b0 82bd
000000c0: 19e2 babd ebdb 8a3e 92cb c83d cd0b 1ebd
000000d0: da70 5c3d 36db 9ebd 21ea 66bc 22c6 b3ba
000000e0: da4b f4bc e17d 15bd 6adb 9e3d 1216 943d
000000f0: 85fb b3bd bf7a a33e 9909 483d 4d31 863c
00000100: 4ca0 aebc 4012 65bd d716 653e 230d 563d
00000110: 8dc9 abbd e2f1 863d b6f4 ffbc e4ea b2bd

encoder.0.bias f4 [8]
-0.2674166 0.09407213 0.15320438 -0.20949748 -0.08160663 -0.17416391 -0.05234099 0.14813133
00000000: d4ea 88be e4a8 c03d 9ce1 1c3e 8286 56be
00000010: 6021 a7bd 0658 32be 8263 56bd bdaf 173e

encoder.3.weight f4 [16, 8, 3, 3]
-0.007120803 -0.08721428 -0.03863591 -0.072992355 -0.14165485 -0.1737986 -0.051930375 -0.093252614
-0.11956839 -0.028757796 0.07138811 0.09655155 0.111691505 0.14772186 0.1795825 0.083015405
0.0095710475 0.030689187 -0.0053146565 0.024780683 0.04912328 0.015582225 -0.044932116 0.00023045043
-0.0016757561 -0.011084053 0.06707182 -0.05425646 0.013641937 0.026430737 -0.07652456 -0.06596719
-0.025100406 -0.016220067 0.07886659 0.06641925 -0.08490126 0.006506267 0.09194568 0.10295475
0.107127115 0.07948858 -0.0071068094 0.0967145 -0.045388576 0.022582596 0.07369436 0.03918764
0.014568055 0.0028549933 0.08642598 -0.084268436 -0.14776568 -0.109307 0.05042995 9.82615e-05
0.123525046 -0.017923793 -0.13562198 -0.11304331 -0.020399826 -0.06394042 -0.20839909 0.007125146
0.059344076 0.03705445 0.04361684 0.035667222 0.0016110481 0.050834782 -0.024537854 -0.08833998
-0.07245856 0.0017176272 0.13192648 -0.05765287 0.02152071 0.094177075 -0.09445191 -0.0586146
-0.08824739 -0.07145793 0.08401929 0.048252054 0.10651702 0.03021674 0.0578432 0.033194654
0.038737833 0.0209928 0.008385614 -0.048516307 -0.025256978 0.026305772 -0.035133213 0.07383878
0.054896474 0.039152056 0.044037223 0.05823844 0.030071016 0.03639261 -0.15995412 -0.0008344206
-0.01540036 -0.04807931 0.1035845 0.03961145 -0.08524002 0.015267792 0.13153793 -0.025881737
0.13033667 -0.0015884383 0.023780558 0.03146066 0.023722935 -0.052561473 0.019879181 0.08176037
-0.025107516 0.118375495 0.18571384 0.031248663 0.07763476 0.14167745 -0.02922046 0.07366723
0.17762901 -0.014569059 0.08267036 0.16694 -0.0018327816 0.011111318 0.043306116 -0.08732976
-0.0718577 -0.006320027 -0.07672382 -0.050380535 0.09702109 -0.032706875 -0.06277376 0.1141476
-0.04896216 0.03672556 -0.0027029032 -0.012082672 0.07850724 -0.0043365564 0.01651952 -0.08227218
-0.16963634 0.16129398 0.11808419 0.10460121 -0.04624575 -0.11505878 -0.07037974 -0.14850168
-0.23449641 -0.17528287 0.036731176 6.933916e-05 -0.048657484 0.047800656 -0.0045997505 0.01206176
-0.012150837 -0.08335962 0.024063889 0.07921615 -0.0014844629 -0.042702332 0.105180725 0.04915244
-0.0038184244 0.14120695 0.041746438 0.053601574 0.130496 0.14247261 0.040703524 0.019480163
-0.04792174 -0.24071504 -0.06689333 -0.11360144 -0.24982755 -0.0018984884 -0.03346984 0.07445637
0.013555578 0.077511534 -0.011295158 -0.010778537 -0.06424801 -0.15138453 -0.02900277 -0.06458388
0.032034144 -0.06487224 -0.059579294 -0.07285187 -0.08675463 -0.10614886 -0.15589595 0.012151883
-0.021437475 -0.061691456 -0.06963031 -0.017879765 0.026458649 -0.017761718 0.034242466 0.029663622
0.03396388 -0.051802892 -0.05676071 -0.075022444 -0.14112642 -0.13554567 -0.027827496 -0.056158446
-0.06818228 0.005110705 -0.081490204 -0.022519665 -0.058640316 -0.036601596 0.16776265 0.05200045
0.14520495 0.14480396 -0.008562249 -0.039853454 -0.0055565718 0.061842725 0.037238713 -0.001778072
0.068885654 0.020181568 0.06682306 0.0029485293 -0.08641547 -0.018802444 -0.056093227 -0.047534987
-0.09527881 -0.06681308 -0.16038428 -0.0345089 -0.05918008 -0.03042312 -0.07535574 -0.020604588
00000000: a055 e9bb 679d b2bd b040 1ebd 047d 95bd
00000010: f80d 11be 43f8 31be f2b4 54bd 3afb bebd
00000020: 46e0 f4bd 7895 ebbc ee33 923d d2bc c53d
00000030: 84be e43d 6644 173e 7ae4 373e fb03 aa3d
00000040: e2cf 1c3c e467 fb3c 9226 aebb dc00 cb3c
00000050: 7e35 493d 974c 7f3c bd0a 38bd 11a5 7139
00000060: 0ba5 dbba e399 35bc f35c 893d 063c 5ebd
00000070: 6e82 5f3c 4685 d83c e9b8 9cbd ce19 87bd
00000080: 5e9f cdbc f2df 84bc cf84 a13d d106 883d
00000090: b6e0 adbd 8632 d53b 044e bc3d f1d9 d23d
000000a0: 7665 db3d e9ca a23d 3de0 e8bb 4012 c63d
000000b0: 5fe9 39bd 23ff b83c 12ed 963d 3883 203d
000000c0: daae 6e3c d71a 3b3b 1b00 b13d ee94 acbd
000000d0: e34f 17be 59dc dfbd a38f 4e3d be11 ce38
000000e0: b3fa fc3d ebd4 92bc 7de0 0abe 4083 e7bd
000000f0: 891d a7bc 32f3 82bd 9266 55be 0f7a e93b
00000100: c612 733d 68c6 173d 92a7 323d cb17 123d
00000110: ce29 d33a 2238 503d 9c03 c9bc 97eb b4bd
00000120: 2765 94bd 0122 e13a bc17 073e 6a25 6cbd
00000130: 334c b03c e9df c03d 0170 c1bd dd15 70bd
00000140: 0cbb b4bd 8958 92bd 4e12 ac3d f2a3 453d
00000150: 9825 da3d 1989 f73c feec 6c3d 1ef7 073d
00000160: 90ab 1e3d 18f9 ab3c d063 093c 09b9 46bd
00000170: b9e7 cebc 347f d73c d8e7 0fbd c938 973d
00000180: 20db 603d e85d 203d 6060 343d 6e8b 6e3d
00000190: 7e57 f63c 6b10 153d 03cb 23be 05bd 5aba
000001a0: cb51 7cbc d0ee 44bd 1c24 d43d 9e3f 223d
000001b0: 5292 aebd c325 7a3c e1b1 063e f005 d4bc
000001c0: fa76 053e 2533 d0ba 72cf c23c e5dc 003d
000001d0: 9a56 c23c b34a 57bd aad9 a23c fb71 a73d
000001e0: 47ae cdbc da6e f23d c52b 3e3e 32fd ff3c
000001f0: f9fe 9e3d e513 113e bf5f efbc d8de 963d
00000200: 61e4 353e 10b3 6ebc 144f a93d 52f2 2a3e
00000210: f239 f0ba 3f0c 363c c161 313d f2d9 b2bd
00000220: 212a 93bd 3b18 cfbb 6121 9dbd d25b 4ebd
00000230: feb2 c63d a5f7 05bd 878f 80bd 38c6 e93d
00000240: 8c8c 48bd 8a6d 163d 3123 31bb 66f6 45bc
00000250: 67c8 a03d ac19 8ebb f253 873c 517e a8bd
00000260: 26b5 2dbe 402a 253e 20d6 f13d 2939 d63d
00000270: 2f6c 3dbd f0a3 ebbd 4123 90bd d310 18be
00000280: d41f 70be 5a7d 33be 6e73 163d 2e6a 9138
00000290: 124d 47bd 9fca 433d 81b9 96bb b09e 453c
000002a0: 4e14 47bc 73b8 aabd a221 c53c 143c a23d
000002b0: 4f92 c2ba a4e8 2ebd fe68 d73d 1254 493d
000002c0: 883e 7abb 8e98 103e 50fe 2a3d 538d 5b3d
000002d0: bea0 053e 57e4 113e bdb8 263d dd94 9f3c
000002e0: 9649 44bd 017e 76be 5fff 88bd dfa7 e8bd
000002f0: cbd2 7fbe b3d6 f8ba ac17 09bd 957c 983d
00000300: 3718 5e3c 5ebe 9e3d 540f 39bc 7698 30bc
00000310: 7694 83bd 8c04 1bbe 3897 edbc 8e44 84bd
00000320: 3c36 033d bddb 84bd 6b09 74bd 5c33 95bd
00000330: 69ac b1bd 9364 d9bd 30a3 1fbe b118 473c
00000340: a59d afbc 2eb0 7cbd 569a 8ebd 9678 92bc
00000350: cfbf d83c 0681 91bc d441 0c3d 2001 f33c
00000360: b61d 0b3d 452f 54bd eb7d 68bd 5ea5 99bd
00000370: 7283 10be 7ccc 0abe 7df6 e3bc 6606 66bd
00000380: 27a3 8bbd b377 a73b 56e4 a6bd 297b b8bc
00000390: d430 70bd 8eeb 15bd f9c9 2b3e 6dfe 543d
000003a0: 9bb0 143e 7d47 143e ad48 0cbc 603d 23bd
000003b0: e713 b6bb cc4e 7d3d 9f87 183d 320e e9ba
000003c0: ec13 8d3d d153 a53c 87da 883d 1d3c 413b
000003d0: 98fa b0bd 9507 9abc 03c2 65bd 0cb4 42bd
000003e0: 8921 c3bd 4cd5 88bd c73b 24be 3459 0dbd
000003f0: d066 72bd e839 f9bc 1c54 9abd f4ca a8bc

encoder.3.bias f4 [16]
-0.11766127 -0.052701186 -0.021032572 -0.03866338 -0.13923429 0.06047427 -0.15804058 -0.062733546
-0.06423656 -0.01701042 -0.05813895 -0.067872256 0.007542585 -0.24341711 0.08623345 -0.13728614
00000000: 64f8 f0bd 33dd 57bd 804c acbc 7e5d 1ebd
00000010: 6f93 0ebe deb3 773d 64d5 21be 727a 80bd
00000020: 758e 83bd 7059 8bbc 1c23 6ebd 9c00 8bbd
00000030: ca27 f73b 5642 79be 2a9b b03d bd94 0cbe

encoder.6.weight f4 [32, 16, 3, 3]
-0.03819206 -0.013253174 0.113200754 -0.029709179 -0.084999606 -0.02452373 -0.01130923 -0.06369931
-0.040983416 -0.028698288 0.005206754 -0.020074023 0.07406651 0.14420387 0.032589193 0.061396785
-0.04154181 -0.04053229 0.09051481 0.094846666 0.048671674 -0.046940934 -0.021331726 -0.051362693
-0.107208416 -0.114280134 -0.059471555 0.013904833 -0.057138715 0.0052435603 0.009236179 -0.03168787
-0.033256702 -0.102467865 0.011320873 0.08838675 0.063674286 -0.001641021 -0.022503493 0.048551466
0.122771494 0.050408002 -0.014342478 0.0018399672 -0.029227091 0.08969963 0.0834478 0.09209651
0.015883187 -0.07880681 -0.05921751 -0.03251819 -0.06970725 -0.028589442 -0.018747032 0.069506474
0.10272257 -0.07827691 -0.15732598 -0.09580458 0.113326885 0.05471596 -0.043897115 0.09457374
-0.021775357 -0.005797207 0.042423762 0.08093063 0.09015742 0.021360194 0.09876281 0.023522316
-0.06524847 -0.06870779 -0.09818745 0.073037684 0.09467347 0.10247584 0.06294087 0.100560494
0.09014772 -0.021663463 -0.025451276 -0.011688126 0.1174046 0.22216514 0.14186278 0.008967161
-0.0473917 -0.011806176 -0.015705924 -0.10919883 -0.10073869 0.01252131 -0.04635507 -0.04912745
0.111516885 -0.042240664 -0.008163969 0.061033912 0.0245419 0.006956028 0.029341351 0.2261286
0.044735022 0.017894784 0.015634712 -0.03691388 -0.014172119 -0.022336606 0.060745277 0.18743236
0.21233456 0.18060295 -0.12738156 -0.16327848 -0.137349 0.04047984 0.007547648 -0.08934585
-0.0005175232 0.15110803 0.027463773 0.061110206 -0.03128057 -0.056431744 0.098430425 -0.003578512
-0.067628905 0.03762545 0.06435124 0.007583734 -0.00948121 0.082733534 0.09227473 0.029763231
0.06822059 0.045642048 -0.11015851 -0.07831416 0.011136062 0.023375614 -0.12711959 -0.10524805
0.04320062 -0.024643835 0.08644327 -0.05977714 -0.13101229 0.107926995 -0.046549283 0.19168338
0.22485706 -0.07369853 -0.02610688 0.04178412 0.05202976 0.06333673 -0.037444443 0.054318666
-0.015458275 0.0037747284 0.060072698 -0.010428832 -0.100659035 0.11905081 -0.019717172 0.032874428
-0.13621369 -0.12311802 0.039087296 0.009505916 -0.0031114742 0.017687298 -0.016264126 0.060410053
0.045152098 0.0071292873 0.07897378 0.033786613 -0.009658982 0.13371404 -0.046170402 0.12110155
0.05217138 -0.087906234 0.031112507 0.05125299 0.04606312 0.12394469 -0.024000393 -0.12438875
0.023249328 0.0035365508 0.06601723 -0.08893302 0.004711144 0.17416005 -0.005263446 0.020192107
-0.084876806 -0.038879838 -0.024180068 0.026123399 0.06392926 0.05688529 0.034563836 0.110943474
0.013230449 0.030606735 0.012260978 0.0382864 0.08717656 0.08446372 0.0776196 0.11976273
-0.07032005 -0.058976762 -0.038227547 0.038412645 -0.00465774 -0.010996668 0.0832882 -0.03063548
-0.02198043 -0.0018653019 -0.13778646 -0.13705152 0.15562937 -0.07728096 -0.23476718 0.08785724
-0.10535004 -0.15792532 0.097408205 -0.071086355 -0.22607343 0.068668716 -0.040772296 -0.15858862
0.13085254 0.0007412648 -0.10695852 -0.06587371 -0.02873988 -0.03782753 0.05768852 0.118105404
-0.015846483 0.04863167 0.11845075 0.027967254 0.025787396 -0.03788815 -0.2076606 0.18101533
00000000: 476f 1cbd d723 59bc ccd5 e73d aa60 f3bc
00000010: 4614 aebd fde5 c8bc 594a 39bc c974 82bd
00000020: 3ade 27bd ac18 ebbc 6b9d aa3b 4772 a4bc
00000030: 2fb0 973d 2eaa 133e 3f7c 053d 327b 7b3d
00000040: bf27 2abd 3005 26bd d45f b93d f83e c23d
00000050: f35b 473d 2345 40bd dfbf aebc b061 52bd
00000060: 1690 dbbd b40b eabd 7298 73bd 19d1 633c
00000070: 490a 6abd 2cd2 ab3b 5853 173c 24cb 01bd
00000080: 2e38 08bd acda d1bd 2f7b 393c 1d04 b53d
00000090: aa67 823d 8717 d7ba 3f59 b8bc e7dd 463d
000000a0: 9f6f fb3d 9f78 4e3d b6fc 6abc 0e2b f13a
000000b0: a76d efbc 71b4 b73d aee6 aa3d 189d bc3d
000000c0: 751d 823c 7765 a1bd 0f8e 72bd cb31 05bd
000000d0: adc2 8ebd 6834 eabc 6093 99bc 6959 8e3d
000000e0: 3660 d23d a54f a0bd 101a 21be 3135 c4bd
000000f0: ed17 e83d d81d 603d 76cd 33bd e1af c13d
00000100: 3c62 b2bc 7ff6 bdbb 8ac4 2d3d f5be a53d
00000110: 74a4 b83d 93fb ae3c 2844 ca3d dfb1 c03c
00000120: fda0 85bd abb6 8cbd 8016 c9bd c894 953d
00000130: 2ae4 c13d dade d13d 25e7 803d a9f2 cd3d
00000140: 5e9f b83d 9377 b1bc 327f d0bc 8e7f 3fbc
00000150: d371 f03d 427f 633e 7a44 113e 00eb 123c
00000160: cd1d 42bd b16e 41bc b6a9 80bc a3a3 dfbd
00000170: 1650 cebd 2e26 4d3c d0de 3dbd dd39 49bd
00000180: f762 e43d 8c04 2dbd 2bc2 05bc b2fe 793d
00000190: 180c c93c 64ef e33b 465d f03c 418e 673e
000001a0: 123c 373d 1598 923c 5e14 803c 0233 17bd
000001b0: 2d32 68bc 42fb b6bc 0ad0 783d 45ee 3f3e
000001c0: 3b6e 593e fbef 383e 5070 02be 7932 27be
000001d0: 37a5 0cbe 30ce 253d 4352 f73b f5fa b6bd
000001e0: 65aa 07ba 10bc 1a3e b5fb e03c b24e 7a3d
000001f0: 0e20 00bd f924 67bd e495 c93d 7885 6abb
00000200: 0681 8abd 251d 1a3d 95ca 833d f980 f83b
00000210: 1457 1bbc 3370 a93d 89fa bc3d 05d2 f33c
00000220: 3db7 8b3d 28f3 3a3d c99a e1bd 2d63 a0bd
00000230: 0874 363c 377e bf3c a32b 02be 4a8c d7bd
00000240: 22f3 303d dee1 c9bc 2b09 b13d e0d8 74bd
00000250: 1628 06be d408 dd3d 76aa 3ebd a648 443e
00000260: ee40 663e 41ef 96bd 18de d5bc d325 2b3d
00000270: 281d 553d b0b6 813d 585f 19bd 407d 5e3d
00000280: b444 7dbc 6f61 773b ca0e 763d b1dd 2abc
00000290: 5326 cebd e9d0 f33d e885 a1bc 56a7 063d
000002a0: 9a7b 0bbe 4d25 fcbd 001a 203d b4be 1b3c
000002b0: e0e9 4bbb f4e4 903c 583c 85bc 8870 773d
000002c0: 68f1 383d cc9c e93b 01bd a13d d563 0a3d
000002d0: b540 1ebc 55ec 083e 2d1d 3dbd 1704 f83d
000002e0: a8b1 553d 2f08 b4bd a8df fe3c a8ee 513d
000002f0: afac 3c3d b7d6 fd3d 799c c4bc 87bf febd
00000300: 6075 be3c 7ac5 673b 0b34 873d 8422 b6bd
00000310: f15f 9a3b 0357 323e fc78 acbb eb69 a53c
00000320: e4d3 adbd 7740 1fbd 4715 c6bc bd00 d63c
00000330: 58ed 823d 8d00 693d cf92 0d3d 5536 e33d
00000340: 86c4 583c faba fa3c 45e2 483c 33d2 1c3d
00000350: a089 b23d 51fb ac3d 06f7 9e3d 2a46 f53d
00000360: f503 90bd 9e91 71bd 7d94 1cbd 9456 1d3d
00000370: f49f 98bb 5e2b 34bc 0193 aa3d 42f7 fabc
00000380: 4e10 b4bc 257d f4ba e517 0dbe 3c57 0cbe
00000390: 4e5d 1f3e 7b45 9ebd cf66 70be 7fee b33d
000003a0: c3c1 d7bd 2db7 21be f47d c73d b995 91bd
000003b0: cb7f 67be 2fa2 8c3d da00 27bd 0e65 22be
000003c0: 35fe 053e 7051 423a 120d dbbd cce8 86bd
000003d0: e66f ebbc 0af1 1abd cc4a 6c3d 3fe1 f13d
000003e0: 7cd0 81bc 0132 473d 4f96 f23d 951b e53c
000003f0: 1740 d33c 9b30 1bbd fba4 54be 155c 393e

encoder.6.bias f4 [32]
-0.049394004 0.074756116 -0.021368293 0.16464432 0.019222088 -0.12599002 0.11919273 0.06099126
0.096732445 0.07042114 0.07245028 0.019966153 0.127784 -0.0076576998 -0.04841156 -0.034129463
0.064299166 -0.07120453 -0.037343837 -0.074453995 0.022439828 -0.12446719 0.018719241 -0.016330257
0.0109089585 0.017194891 -0.082910754 -0.07719724 0.014663176 -0.06078378 0.14580412 -0.13849652
00000000: 5e51 4abd bc19 993d 8f0c afbc 8598 283e
00000010: a477 9d3c 8703 01be 511b f43d f9d1 793d
00000020: a91b c63d f538 903d d060 943d 0f90 a33c
00000030: cfd9 023e 71ed fabb 334b 46bd 56cb 0bbd
00000040: 48af 833d aed3 91bd daf5 18bd 567b 98bd
00000050: bbd3 b73c a7e8 febd 1859 993c 08c7 85bc
00000060: 7dbb 323c 4ddc 8c3c 1dcd a9bd 9619 9ebd
00000070: d13d 703c 6af8 78bd ad4d 153e 08d2 0dbe

bottle_neck.0.conv_block.1.weight f4 [32, 32, 3, 3]
-0.086501315 0.06806542 -0.041124605 0.06201455 0.12843873 -0.01695254 0.08867212 0.056078967
0.06771378 -0.053215045 0.036123753 -0.004812118 0.04935828 0.07189145 0.041967183 -0.04624211
0.011133348 0.067814566 0.004174925 0.025635371 -0.22601037 0.053400815 0.0002127833 0.23255594
-0.03568793 0.09475101 -0.17524348 -0.078240186 0.10276679 0.039034743 0.1008755 -0.036744226
-0.057803754 0.13583793 0.020112028 0.011614659 -0.026951 0.025142804 -0.0013428745 -0.08762869
-0.114084505 0.03402848 -0.045314156 -0.058056246 0.08532951 -0.05323815 0.040640634 -0.11202349
-0.058230847 0.044484198 0.11715562 0.04655768 0.094280615 0.021148505 0.01586288 -0.034838777
0.022663679 -0.07735837 0.015709847 -0.07569013 -0.083012864 0.0086858515 -0.17051695 -0.12511751
0.07258335 -0.10071909 -0.051412363 -0.056828648 0.020239841 0.09871918 -0.033244245 0.10855845
0.039716605 -0.012093231 0.07933406 -0.11609029 0.1315597 -0.14755626 -0.020748204 0.009354328
0.032279745 -0.05828062 0.016511729 0.12556666 -0.10628473 -0.024657354 -0.16930766 -0.12858422
0.050083306 -0.063765034 -0.050514497 0.04926303 -0.10948067 -0.09597039 -0.042222697 -0.009013877
-0.079204716 -0.049943235 -0.13316499 -0.04932935 0.11699768 0.0019616266 0.05367332 0.017724251
-0.17183436 0.05096983 -0.076486886 0.07594077 -0.0056603034 0.009258126 -0.0327619 -0.05146506
0.008054488 0.042994455 0.0844197 0.09736432 0.08488898 -0.10565248 -0.035480194 -0.12536474
0.027992222 0.07110157 0.10599192 -0.046192653 -0.12557708 0.06817587 0.09984005 -0.009902767
-0.037203975 -0.014303189 0.13529591 0.072877385 0.01892037 0.03340425 0.009562653 0.049889192
-0.08318511 0.0684075 0.12244611 0.055274747 0.0344329 0.0039590723 -0.07218653 0.16930905
0.04817059 -0.020725861 -0.017151946 -0.09763296 0.015635742 -0.08595947 -0.0112384735 -0.016723756
0.03826319 -0.07050387 -0.062927075 0.061956737 0.09974989 -0.06662273 0.03481829 0.024229553
0.024764054 -0.043019723 -0.08092026 0.027924312 -0.051313948 -0.040833164 0.20395537 -0.047126334
0.063954376 0.051767733 0.01127585 0.1747145 0.010238533 0.0028225074 -0.11830833 0.1181742
-0.196616 -0.03814519 0.096157685 0.13741031 0.13879651 -0.10998937 -0.064089924 0.08155757
0.04584032 -0.06716652 -0.08395856 -0.04057674 -0.07754003 0.13141932 -0.036879234 0.08556033
0.1205532 0.062611096 -0.036844227 -0.029753093 0.064940766 0.0076092277 0.063867286 0.06420418
-0.08004251 -0.09501146 -0.041756112 -0.04561101 0.0075504384 0.11373997 0.076722585 0.08127738
-0.06707188 -0.014254499 -0.076805115 -0.030446012 -0.038064223 -0.060259793 -0.018075796 0.079312116
0.041651547 0.05450848 -0.07281538 0.051833518 0.12078135 0.09929484 0.071957335 0.039856352
0.07107178 -0.179651 0.070029095 0.0140939085 -0.07003186 0.2134507 -0.026392426 0.13082583
-0.0978288 0.013428355 0.019338371 0.080299 -0.05295252 -0.024054026 -0.12112329 0.094201185
-0.061325725 0.03441613 0.025596578 -0.13031349 0.040018145 -0.015578334 -0.021272052 -0.07355658
-0.031747274 0.04894272 0.02894367 -0.13072178 0.06959808 -0.04879353 -0.026956137 -0.09653528
00000000: 9a27 b1bd e265 8b3d 4672 28bd f802 7e3d
00000010: 7185 033e 0ee0 8abc ba99 b53d 0fb3 653d
00000020: 86ad 8a3d 05f8 59bd 80f6 133d f9ae 9dbb
00000030: e82b 4a3d d33b 933d c8e5 2b3d 5e68 3dbd
00000040: a568 363c 5de2 8a3d cfcd 883b 4501 d23c
00000050: 436f 67be d0ba 5a3d 951e 5f39 2523 6e3e
00000060: 822d 12bd d10c c23d 0773 33be 643c a0bd
00000070: 6577 d23d e5e2 1f3d d097 ce3d 1d81 16bd
00000080: a1c3 6cbd 1919 0b3e fbc1 a43c 694b 3e3c
00000090: 58c8 dcbc 48f8 cd3c 6403 b0ba ac76 b3bd
000000a0: 23a5 e9bd 7361 0b3d 569b 39bd 63cc 6dbd
000000b0: 3dc1 ae3d 3f10 5abd cb76 263d 926c e5bd
000000c0: 7883 6ebd 1035 363d 49ef ef3d 44b3 3e3d
000000d0: 3216 c13d a13f ad3c dff2 813c 1bb3 0ebd
000000e0: 2ea9 b93c 116e 9ebd f0b1 803c 6d03 9bbd
000000f0: a602 aabd 1a4f 0e3c ff9b 2ebe ce1e 00be
00000100: 94a6 943d cf45 cebd c595 52bd 28c5 68bd
00000110: 06ce a53c 482d ca3d 1e2b 08bd e553 de3d
00000120: e1ad 223d b022 46bc e579 a23d bfc0 edbd
00000130: 96b7 063e fd18 17be 23f8 a9bc e542 193c
00000140: c437 043d a9b7 6ebd 9b43 873c 8c94 003e
00000150: cfab d9bd 38fe c9bc fd5e 2dbe 95ab 03be
00000160: 2724 4d3d 3e97 82bd 4ae8 4ebd 08c8 493d
00000170: 6737 e0bd 208c c4bd b5f1 2cbd f1ae 13bc
00000180: 1536 a2bd 4791 4cbd 675c 08be 930d 4abd
00000190: 7b9c ef3d a28e 003b 8ed8 5b3d 7332 913c
000001a0: 59f5 2fbe bec5 503d 28a5 9cbd d686 9b3d
000001b0: 117a b9bb 65af 173c 5831 06bd 07cd 52bd
000001c0: f9f6 033c f41a 303d 3ce4 ac3d f266 c73d
000001d0: 46da ad3d 5460 d8bd ae53 11bd 9d5f 00be
000001e0: f24f e53c b39d 913d 4b12 d93d 8234 3dbd
000001f0: 4797 00be ca9f 8b3d f178 cc3d 373f 22bc
00000200: 3263 18bd ec57 6abc 038b 0a3e bd40 953d
00000210: e4fe 9a3c e5d2 083d acac 1c3c 9c58 4c3d
00000220: f45c aabd 3b19 8c3d 07c5 fa3d c667 623d
00000230: 8309 0d3d 1bbb 813b 88d6 93bd 5a5f 2d3e
00000240: 864e 453d 48c9 a9bc 3d82 8cbc caf3 c7bd
00000250: 8716 803c 850b b0bd 9321 38bc 4200 89bc
00000260: ddb9 1c3d 5564 90bd e9df 80bd 59c6 7d3d
00000270: ac49 cc3d 7f71 88bd a09d 0e3d 0e7d c63c
00000280: fcdd ca3c 7335 30bd 85b9 a5bd 87c1 e43c
00000290: 932e 52bd ad40 27bd add9 503e 8b07 41bd
000002a0: 83fa 823d 670a 543d 58be 383c 5ce8 323e
000002b0: 85bf 273c d1f9 383b a34b f2bd 5105 f23d
000002c0: b455 49be 213e 1cbd 52ee c43d 4ab5 0c3e
000002d0: ac20 0e3e 1b42 e1bd 9441 83bd a807 a73d
000002e0: 0fc3 3b3d 9a8e 89bd 77f2 abbd cc33 26bd
000002f0: 4fcd 9ebd c992 063e ae0e 17bd 413a af3d
00000300: 99e4 f63d 3f3a 803d f9e9 16bd c2bc f3bc
00000310: aaff 843d d456 f93b dacc 823d 7b7d 833d
00000320: 54ed a3bd 5e95 c2bd 7508 2bbd 9cd2 3abd
00000330: ab69 f73b 80f0 e83d bb20 9d3d c174 a63d
00000340: fb5c 89bd b48b 69bc 004c 9dbd ea69 f9bc
00000350: 3be9 1bbd f9d2 76bd b113 94bc 646e a23d
00000360: d09a 2a3d 4944 5f3d 3b20 95bd 624f 543d
00000370: 365c f73d 185b cb3d 5e5e 933d 6a40 233d
00000380: 158e 913d 6ff6 37be 6a6b 8f3d 23ea 663c
00000390: dd6c 8fbd d292 5a3e ee34 d8bc 35f7 053e
000003a0: 775a c8bd 9a02 5c3c 816b 9e3c cd73 a43d
000003b0: bee4 58bd f30c c5bc 7d0f f8bd 8dec c03d
000003c0: af30 7bbd eef7 0c3d eaaf d13c e670 05be
000003d0: 11ea 233d 453c 7fbc ba42 aebc d5a4 96bd
000003e0: 6e09 02bd 2978 483d 471b ed3c eedb 05be
000003f0: 7089 8e3d b9db 47bd 1ed3 dcbc 4ab4 c5bd

bottle_neck.0.conv_block.2.weight f4 [32]
1.0473826 0.86839426 1.0159069 0.93230504 0.9478314 1.0148787 0.9720375 1.0537466
1.1114881 0.9862511 1.0502653 1.0601356 1.1813225 1.0217779 0.8414572 1.0365126
0.9604869 0.9937152 1.0998954 1.0430512 0.8468952 1.1368123 0.92526984 0.8054639
1.0311835 0.97964364 1.181565 0.91999674 0.9767155 0.93729603 0.8991112 0.9990113
00000000: a210 863f 164f 5e3f 3d09 823f 8bab 6e3f
00000010: 14a5 723f 8ce7 813f 73d7 783f 2be1 863f
00000020: 3e45 8e3f f47a 7c3f 186f 863f 86b2 873f
00000030: 9335 973f 9ec9 823f bd69 573f 72ac 843f
00000040: 78e2 753f 1f64 7e3f 5fc9 8c3f b482 853f
00000050: 20ce 583f 1183 913f 7cde 6c3f e232 4e3f
00000060: d2fd 833f edc9 7a3f 863d 973f e884 6b3f
00000070: 070a 7a3f a2f2 6f3f 272c 663f 34bf 7f3f

bottle_neck.0.conv_block.2.bias f4 [32]
0.14387996 -0.13283327 -0.09427928 -0.09925357 -0.01151899 -0.072003506 -0.0484917 0.06655809
0.03388249 -0.022083983 -0.044561468 -0.0038777285 0.052476726 0.15189248 -0.072968155 -0.009802977
-0.06976518 -0.052011635 -0.12084466 -0.054924607 -0.16453272 0.13433085 0.018209225 -0.117651634
0.044204414 -0.046188813 0.08372499 -0.045801565 -0.18504596 -0.00010373202 -0.09503361 -0.15283778
00000000: 4555 133e 7205 08be 7f15 c1bd 7545 cbbd
00000010: 25ba 3cbc 9376 93bd 3c9f 46bd 9c4f 883d
00000020: 5ec8 0a3d 78e9 b4bc 1686 36bd 7d21 7ebb
00000030: d6f1 563d b489 1b3e 5470 95bd aa9c 20bc
00000040: 0ce1 8ebd 270a 55bd 687d f7bd a0f8 60bd
00000050: 447b 28be 078e 093e 832b 953c 57f3 f0bd
00000060: b00f 353d 7b30 3dbd 0278 ab3d 6c9a 3bbd
00000070: b07c 3dbe b48a d9b8 fba0 c2bd 8281 1cbe

bottle_neck.0.conv_block.2.running_mean f4 [32]
0.41633675 -1.4613615 -0.2418895 1.6207136 1.0825698 0.40001968 0.64634633 -1.5925698
0.32465017 0.7998109 -0.158811 0.21092144 -0.27933717 -0.51104844 -0.51274973 0.67448103
-0.15973726 -0.0014204627 0.3555574 -0.051353607 -0.69267344 1.0188818 -0.87733865 1.1345022
0.0854711 0.1866645 -1.6145837 -0.5946317 1.214971 -1.5153477 -0.34028515 0.99988574
00000000: 172a d53e e50d bbbf e2b1 77be 8b73 cf3f
00000010: a691 8a3f 61cf cc3e f476 253f 54d9 cbbf
00000020: 8c38 a63e 68c0 4c3f 5a9f 22be cafb 573e
00000030: 4805 8fbe 12d4 02bf 9143 03bf caaa 2c3f
00000040: 2a92 23be d22e baba 9f0b b63e 2958 52bd
00000050: 0c53 31bf b86a 823f 4499 60bf 5e37 913f
00000060: 790b af3d fb24 3f3e aeaa cebf c839 18bf
00000070: 2b84 9b3f eaf6 c1bf db39 aebe 83f8 7f3f

bottle_neck.0.conv_block.2.running_var f4 [32]
2.3129575 1.964665 2.1951258 2.2095745 2.1220005 2.3789434 2.2881594 1.8817588
2.9800553 2.835823 2.1196253 2.8420823 2.3109918 2.5887043 2.2834249 2.4019563
1.9617612 1.9050283 2.4261658 2.4571106 2.3255284 3.1915514 2.1806118 2.9140859
2.460494 2.2224376 1.9391221 2.6434314 2.4835994 1.89075 2.1774275 2.1819284
00000000: 7f07 1440 257a fb3f f17c 0c40 ab69 0d40
00000010: dbce 0740 9c40 1840 3471 1240 79dd f03f
00000020: 3ab9 3e40 207e 3540 f1a7 0740 ade4 3540
00000030: 4ae7 1340 55ad 2540 a223 1240 a7b9 1940
00000040: fe1a fb3f f8d7 f33f 4d46 1b40 4d41 1d40
00000050: 75d5 1440 6142 4c40 258f 0b40 6280 3a40
00000060: bc78 1d40 6b3c 0e40 2735 f83f fb2d 2940
00000070: 4bf3 1e40 1904 f23f f95a 0b40 b7a4 0b40

bottle_neck.0.conv_block.5.weight f4 [32, 32, 3, 3]
-0.020449981 0.1193953 -0.04387451 -0.008791654 0.08942804 -0.056581415 -0.08466563 0.0876333
-0.032431446 0.079445004 -0.02541825 0.026742635 -0.068501934 -0.031922277 -0.06795674 0.1037768
0.016487109 0.09326089 0.059767112 -0.037398227 0.019185154 0.0143274665 0.06902332 0.028145622
-0.060147323 0.007796394 0.018843137 0.122110605 0.040005937 0.06654602 -0.038106494 -0.11712263
-0.02777078 0.018413613 0.062063545 0.14212431 0.19337925 0.046411227 0.07699588 -0.1366178
-0.06358152 0.06055624 0.058095332 0.008344417 0.05525299 -0.07635605 0.089507826 0.040506367
-0.03599272 0.03356621 -0.12821548 -0.074497335 0.011433572 0.064028464 0.010998548 0.004524597
-0.10102106 -0.09553898 -0.21387336 -0.10099715 -0.026849816 -0.06564456 -0.02297434 -0.05506604
-0.024522003 0.017687203 0.109018564 0.08326805 0.015903464 -0.036217194 0.00018819325 -0.013526238
0.04254177 -0.11831942 0.015797641 0.05096175 -0.103427276 0.07459896 0.04109341 -0.11840284
-0.10810816 0.09929762 0.09886994 0.07110242 -0.08902813 0.019219913 -0.045249693 0.094107926
0.08487454 0.119674064 -0.03856811 -0.07968462 0.073358096 0.12776032 -0.12751889 -0.039866213
0.06941453 0.0069007548 0.16243294 -0.020724006 -0.05978511 0.009254747 0.02742978 0.060366
0.091588005 0.03800039 -0.0474134 -0.021504113 -0.04247976 -0.036577273 0.0079745 0.070220806
0.04614851 -0.018451646 -0.10726919 -0.21258935 -0.01939076 -0.061005585 -0.05824655 -0.15649985
-0.0023115333 -0.16529568 0.06658729 -0.008273046 0.027165351 0.022129865 0.03302478 0.015253452
-0.091134995 -0.034402836 0.09349324 -0.040450066 -0.013349812 0.05722548 0.05671552 -0.103215374
0.062020727 -0.06842312 -0.015798248 -0.10127278 -0.05468562 0.08094839 0.021125061 0.07005774
-0.004623168 0.13134506 0.053774595 -0.14223683 0.056645487 -0.13542232 -0.054155026 -0.011633231
0.009828548 0.010140784 -0.12607728 0.069853015 -0.06303216 0.040485576 -0.040631063 -0.049631815
-0.04688433 -0.08203332 0.0016346696 0.03902827 -0.096864894 -0.06747152 -0.06968606 0.04946785
0.08355214 -0.13107848 -0.017557476 -0.069544815 0.032908004 -0.07540571 -0.09770719 -0.11124117
-0.21811873 -0.023939177 -0.072297625 0.120963775 0.07550002 -0.05761462 0.02800251 0.05910003
0.11314852 0.091555834 -0.054267816 -0.056273516 -0.117840216 0.11094959 -0.07568794 -0.08252586
-0.02830667 -0.026820624 -0.0054763313 0.021017274 -0.09206965 -0.06434222 0.076345146 -0.053177822
0.110737614 -0.033678956 0.0014492593 -0.018159684 -0.015592625 -0.05131667 -0.084787965 0.0953881
-0.04721525 0.04629574 0.021244934 -0.069164924 -0.07113276 0.054242376 -0.018793577 2.155307e-05
0.023965947 0.040036917 -0.06668736 -0.03171867 -0.09517056 -0.07250019 -0.10584205 0.07248477
-0.010269053 0.14974 0.042503137 0.14194702 -0.14454077 -0.10087476 -0.009335264 0.1038452
-0.04393589 0.124398924 -0.015469026 0.0382479 0.050715934 0.037532106 -0.056197375 -0.06546356
0.12443123 -0.13964559 0.036658645 0.027327558 0.09890405 -0.03618619 0.023097586 -0.039982516
-0.027585072 -0.0899463 0.0033349765 -0.05179239 0.025773121 -0.028146392 0.102285795 0.013751196
00000000: b886 a7bc 8685 f43d c2b5 33bd df0a 10bc
00000010: 0c26 b73d eac1 67bd 2c65 adbd 1679 b33d
00000020: d6d6 04bd 10b4 a23d ef39 d0bc 5f13 db3c
00000030: be4a 8cbd efc0 02bd e72c 8bbd ee88 d43d
00000040: f90f 873c 91ff be3d 5cce 743d e22e 19bd
00000050: 2f2a 9d3c c0bd 6a3c 195c 8d3d a691 e63c
00000060: 0a5d 76bd e578 ff3b ec5c 9a3c 2015 fa3d
00000070: 44dd 233d 4849 883d 8e15 1cbd fddd efbd
00000080: 8c7f e3bc 25d8 963c 5836 7e3d 0989 113e
00000090: 3605 463e b319 3e3d 04b0 9d3d 89e5 0bbe
000000a0: 0737 82bd d209 783d 5ff5 6d3d 06b7 083c
000000b0: f650 623d 9060 9cbd e14f b73d 01ea 253d
000000c0: 1a6d 13bd b97c 093d eb4a 03be 0f92 98bd
000000d0: e053 3b3c 5b21 833d 4133 343c 1243 943b
000000e0: 21e4 cebd f1a9 c3bd 9e01 5bbe 98d7 cebd
000000f0: 25f4 dbbc a870 86bd af34 bcbc ee8c 61bd
00000100: 5ee2 c8bc c1e4 903c 2045 df3d 7088 aa3d
00000110: fb47 823c 7b58 14bd be55 4539 279d 5dbc
00000120: 4740 2e3d 7451 f2bd 0e6a 813c 45bd 503d
00000130: aed1 d3bd 57c7 983d 9051 283d 307d f2bd
00000140: d067 ddbd 8d5c cb3d 537c ca3d 259e 913d
00000150: 6154 b6bd 1473 9d3c be57 39bd a8bb c03d
00000160: b4d2 ad3d ad17 f53d 98f9 1dbd b131 a3bd
00000170: c53c 963d 9ad3 023e 5094 02be c14a 23bd
00000180: 3529 8e3d ba1f e23b d254 263e 64c5 a9bc
00000190: 3be1 74bd 39a1 173c 6bb4 e03c 5742 773d
000001a0: 7e92 bb3d 4ca6 1b3d 8e34 42bd 6529 b0bc
000001b0: 42ff 2dbd 0dd2 15bd 7aa7 023c edcf 8f3d
000001c0: 3806 3d3d e827 97bc f3af dbbd 06b1 59be
000001d0: 5fd9 9ebc fee0 79bd ef93 6ebd 7f41 20be
000001e0: 187d 17bb 4543 29be eb5e 883d ac8b 07bc
000001f0: df89 de3c b149 b53c fe44 073d 9de9 793c
00000200: fca4 babd fde9 0cbd 6279 bf3d f8ae 25bd
00000210: 2bb9 5abc 4465 6a3d 884e 683d 9562 d3bd
00000220: 7209 7e3d 6c21 8cbd 546b 81bc 1a68 cfbd
00000230: 07fe 5fbd 45c8 a53d 770e ad3c 6f7a 8f3d
00000240: f27d 97bb 527f 063e c042 5c3d 88a6 11be
00000250: 1905 683d 26ac 0abe a9d1 5dbd 4f99 3ebc
00000260: eb07 213c 8825 263c 671a 01be 190f 8f3d
00000270: 0117 81bd 34d4 253d c26c 26bd bb4a 4bbd
00000280: c909 40bd 1601 a8bd 6942 d63a 1bdc 1f3d
00000290: 1a61 c6bd 822e 8abd 91b7 8ebd cd9e 4a3d
000002a0: 621d ab3d 7039 06be b2d4 8fbc 836d 8ebd
000002b0: 8bca 063d 4f6e 9abd b51a c8bd 69d2 e3bd
000002c0: 845a 5fbe 181c c4bc c710 94bd dbbb f73d
000002d0: c19f 9a3d 4ffd 6bbd 8565 e53c e012 723d
000002e0: 69ba e73d a081 bb3d ee47 5ebd 0f7f 66bd
000002f0: 3656 f1bd 8a39 e33d 4702 9bbd 5103 a9bd
00000300: 64e3 e7bc edb6 dbbc cc72 b3bb 6b2c ac3c
00000310: 038f bcbd dbc5 83bd d85a 9c3d fdd0 59bd
00000320: 67ca e23d f2f2 09bd 13f5 bd3a 9ec3 94bc
00000330: 3678 7fbc 6e31 52bd 50a5 adbd d65a c33d
00000340: c764 41bd 9aa0 3d3d db09 ae3c 57a6 8dbd
00000350: 0dae 91bd 412d 5e3d fdf4 99bc decc b437
00000360: 3c54 c43c c0fd 233d 6293 88bd 70eb 01bd
00000370: c8e8 c2bd fb7a 94bd b7c3 d8bd e572 943d
00000380: 883f 28bc 7155 193e c517 2e3d 8f5a 113e
00000390: 7f02 14be 6d97 cebd eff2 18bc cbac d43d
000003a0: 1ff6 33bd ddc4 fe3d cc71 7dbc d4a9 1c3d
000003b0: 83bb 4f3d 44bb 193d 382f 66bd c211 86bd
000003c0: cdd5 fe3d 41ff 0ebe 6027 163d 0bde df3c
000003d0: 358e ca3d f837 14bd 2637 bd3c b5c4 23bd
000003e0: 17fa e1bc c435 b8bd 9f8f 5a3b 4224 54bd
000003f0: 2722 d33c 4393 e6bc 377b d13d b24c 613c

bottle_neck.0.conv_block.6.weight f4 [32]
0.9735866 0.9669138 0.86133045 0.9086143 0.95326555 0.92115027 0.9750911 1.1674734
0.9094751 0.9191619 0.95328146 0.98831785 0.9255652 1.0640631 0.9356227 0.94184285
0.8971148 0.9769623 0.93606555 0.86146885 0.9253037 1.0207331 1.136842 1.007466
0.84637576 0.89597267 0.84419775 1.0339582 0.96419203 1.019553 0.99164104 1.0331675
00000000: f93c 793f aa87 773f 2780 5c3f f29a 683f
00000010: 3609 743f 81d0 6b3f 929f 793f c56f 953f
00000020: 5cd3 683f 324e 6b3f 410a 743f 6602 7d3f
00000030: d7f1 6c3f 3833 883f f884 6f3f 9d1c 713f
00000040: 51a9 653f 341a 7a3f fea1 6f3f 3989 5c3f
00000050: b4e0 6c3f 62a7 823f 0a84 913f a5f4 803f
00000060: 15ac 583f 775e 653f 581d 583f be58 843f
00000070: 4ad5 763f b680 823f 30dc 7d3f d53e 843f

bottle_neck.0.conv_block.6.bias f4 [32]
0.051767047 -0.03255148 0.00068452675 0.0843827 0.034730878 0.011439599 0.041051194 -0.059209492
-0.0017006078 0.056738045 -0.05884304 0.079287 0.11975288 -0.12988622 0.054340333 0.103777684
0.11107723 -0.09334098 0.09208789 0.029489825 0.025325764 -0.07559066 0.11607463 0.02312042
0.0096622445 0.004928343 -0.0799818 0.02528786 -0.06384211 -0.159672 -0.16819136 -0.0022953777
00000000: af09 543d b354 05bd d071 333a d6d0 ac3d
00000010: f741 0e3d 286d 3b3c 4c25 283d a785 72bd
00000020: eee6 deba 2766 683d 6605 71bd 3961 a23d
00000030: ff40 f53d e500 05be f893 5e3d 6589 d43d
00000040: 757c e33d 8e29 bfbd 9398 bc3d a594 f13c
00000050: fa77 cf3c 47cf 9abd 89b8 ed3d 0967 bd3c
00000060: 644e 1e3c f07d a13b 7fcd a3bd 7c28 cf3c
00000070: a7bf 82bd 0f81 23be 5b3a 2cbe 0c6e 16bb

bottle_neck.0.conv_block.6.running_mean f4 [32]
-0.4097526 1.4165984 1.159206 -0.8923481 2.3095713 0.51967067 -0.4787388 0.32421112
1.0552132 -1.2674279 -0.703001 -0.28542063 0.13255769 -0.13123691 0.19205299 1.1395633
-0.29435587 -1.5127534 1.7989155 0.05010886 -0.31847394 -0.21178305 0.76865965 1.3829422
1.3033344 -1.2268986 1.867158 -1.2668742 2.1554358 -0.93466276 1.7928767 0.4680698
00000000: 18cb d1be 1953 b53f dd60 943f ed70 64bf
00000010: 04d0 1340 2309 053f 411d f5be 00ff a53e
00000020: 3a11 873f 143b a2bf e0f7 33bf a722 92be
00000030: 34bd 073e f862 06be 8aa9 443e 36dd 913f
00000040: d0b5 96be e7a1 c1bf dd42 e63f f33e 4d3d
00000050: 040f a3be a8dd 58be e1c6 443f 4004 b13f
00000060: a9d3 a63f 030b 9dbf 09ff ee3f ef28 a2bf
00000070: a9f2 0940 0f46 6fbf fc7c e53f d8a6 ef3e

bottle_neck.0.conv_block.6.running_var f4 [32]
3.7034717 1.8440363 3.346422 3.5098403 2.4768546 3.3887486 3.3940032 2.0438664
3.676497 3.5908165 2.0770643 3.792257 2.0473664 2.8516448 2.5387971 2.1147666
2.3207643 2.5679896 2.284232 3.5250907 2.0773177 1.8347013 2.4421165 2.0664017
2.18724 2.72788 1.8058234 4.142651 2.6114345 2.5981796 3.0200024 2.2497306
00000000: ae05 6d40 6209 ec3f c72b 5640 39a1 6040
00000010: c984 1e40 42e1 5840 5937 5940 b5ce 0240
00000020: ba4b 6b40 f0cf 6540 9fee 0440 57b4 7240
00000030: 0d08 0340 5981 3640 a77b 2240 5658 0740
00000040: 6787 1440 f159 2440 db30 1240 169b 6140
00000050: c6f2 0440 7ed7 ea3f a34b 1c40 ed3f 0440
00000060: bdfb 0b40 9695 2e40 3925 e73f 9990 8440
00000070: be21 2740 9348 2640 b847 4140 96fb 0f40

bottle_neck.1.conv_block.1.weight f4 [32, 32, 3, 3]
0.019567408 -0.073827036 0.016230095 0.029740117 -0.0073068254 0.09269285 -0.11501861 -0.04819448
-0.017033681 -0.068624645 -0.02748876 -0.044859003 -0.0056978986 0.04787205 -0.06458703 0.06705186
-0.03906958 0.011763088 0.017169628 -0.036664225 0.06206663 0.09127255 -0.08731319 0.02902043
-0.09115374 -0.031491976 -0.050063305 -0.20724358 -0.13281377 -0.04550881 0.018596435 0.057035223
-0.07430023 -0.04817327 0.002204066 0.0034018 -0.07446869 0.040016957 0.009812174 -0.013238154
0.041543484 -0.045504432 0.17572257 -0.036955297 -0.040217683 0.021072451 0.0064546964 -0.010952795
0.04625807 -0.014829291 -0.0039205663 0.007223998 -0.028597586 -0.03141393 0.105466716 -0.011616564
0.02171712 0.07868099 -0.09510776 0.038014013 -0.013368799 -0.13163702 -0.015557828 -0.048882082
0.07130504 0.044197556 -0.123165146 0.17875442 -0.061457004 -0.007200138 0.10765318 0.047923643
-0.100443855 0.009058131 -0.13587327 0.027975842 -0.0060876026 -0.0905487 0.07460168 0.019759972
0.026237918 -0.052735128 -0.09201796 -0.058158077 0.061159376 -0.04487246 -0.024409106 -0.009571248
0.019840423 0.028292071 -0.03462964 -0.067984655 0.057305455 -0.06554764 0.12529829 -0.01389778
0.060068734 -0.0025466955 0.022569567 -0.065562114 -0.09626087 -0.07105845 -0.0032937136 0.011757334
-0.07252555 -0.06454404 0.06936555 0.0106345005 -0.014084711 0.1218845 -0.013352199 0.121687576
0.041027922 -0.05908384 0.1854395 0.013785498 0.0295075 -0.055313755 -0.00016455908 0.016338922
-0.06459511 0.099080525 -0.018923393 0.03662195 0.038450953 -0.020429527 -0.066783994 -0.062036235
-0.111615345 -0.017256793 -0.011711232 -0.03635386 -0.03629708 -0.055359323 -0.077565074 0.08388349
0.11716689 0.046209484 -0.03150801 -0.016666181 0.10238754 0.03700482 -0.051800378 -0.011272238
0.047755886 0.021465335 0.1949525 -0.032271706 -0.031315513 0.108117424 -0.08291075 0.07926668
0.058029074 0.031804666 0.05659462 0.08549572 -0.020792147 0.07668976 0.01099348 -0.120254405
-0.00094202376 -0.07142452 0.052181557 -0.07565133 -0.11013736 0.06929522 -0.05401978 0.026017087
-0.030680593 0.013940802 0.075032726 0.034565017 -0.084221125 -0.04528337 0.0697453 -0.010421793
0.046147097 -0.021247549 -0.009270496 0.038086746 -0.028131023 0.084848225 -0.039183985 -0.024064606
-0.061775427 -0.016651511 -0.09643801 -0.048600413 0.038384523 0.08044194 0.01173949 0.15020213
-0.032487974 -0.10363557 0.09074719 -0.050014045 -0.06797693 0.0074038864 -0.08690583 -0.06057369
-0.06568173 -0.0018781786 0.14769258 0.0072765383 0.04665483 0.09319222 0.014733522 0.064316235
0.056023475 0.066412576 0.06293891 -0.03791819 0.02333809 0.10118766 0.021983474 0.05731532
-0.12071802 -0.022622721 -0.063279495 -0.04464714 0.032380372 -0.11582525 0.006880914 -0.08950128
-0.058057345 0.14049685 0.025246179 0.19629401 0.02474865 0.02706146 0.03983665 -0.10392421
-0.006595912 0.06342783 0.035552252 0.06963271 0.069745876 -0.024930025 0.0073696803 0.06743422
0.15353651 0.07842427 0.030832127 0.014572902 -0.027963364 -0.020585282 0.019132411 0.020589948
0.0017202141 -0.015832013 0.03972935 0.006863823 -0.03859522 -0.011324347 0.017077638 -0.00027254314
00000000: d44b a03c a132 97bd faf4 843c 8ca1 f33c
00000010: 186e efbb c0d5 bd3d e18e ebbd 9367 45bd
00000020: 388a 8bbc 148b 8cbd 1c30 e1bc 13be 37bd
00000030: 70b5 babb 7c15 443d 3446 84bd 7c52 893d
00000040: 6d07 20bd f8b9 403c 52a7 8c3c 3a2d 16bd
00000050: 9439 7e3d 1aed ba3d 42d1 b2bd 41bc ed3c
00000060: d0ae babd bbfd 00bd 2e0f 4dbd a937 54be
00000070: 5500 08be 7267 3abd 8d57 983c c49d 693d
00000080: b82a 98bd 5651 45bd 1772 103b bcf0 5e3b
00000090: 0a83 98bd d2e8 233d 3ec3 203c d8e4 58bc
000000a0: 8029 2a3d db62 3abd 9ef0 333e 705e 17bd
000000b0: 4cbb 24bd 22a0 ac3c eb81 d33b 5a73 33bc
000000c0: 1a79 3d3d 8ef6 72bc 1878 80bb 4ab7 ec3b
000000d0: 7c45 eabc e5ab 00bd effe d73d 6753 3ebc
000000e0: 1ae8 b13c 8023 a13d dbc7 c2bd 95b4 1b3d
000000f0: cf08 5bbc dbcb 06be 43e6 7ebc 9438 48bd
00000100: 6008 923d 7f08 353d 023e fcbd 660b 373e
00000110: 57ba 7bbd 23ef ebbb 4579 dc3d 954b 443d
00000120: 82b5 cdbd 8e68 143c 5d22 0bbe 982d e53c
00000130: 837a c7bb 9971 b9bd c4c8 983d aadf a13c
00000140: e7f0 d63c ca00 58bd ea73 bcbd 2a37 6ebd
00000150: 4182 7a3d 2fcc 37bd 9bf5 c7bc b9d0 1cbc
00000160: 6288 a23c c6c4 e73c cfd7 0dbd 8a3b 8bbd
00000170: 20b9 6a3d d73d 86bd 324e 003e 84b3 63bc
00000180: a20a 763d 76e6 26bb d0e3 b83c 6e45 86bd
00000190: 6b24 c5bd 1887 91bd 58db 57bb d5a1 403c
000001a0: 4788 94bd aa2f 84bd 870f 8e3d 543c 2e3c
000001b0: 8fc3 66bc 959e f93d 2fc3 5abc 5637 f93d
000001c0: e50c 283d e601 72bd dae3 3d3e 92dc 613c
000001d0: b6b9 f13c ad90 62bd 7e8d 2cb9 34d9 853c
000001e0: 714a 84bd bbea ca3d 3b05 9bbc e600 163d
000001f0: bf7e 1d3d d35b a7bc 0cc6 88bd b519 7ebd
00000200: 9696 e4bd 1e5e 8dbc 78e0 3fbc c9e7 14bd
00000210: 3fac 14bd 75c0 62bd 70da 9ebd 1bcb ab3d
00000220: 32f5 ef3d 2846 3d3d 8b0e 01bd 8487 88bc
00000230: 8fb0 d13d 5e92 173d a22c 54bd 31af 38bc
00000240: ad9b 433d 12d8 af3c a1a1 473e 562f 04bd
00000250: b244 00bd ab6c dd3d 1ccd a9bd 9256 a23d
00000260: e5af 6d3d 9c45 023d c3cf 673d 6118 af3d
00000270: 4b54 aabc 850f 9d3d ff1d 343c f147 f6bd
00000280: 25f2 76ba 0547 92bd 54bc 553d 16ef 9abd
00000290: b28f e1bd a7ea 8d3d d843 5dbd c921 d53c
000002a0: de55 fbbc f667 643c c2aa 993d 0c94 0d3d
000002b0: 207c acbd 0e7b 39bd a0d6 8e3d 2bc0 2abc
000002c0: bd04 3d3d 570f aebc 47e3 17bc d900 1c3d
000002d0: 0873 e6bc e8c4 ad3d 637f 20bd 2323 c5bc
000002e0: 3b08 7dbd c068 88bc 4b81 c5bd 3a11 47bd
000002f0: 1739 1d3d bebe a43d fd56 403c 96ce 193e
00000300: 1c12 05bd e33e d4bd aad9 b93d 87db 4cbd
00000310: 7d37 8bbd 4d9c f23b affb b1bd 1e1c 78bd
00000320: 2584 86bd 372d f6ba b93c 173e 0770 ee3b
00000330: 2319 3f3d 90db be3d df64 713c 3bb8 833d
00000340: df78 653d 5103 883d 1ee6 803d 1b50 1bbd
00000350: 862f bf3c 7a3b cf3d b016 b43c 78c3 6a3d
00000360: 023b f7bd 4953 b9bc ae98 81bd ebdf 36bd
00000370: 48a1 043d ca35 edbd 4a79 e13b 724c b7bd
00000380: 8acd 6dbd 68de 0f3e 13d1 ce3c 4c01 493e
00000390: aebd ca3c ffaf dd3c c12b 233d 37d6 d4bd
000003a0: 8522 d8bb 73e6 813d 3d9f 113d 989b 8e3d
000003b0: edd6 8e3d 0d3a ccbc 5c7d f13b f41a 8a3d
000003c0: ad38 1d3e e79c a03d a893 fc3c 2ec3 6e3c
000003d0: 6d13 e5bc 77a2 a8bc 93bb 9c3c 40ac a83c
000003e0: cf78 e13a 23b2 81bc 3ebb 223d ece9 e03b
000003f0: 0516 1ebd c189 39bc 67e6 8b3c 1fe4 8eb9

bottle_neck.1.conv_block.2.weight f4 [32]
0.9909299 1.0058513 1.1914268 0.9692511 1.1810427 0.9278043 0.92398506 0.9963976
1.0025848 0.8078131 0.9055128 1.053477 0.90844196 1.0885969 1.019967 1.0515436
1.0850403 0.9561148 1.0032761 1.076979 1.0096549 0.88385266 1.0335141 1.0178144
1.066162 1.0159512 1.0725611 1.0984801 1.0274116 0.8836867 1.0416853 0.9249692
00000000: 95ad 7d3f bcbf 803f ac80 983f d720 783f
00000010: 682c 973f 9584 6d3f 498a 6c3f ea13 7f3f
00000020: b354 803f d7cc 4e3f b0cf 673f 56d8 863f
00000030: a78f 683f 2557 8b3f 478e 823f fb98 863f
00000040: 9ae2 8a3f f1c3 743f 5a6b 803f 73da 893f
00000050: 5f3c 813f 2b44 623f 314a 843f be47 823f
00000060: ff77 883f b00a 823f af49 893f ff9a 8c3f
00000070: 3982 833f 4b39 623f f255 853f c8ca 6c3f

bottle_neck.1.conv_block.2.bias f4 [32]
-0.09833764 -0.0760403 -0.03760469 -0.047888577 0.060115244 -0.07480501 -0.059952013 -0.09505629
-0.19377196 -0.1759206 -0.18912905 -0.06114382 -0.08878609 -0.10050284 -0.06431671 -0.005136019
-0.087223366 -0.09295581 -0.044770967 -0.13292375 -0.12648489 -0.12857093 -0.111429155 -0.05904177
-0.18060274 -0.07436195 -0.06416438 -0.15137236 -0.11076519 -0.22056618 -0.18941474 -0.2041052
00000000: 3f65 c9bd 04bb 9bbd 6007 1abd d026 44bd
00000010: 673b 763d 5e33 99bd 3e90 75bd dfac c2bd
00000020: 286c 46be 8824 34be 0cab 41be f171 7abd
00000030: 7bd5 b5bd 6fd4 cdbd 7bb8 83bd 0d4c a8bb
00000040: 2aa2 b2bd 9e5f bebd c361 37bd 2a1d 08be
00000050: 4185 01be 19a8 03be f834 e4bd c8d5 71bd
00000060: edef 38be 144b 98bd 9d68 83bd 5b01 1bbe
00000070: dcd8 e2bd 1adc 61be f0f5 41be f400 51be

bottle_neck.1.conv_block.2.running_mean f4 [32]
-0.4219255 0.437442 1.5377498 0.5608397 -0.17130308 0.3520495 1.1567307 0.62756956
1.0571786 0.01622841 0.34403446 0.84030646 -0.4451072 0.31890357 0.1809735 0.00840963
-0.4309087 0.5278599 0.5690344 -0.72753257 1.4825444 1.3299837 0.79745656 0.4205824
0.22670326 -0.16801532 0.6964504 1.4938842 0.4402624 0.26875585 0.084899805 0.016578373
00000000: 9e06 d8be 66f8 df3e fcd4 c43f 3193 0f3f
00000010: 136a 2fbe d53f b43e c00f 943f 66a8 203f
00000020: a151 873f 71f1 843c 4925 b03e 531e 573f
00000030: 17e5 e3be 5447 a33e 1e51 393e 8bc8 093c
00000040: 11a0 dcbe d421 073f 3dac 113f 933f 3abf
00000050: 04c4 bd3f e83c aa3f 1d26 4c3f 9456 d73e
00000060: e624 683e 350c 2cbe 934a 323f 9937 bf3f
00000070: 136a e13e 5e9a 893e f3df ad3d 5ecf 873c

bottle_neck.1.conv_block.2.running_var f4 [32]
13.701471 19.049576 19.915127 14.630699 13.146231 14.767255 25.92285 22.518248
18.410229 13.548427 9.383406 27.043911 19.338266 15.961044 16.411049 16.745724
31.021832 21.892202 17.665215 20.58584 26.728157 11.836202 13.209527 13.587106
17.670187 19.757088 29.948599 21.566086 19.687346 13.822818 19.849663 21.304588
00000000: 3a39 5b41 8865 9841 2e52 9f41 5817 6a41
00000010: f656 5241 ad46 6c41 ff61 cf41 5f25 b441
00000020: 2648 9341 5bc6 5841 6e22 1641 ee59 d841
00000030: c5b4 9a41 7060 7f41 d449 8341 3ef7 8541
00000040: b62c f841 3b23 af41 5c52 8d41 cdaf a441
00000050: 44d3 d541 1561 3d41 395a 5341 c964 5941
00000060: 8b5c 8d41 840e 9e41 bb96 ef41 5887 ac41
00000070: af7f 9d41 432a 5d41 1ccc 9e41 cc6f aa41

bottle_neck.1.conv_block.5.weight f4 [32, 32, 3, 3]
0.032134965 -0.04283022 -0.02741785 0.005764044 -0.19855721 0.019535562 0.04274775 -0.0052987896
0.05520818 0.03249915 0.08334953 -0.0039450848 0.09738778 0.008835566 -0.017096221 -0.09724411
-0.19390033 -0.10560895 0.023529675 0.028366277 -0.06827321 -0.04939438 -0.079727754 0.036386404
-0.026108636 0.048565168 0.01795869 0.16854471 -0.13027765 0.04833991 0.01837265 -0.12729661
0.062304463 -0.04271025 -0.01724658 0.057433937 0.114466265 0.10659204 -0.046104245 0.07975411
-0.14618415 0.0016646811 -0.049004223 -0.09565973 -0.06715595 0.011037398 -0.01897432 -0.06411035
0.0018853034 -0.01255827 0.03193712 -0.075010546 0.07902009 0.04181124 -0.060042713 -0.026360609
-0.018548353 0.02024511 -0.023991955 -0.029401153 -0.05205214 0.0044167 -0.010121423 0.024313489
0.054665986 0.05031533 -0.016967513 0.032383148 -0.023148127 -0.0094854515 0.00735438 -0.10226638
0.017951652 -0.012540679 -0.07211749 0.13646352 0.10534086 0.06722837 -0.095778875 -0.109695405
-0.08836932 0.0089720115 -0.019927515 -0.07672915 -0.009560724 -0.009680137 -0.010441965 -0.013300224
0.0063584736 0.047720417 -0.0035073787 0.06933592 0.16857986 -0.01669514 0.061496794 -0.082294695
0.05445303 -0.012413646 -0.04583869 -0.055600606 0.055135977 -0.060038902 0.073430024 0.086617626
0.055995226 -0.0554323 -0.019546572 -0.02490326 0.0070862873 -0.02098557 -0.0067968215 0.013364459
-0.022331491 0.031936582 0.008275792 -0.017540619 -0.08553944 0.08778399 -0.012944017 0.156607
-0.092859484 -0.011142577 0.07201968 0.06582372 -0.003612333 -0.038581874 0.01651527 0.13376105
-0.10346379 -0.10695942 -0.1271176 -0.0869148 -0.012472841 -0.027703641 -0.017752072 0.09001761
0.039280973 0.06271152 0.10572857 -0.025241245 0.00851267 -0.13317902 -0.13313513 -0.0040548313
0.0056165704 0.03341327 -0.1319856 -0.043446988 0.01714138 0.044068493 0.036590748 0.009176517
-0.05922147 -0.0037620545 -0.12393479 -0.0155087095 0.05349606 0.06697224 0.15417528 -0.10563389
-0.09401872 -0.10257847 0.040778074 0.10604794 -0.016358888 -0.036700528 -0.069863744 0.040376276
0.07830692 0.016774096 0.07123359 0.10708534 0.1669432 0.027144304 0.016846392 -0.0175194
-0.020958297 0.045151453 0.122944586 0.024325555 0.06003958 -0.0864488 0.017608868 0.1341998
-0.0305874 0.098675184 -0.11357383 -0.095411055 -0.015141451 0.059687376 -0.04984074 -0.08048126
-0.037907586 0.014136712 -0.13444014 0.0042928522 0.013323351 -0.012179943 -0.040158246 0.018330151
0.026691528 0.05838139 0.07044316 -0.057003547 -0.08382446 -0.073373295 0.09128858 0.032910664
0.01499955 0.06017883 -0.0059664734 0.06649866 -0.12911774 -0.042074353 0.015404537 0.012981633
0.0011479652 0.019570898 0.14663471 -0.026446313 0.099388435 -0.14005712 0.012747123 0.0020663883
-0.043365937 0.14985572 0.12671462 0.037576143 -0.10262524 -0.0970319 -0.048847064 -0.051294334
0.0014946114 -0.06901343 -0.10189729 0.01678005 -0.014282479 -0.0023160232 0.08981531 -0.030966887
-0.05758398 -0.06356509 0.009217705 0.06664044 0.06990316 0.037728693 -0.07416103 -0.12735488
0.018591719 0.087601215 0.13598594 0.08372156 -0.05632715 0.02020712 -0.08011545 0.0023724616
00000000: f49f 033d be6e 2fbd 669b e0bc 4ee0 bc3b
00000010: 9552 4bbe 0b09 a03c 4418 2f3d 78a1 adbb
00000020: f921 623d d41d 053d 29b3 aa3d c545 81bb
00000030: 3f73 c73d 0dc3 103c 600d 8cbc ec27 c7bd
00000040: cf8d 46be 8149 d8bd 4ec1 c03c 6560 e83c
00000050: d3d2 8bbd c351 4abd 4e48 a3bd e909 153d
00000060: c7e1 d5bc 45ec 463d 1a1e 933c fc96 2c3e
00000070: 8167 05be 1200 463d 3d82 963c 0b5a 02be
00000080: f732 7f3d f1f0 2ebd b348 8dbc d93f 6b3d
00000090: 4a6d ea3d ed4c da3d ced7 3cbd 1f56 a33d
000000a0: 4cb1 15be 6e31 da3a a7b8 48bd 40e9 c3bd
000000b0: 0f89 89bd 34d6 343c 0870 9bbc 4a4c 83bd
000000c0: 491c f73a 34c1 4dbc 7fd0 023d 219f 99bd
000000d0: 49d5 a13d 4342 2b3d 59ef 75bd 34f2 d7bc
000000e0: b7f2 97bc 13d9 a53c c78a c4bc b0da f0bc
000000f0: a034 55bd f7b9 903b 53d4 25bc 152d c73c
00000100: 71e9 5f3d 7317 4e3d 74ff 8abc 31a4 043d
00000110: 24a1 bdbc de68 1bbc 03fd f03b 0971 d1bd
00000120: 580f 933c 6c77 4dbc 56b2 93bd 18bd 0b3e
00000130: f3bc d73d 07af 893d b727 c4bd fca7 e0bd
00000140: f9fa b4bd 58ff 123c 073f a3bc 2c24 9dbd
00000150: 95a4 1cbc 7099 1ebc c714 2bbc 2fe9 59bc
00000160: be5a d03b 7c76 433d 0ddc 65bb feff 8d3d
00000170: 33a0 2c3e 3fc4 88bc 10e4 7b3d 1f8a a8bd
00000180: 240a 5f3d 9b62 4bbc 5ac1 3bbd 76bd 63bd
00000190: 43d6 613d 5aeb 75bd 7b62 963d 9564 b13d
000001a0: 405b 653d fb0c 63bd 2220 a0bc ec01 ccbc
000001b0: 1634 e83b eee9 abbc dfb7 debb 9bf6 5a3c
000001c0: 88f0 b6bc efcf 023d 3097 073c 58b1 8fbc
000001d0: 4d2f afbd 18c8 b33d 2413 54bc 965d 203e
000001e0: 1d2d bebd 5b8f 36bc 0e7f 933d 96ce 863d
000001f0: e4bc 6cbb 0708 1ebd 084b 873c a8f8 083e
00000200: d3e4 d3bd 8a0d dbbd 1e2b 02be 6300 b2bd
00000210: e35a 4cbc bff2 e2bc cb6c 91bc 275b b83d
00000220: 16e5 203d e66e 803d 3888 d83d bac6 cebc
00000230: ba78 0b3c 1560 08be 9354 08be 64de 84bb
00000240: 350b b83b 5adc 083d 3c27 07be 78f5 31bd
00000250: 146c 8c3c 2a81 343d 2ee0 153d 1a59 163c
00000260: 3692 72bd cd8c 76bb 86d1 fdbd 3e18 7ebc
00000270: af1e 5b3d be28 893d 20e0 1d3e 9556 d8bd
00000280: e38c c0bd a914 d2bd e906 273d aa2f d93d
00000290: 1303 86bc 4b53 16bd b914 8fbd 9861 253d
000002a0: 615f a03d d469 893c ebe2 913d 8f4f db3d
000002b0: 29f3 2a3e bb5d de3c 7201 8a3c d884 8fbc
000002c0: bcb0 abbc bbf0 383d 5fca fb3d 6346 c73c
000002d0: 10ec 753d 120c b1bd 7940 903c ac6b 093e
000002e0: 6d92 fabc 3716 ca3d 6599 e8bd df66 c3bd
000002f0: d913 78bc c07a 743d ce25 4cbd 5cd3 a4bd
00000300: fc44 1bbd ab9d 673c adaa 09be 0eab 8c3b
00000310: 2f4a 5a3c 628e 47bc f97c 24bd 1d29 963c
00000320: 31a8 da3c 5321 6f3d 8144 903d 8d7c 69bd
00000330: 29ac abbd bd44 96bd 82f5 ba3d 55cd 063d
00000340: acc0 753c 147e 763d 6882 c3bb 7330 883d
00000350: 7137 04be 2856 2cbd 5063 7c3c eab0 543c
00000360: 5277 963a 2653 a03c 6927 163e f0a5 d8bc
00000370: 2a8c cb3d 226b 0fbe 4fd9 503c 3e6c 073b
00000380: 7ba0 31bd c773 193e 7ac1 013e 71e9 193d
00000390: 2f2d d2bd a9b8 c6bd dc13 48bd 021a 52bd
000003a0: d6e6 c33a ea56 8dbd 87af d0bd 5176 893c
000003b0: 0f01 6abc 6cc8 17bb 17f1 b73d 45ae fdbc
000003c0: 2edd 6bbd 6a2e 82bd db05 173c c87a 883d
000003d0: 6329 8f3d 6789 1a3d bde1 97bd 5169 02be
000003e0: a94d 983c 4468 b33d e63f 0b3e 3676 ab3d
000003f0: 4cb7 66bd 6789 a53c 9213 a4bd 4d7b 1b3b
