models/defG_epoch_60.pth (torch_old, 358184 bytes, 49 tensors)

encoder.0.weight f4 [8, 1, 3, 3]
000000 cb a8 a6 3c 87 f9 cb 3c e7 cf 19 3a 97 a0 3e bc
       0.020344159 0.024899257 0.00058674667 -0.011634967
000010 50 53 76 bd c6 fd 60 bd 60 d0 c3 3d ae 8f ee 3e
       -0.060138047 -0.054929517 0.09561229 0.46593994
000020 e6 ac 33 be e4 ea 9e 3b a6 d0 10 bd 11 c3 83 3c
       -0.17546424 0.0048497785 -0.035355233 0.016084226
000030 13 a1 95 bc b6 b3 ac 3b 34 51 bd 3d 2a 38 5b 3d
       -0.018265283 0.0052704467 0.09244004 0.05352036
000040 05 f4 4e 3d ea 21 7c bf b4 ca 23 3e e7 c9 b2 bd
       0.050525684 -0.9848925 0.15995294 -0.08729916
000050 02 96 1a be 6c 18 d9 3d a2 c5 00 be bd ae 15 be
       -0.15096286 0.10600361 -0.12575391 -0.14617439
000060 d2 6a 24 bd d7 7b b3 bd e7 73 0a be 8f aa 75 3d
       -0.040140934 -0.08763855 -0.13520776 0.05997711
000070 96 27 59 3d 9f 6c 62 bf 11 4d 09 3d 9f e0 a2 bc
       0.053016268 -0.8844699 0.033520762 -0.019882498
000080 5b 8c 90 bc cf 60 a6 bc fe 9b 2d bd c3 9c a0 3b
       -0.017645052 -0.020309834 -0.042385094 0.0049015
000090 4d a5 87 bd da 2e bc bc 4a d9 c2 bc bb 94 b5 3c
       -0.066233255 -0.02297156 -0.023785252 0.022165647
0000a0 ad 06 4b 3d 58 34 53 3c e1 84 b8 3c b9 0f 44 bf
       0.049566913 0.012890898 0.0225243 -0.7658649
0000b0 9f 62 02 3e 86 ea 2b bd 20 dd 4a 3d 93 63 c5 bd
       0.12732933 -0.041971706 0.049527287 -0.09638133
0000c0 18 85 d9 bd 70 da ec 3e e0 2b 07 3e 4b c8 7e bd
       -0.10621089 0.46260405 0.1320033 -0.062202733
0000d0 7c 23 c6 3d e2 56 f9 bd d1 79 30 bd 2e 7d 11 bd
       0.09674737 -0.12174775 -0.043084923 -0.03551977
0000e0 19 c0 ab bd 3d 8e 33 bd 0c 5b 8d 3d db 95 04 3e
       -0.08386249 -0.04383682 0.069021314 0.1294779
0000f0 57 8d 6c be 96 3d d8 3e 55 2c f5 3d 20 68 c0 bc
       -0.23100792 0.42234486 0.11971346 -0.02348715
000100 02 c5 92 3b e3 8a 3f bd ec b7 bb 3e 93 d2 a3 3c
       0.0044790516 -0.046763312 0.3666376 0.01999787
000110 db 70 3a be 1f 7c cc 3d cb d1 81 bd ba df ec bd
       -0.18207113 0.09984612 -0.06338843 -0.1156611

encoder.0.bias f4 [8]
000000 f2 cd 09 be f0 0a 35 3e 15 c0 87 3e 5f 90 c0 be
       -0.13457468 0.17679954 0.26513734 -0.37610146
000010 6b 81 dc 3c 15 75 88 be 02 ad 70 3e 27 be c7 3e
       0.02691718 -0.26651827 0.23503497 0.39012262

encoder.3.weight f4 [16, 8, 3, 3]
000000 00 6f d6 3c 79 21 da bd fa 15 39 be fd 09 5c be
       0.026175976 -0.10650916 -0.1807479 -0.21488185
000010 d8 d2 96 bd b2 c5 c9 be 5e 53 37 3d f9 a2 ea bd
       -0.07364434 -0.39408642 0.04475724 -0.11456866
000020 b0 e0 99 be fa 09 9f bd 6e a6 15 3e d4 3e 37 3e
       -0.30054235 -0.07765575 0.14614269 0.17895061
000030 86 3b 9b 3d 04 46 89 3e a1 63 10 3e cc 2a d7 3d
       0.075797126 0.2681123 0.14100505 0.1050621
000040 5d d6 0b 3e b6 f5 d4 3d c3 5e 22 bd 37 96 e2 3d
       0.13655992 0.10398428 -0.039641153 0.110638075
000050 68 6f 37 3e 6f 43 0b bd 5e 48 84 bd 14 c2 d4 3d
       0.17913592 -0.033999857 -0.064591154 0.1038858
000060 5e 91 10 3d 93 b0 7c 3c 2a 46 87 3e ed 6d 5f bd
       0.035294883 0.015422958 0.26420718 -0.054548193
000070 7c a9 50 3e ac f7 e3 3d 69 a2 25 be 1f 88 cf bd
       0.20377153 0.11131224 -0.16175236 -0.10133385
000080 b0 a5 d2 3a 03 0f c8 bd da 61 ff 3d 34 22 26 3e
       0.0016071107 -0.09768488 0.124698356 0.16223985
000090 3f 9b 2e bb d0 87 e1 bc d4 ee 14 3e aa 5e 10 3e
       -0.0026642827 -0.02753058 0.1454423 0.14098611
0000a0 9f fa e5 3d 90 09 29 3e 09 1a 4f bc d4 ef ce 3d
       0.11229443 0.16507554 -0.012640485 0.10104337
0000b0 fd 2f 70 3d ee 00 c6 bb 14 1d ef 3d 26 f8 e5 3d
       0.058639515 -0.0060425913 0.11675468 0.11228971
0000c0 b4 7e 0c bd 6e a3 13 bd 43 0c ac 3d ee a0 45 be
       -0.03430052 -0.03604453 0.08400776 -0.19299671
0000d0 58 93 53 be fa a0 55 be 53 7b 9c 3c c1 25 52 3b
       -0.20661676 -0.20862189 0.019101774 0.003206596
0000e0 80 d4 4d 3e 23 8b fd bd 26 39 90 be d8 fb ab bd
       0.20100594 -0.12380054 -0.281686 -0.08397645
0000f0 4d 9e a9 ba 7f fb 45 be 40 fa cd be 5d 7b 0e bd
       -0.0012940854 -0.1933422 -0.40229988 -0.034785617
000100 64 92 44 3d 19 5b 82 bc 7b 3c 82 3d 1b 38 e0 3c
       0.04799117 -0.01591258 0.06359192 0.027370503
000110 47 45 ce bd 81 ca bc bc c7 e5 48 bb 36 7c 33 be
       -0.10071807 -0.02304578 -0.0030654536 -0.17527851
000120 90 32 9f bd 22 21 04 bd 3b ef 32 3e ed ff 07 be
       -0.07773316 -0.03225816 0.17474072 -0.13281222
000130 54 25 62 3c 5e bd 52 3e 09 c8 e0 bd 96 86 53 bd
       0.013802845 0.2058005 -0.10975654 -0.051642023
000140 e6 7f bd bd 23 80 f6 bd 8a 05 f1 3d 08 ac 8d 3d
       -0.0925291 -0.12036159 0.117686346 0.06917578
000150 f4 9d 07 3e 07 d3 a1 3d 9f 34 33 3e a1 78 23 3d
       0.13243848 0.079015784 0.17500542 0.039909963
000160 9f 36 84 bd 81 8d 79 3d 60 6e 07 3c 28 de 67 3c
       -0.06455731 0.060925964 0.008266062 0.014152087
000170 60 b7 41 3d e5 01 0d 3e a2 83 21 3e 6b 79 43 3e
       0.04729402 0.13770254 0.1577287 0.19089286
000180 46 69 34 3e 8b f0 3c 3e 01 4c 1d 3e db 1f ae 3b
       0.17618284 0.18451135 0.15361024 0.005313856
000190 58 da 16 3c 96 91 94 3d 25 61 8b be 6a 40 40 bd
       0.009207331 0.07254331 -0.27222553 -0.04693643
0001a0 29 7b 03 be 56 46 2f bd f4 71 2a 3e 96 11 e7 3d
       -0.1283995 -0.042791687 0.16645032 0.11282651
0001b0 bf 57 c5 bd 82 af e7 bd ca 6b fb 3d b3 e1 94 3c
       -0.09635877 -0.11312772 0.122764185 0.018174028
0001c0 98 68 23 3e 90 42 00 3d 2b 08 24 3d a2 3c 2f 3d
       0.15957868 0.03131348 0.040046852 0.042782433
0001d0 f5 6d ab bd d2 ac 50 be 32 a4 3d bd 04 ac b1 3d
       -0.08370582 -0.20378426 -0.046299167 0.086753875
0001e0 96 8e 83 bd ab ca 02 3e ab a3 87 3e 1e fa a2 bc
       -0.064236805 0.12772624 0.26492056 -0.019894656
0001f0 c3 f8 01 3e 9c bc 9b 3e 89 1f 3b bd 98 4e 31 3e
       0.12692551 0.30417335 -0.04568437 0.17315137
000200 3c 60 9e 3e c9 99 ea bc 65 b4 31 3e c1 43 b2 3e
       0.30932796 -0.028637784 0.17353971 0.34817317
000210 92 0a 05 bd c0 d3 a7 3d e6 6f 7c bb b2 42 f2 bc
       -0.032480784 0.08194685 -0.0038518845 -0.029572818
000220 a6 b2 f6 bd 65 94 d1 bd b6 e5 d7 bd c9 f1 a7 bd
       -0.12045793 -0.10233382 -0.10541861 -0.08200414
000230 54 73 95 3d 59 89 d0 bd d0 ae 78 bd a2 e3 b8 3d
       0.07297388 -0.10182447 -0.06071359 0.090277925
000240 07 0b f9 bd df 32 42 3c 45 e5 95 bc 6a 70 40 3a
       -0.121603064 0.011852949 -0.0182978 0.000734097
000250 2e 5b 48 3d 8a 91 92 bd 3b 67 c0 3d 11 97 73 bc
       0.04891508 -0.071566656 0.0939469 -0.01486756
000260 4f 1a a3 be d5 3e 3d 3e 06 3c 17 3e 98 77 09 3e
       -0.3185601 0.18481 0.14768991 0.13424528
000270 15 3d ca 3c 4c 74 83 be 12 6f 36 be 1b 29 89 be
       0.02468733 -0.25674665 -0.17815807 -0.26789173
000280 0e da 00 bf c0 83 a1 be 56 44 6d 3c 18 a7 f2 3c
       -0.50332725 -0.3154583 0.014481625 0.029620692
000290 16 5b 44 3c d0 e7 b5 3d 2b 79 ab bc f5 0f 65 3d
       0.011984607 0.08882105 -0.0209318 0.05592342
0002a0 f2 e6 52 3d 8c 03 0a be b7 df 48 bd 7a 42 0e 3e
       0.051489778 -0.13477916 -0.049041476 0.13892546
0002b0 19 a0 b1 3d eb bd e0 3c 14 38 1d 3e 5f d7 8a 3d
       0.08673114 0.02743431 0.15353423 0.0677936
0002c0 f7 12 a6 3d 51 58 1c 3e 3b 5d f0 3c 2e 36 a0 3d
       0.08109086 0.15268065 0.02934133 0.07822834
0002d0 ec f6 47 3e 42 b8 1b 3e d6 05 b9 3d bb aa 08 3e
       0.19527787 0.15207008 0.09034316 0.13346379
0002e0 f0 a8 0e 3d 62 2b cc be 64 6b 7e bd 37 f9 4b be
       0.03482908 -0.39876848 -0.062114134 -0.19919287
0002f0 54 cf 08 bf 33 aa 0e 3d c0 a2 83 3c 79 0c a6 3d
       -0.5344136 0.034830283 0.016068816 0.08107848
000300 96 f7 c0 bb a3 6b b1 3d e2 45 a8 bc 5d 7b 47 bc
       -0.0058888895 0.08663108 -0.020541135 -0.012175408
000310 cb 22 0f be 5c 9f 6e be 3a 6c 2d 3b fe fc ec bc
       -0.13978116 -0.23302978 0.0026462213 -0.02892923
000320 14 53 3e 3d 06 8b b2 3a c5 43 a5 bd 26 7d 30 be
       0.04646595 0.0013621754 -0.08069567 -0.1723524
000330 83 41 a8 bc d1 f8 4f be 7a 7b a3 be 35 e7 c4 3d
       -0.02053905 -0.2030976 -0.31930143 0.09614412
000340 d0 d7 85 3c 6d 18 bc bd 11 9a fb bd fe ad 59 bc
       0.016338259 -0.09184346 -0.12285245 -0.013286112
000350 c9 2e f3 bc 9d 9e b3 bd e8 19 56 3d 1b f6 e5 3b
       -0.029685395 -0.087704875 0.0522708 0.0070178634
000360 ec 80 05 3d 98 46 0a bd bb 07 e0 bd bb f5 84 be
       0.032593653 -0.03375873 -0.109389745 -0.25968727
000370 3d 4c 97 be 4c f4 97 be 8f 76 90 bd da 37 72 bc
       -0.29550353 -0.2967857 -0.07053863 -0.014783824
000380 95 de 21 be ff b1 3f bd 27 86 c4 bd a7 bd a7 bd
       -0.15807565 -0.04680061 -0.095959 -0.0819047
000390 cc 94 4f be 28 6a 56 be d6 f7 22 3e 7a 17 42 bd
       -0.20271605 -0.20938933 0.15914854 -0.04738567
0003a0 25 c2 86 3e 76 af 99 3e 92 e1 b0 3d 69 f7 07 bb
       0.26319996 0.3001668 0.08636774 -0.0020746833
0003b0 df 0e a9 3b 8a 16 c5 3d 21 e8 6d 3c 4f 3a b5 3d
       0.0051592435 0.096234396 0.014520676 0.08849012
0003c0 98 61 00 3e 75 55 ce bc 26 0f 5d 3e 8c 2d 5f 3d
       0.12537229 -0.025187233 0.2158781 0.054486796
0003d0 ef b3 9c bd f1 ee 47 bd 4b 31 a7 bd 58 8b 83 bd
       -0.07651507 -0.048811857 -0.08163699 -0.06423062
0003e0 55 a0 2c be fe 4a d3 bd 90 8e 21 be ca f9 a0 bd
       -0.16858037 -0.10317038 -0.1577704 -0.078601435
0003f0 b9 25 00 bd db ad b9 bd d7 42 cf bd 95 43 86 bd
       -0.031285975 -0.090663634 -0.101201706 -0.06555859

encoder.3.bias f4 [16]
000000 63 d3 79 be 69 63 59 be e3 01 eb 3d bc c5 a0 bd
       -0.24397044 -0.21229328 0.11474969 -0.07850215
000010 98 67 17 be 79 0d 49 bc 12 c6 41 be c4 1b d6 bd
       -0.14785612 -0.012271279 -0.18923214 -0.104545146
000020 13 ea d3 3c 20 ab 4f bd 82 df 62 3d fa 19 de bd
       0.025868451 -0.050700307 0.055388935 -0.108447984
000030 cc 43 ea bd 0c 31 a2 be 0c b7 12 3b b8 fd de bd
       -0.114387125 -0.31678045 0.0022386936 -0.10888237

encoder.6.weight f4 [32, 16, 3, 3]
000000 c0 e1 ab bd e3 45 97 3d af 78 2f 3e 96 92 57 bd
       -0.08392668 0.07386377 0.17135881 -0.05263003
000010 6b 68 87 bd 38 44 7f 3d 4c 95 70 3c f3 41 bb be
       -0.06611713 0.062320918 0.014684033 -0.36573753
000020 f8 a3 69 be d4 31 7c bc 47 9a 0d 3d 16 92 c9 3d
       -0.22816455 -0.015392739 0.03457096 0.09842317
000030 6c 3d 29 3e 7a aa 1c 3e 39 1b 99 3c 34 44 2f 3d
       0.16527337 0.15299407 0.018689739 0.042789653
000040 ea be 6d 3d e2 f9 23 be 79 1c 62 3e d4 7b 5c 3e
       0.058043398 -0.16013291 0.22081174 0.21531612
000050 75 32 d4 3d 38 96 e5 bb 51 29 14 3d 33 99 d9 3d
       0.103611864 -0.007006433 0.036172215 0.106249236
000060 38 f3 5e be d3 87 91 be f2 71 a3 3d 9d fc 7c bc
       -0.21772468 -0.28423938 0.07980718 -0.015441087
000070 cd 5d 62 bc 07 7a f4 3d 92 d7 cf bc 7e 92 a8 bd
       -0.013816309 0.11937337 -0.025371347 -0.08231066
000080 c3 7e a3 bc 05 22 69 be eb ac c8 be dc 98 d9 bd
       -0.019957906 -0.22766884 -0.39194426 -0.10624859
000090 aa e9 c2 3d 89 29 f0 3d f6 6a fe 3d 78 7b 8f 3d
       0.09517224 0.11726672 0.12422745 0.07005972
0000a0 ae b3 57 3e 1b 0f 5e 3d 57 a3 9c bc 77 ce 80 3d
       0.21064636 0.054213624 -0.019120855 0.0628938
0000b0 7b 8a d3 bc 3a ef ad 3d 8e 38 7a 3e f2 00 03 3e
       -0.025822869 0.084928945 0.24435636 0.1279333
0000c0 0a 3c 38 bd d0 49 da bd cf 87 5b 3d e8 2c e9 bc
       -0.044979133 -0.1065861 0.053596314 -0.028463796
0000d0 95 31 6f bd 8a 90 0e bd fa 12 94 3d 82 15 29 bd
       -0.058396894 -0.034805812 0.07230182 -0.041280277
0000e0 c9 7b 14 3e 12 58 bb bd 0a f3 11 be c1 d0 f6 bd
       0.14500345 -0.091476575 -0.14252868 -0.120515354
0000f0 99 b9 2c 3c 45 cf 67 3a 91 92 6b bd b7 4d 8e 3d
       0.010542297 0.0008842836 -0.057512823 0.06948417
000100 0f ac 04 be 77 83 27 bd 76 1f 37 bb 01 c2 6b bd
       -0.1295626 -0.04089686 -0.0027942336 -0.057558063
000110 99 f6 33 3d cd ff 92 3c 80 ec 10 3e 56 b7 86 bd
       0.043936346 0.017944241 0.14152718 -0.06577937
000120 b3 a9 28 be 3d 22 56 3d 10 64 3b bd eb 33 d2 3d
       -0.16470985 0.052278746 -0.045749724 0.10263809
000130 e1 6c 81 3e af 09 3e 3e 4b c1 fb bc 31 06 a1 3d
       0.2527838 0.18558381 -0.030731818 0.07862509
000140 38 bd e8 3d 9b b6 6b bd 2f 8a 90 3d 4d b2 c0 3d
       0.113642156 -0.057547193 0.070576064 0.09409008
000150 89 b0 01 3e c5 bf 88 3e 87 ea a0 3e bc 1c ce bc
       0.12664999 0.2670881 0.3142893 -0.025160186
000160 cd ea aa be 12 e9 36 3a b9 c7 b2 3c 9b c8 d9 bd
       -0.33382264 0.0006977479 0.02182375 -0.106339656
000170 4a 9f 81 bd ff ab a1 3d fc 40 03 bd d0 58 b6 3d
       -0.0632921 0.07894134 -0.032044396 0.089036584
000180 a1 ba b0 3d f6 70 45 be db c6 e2 bd 41 08 99 3d
       0.08629347 -0.19281372 -0.11073085 0.074722774
000190 f3 ae 83 3c 66 a2 20 3a b9 07 c7 3d 14 c3 ac 3e
       0.016074633 0.0006127715 0.0971827 0.33742583
0001a0 19 c0 06 3e a8 f8 ee 3b 6a 98 75 3c f1 36 ee bd
       0.13159217 0.0072928257 0.014989952 -0.11631573
0001b0 4f bb 9e bc f4 55 96 3c d4 42 d6 3d b8 a7 1c 3e
       -0.019376425 0.018351533 0.10461965 0.15298355
0001c0 45 4c c4 3e b7 2a 86 3e 9d 0c 72 be 0a c4 de be
       0.3833944 0.26204464 -0.23637624 -0.4350894
0001d0 08 2d a5 bd 1d a5 8d 3d 04 e7 e6 3c c5 ba 99 bd
       -0.0806523 0.069162585 0.028186329 -0.075063266
0001e0 1e fa 04 3e 26 13 9f 3e 86 f7 ff 3d 95 98 85 3d
       0.12986037 0.31069297 0.12498383 0.06523243
0001f0 c9 2e 08 3d 02 c4 8e bd e7 35 22 3e 2c 60 96 3c
       0.033247743 -0.06970979 0.15840875 0.018356405
000200 e1 38 89 3c 0b 4d f0 3c 51 fe 9c 3d a3 28 94 bd
       0.016750755 0.029333612 0.076656945 -0.07234313
000210 56 ee 86 bd c5 bd fc 3d b9 f2 05 3e 86 b3 8e bc
       -0.06588428 0.12340883 0.13080873 -0.017419588
000220 ce 60 ea 3d c8 f7 30 3e 6c d5 40 bd bd 30 4a be
       0.11444245 0.17282021 -0.047078535 -0.19745155
000230 c7 3d 0f 3e 68 dc 5b 3c 98 9d 55 be f8 8d 93 be
       0.1398841 0.013419248 -0.20860898 -0.2881925
000240 18 ef 69 3d b8 55 89 3d 95 07 b3 3d 4e bc 50 bc
       0.057112783 0.06705803 0.087416805 -0.012740208
000250 dc 1a 66 be 82 79 e5 3d 9b 08 1d bd 2a 51 83 3e
       -0.22471184 0.112048164 -0.038338285 0.2564786
000260 f9 a5 a1 3e 33 24 64 bd 00 0b 2f be 20 22 1f be
       0.3157194 -0.055698585 -0.1709404 -0.15540361
000270 45 3a 88 3d 53 5b ea 3d 8c b3 6c 3c 06 4a 0e 3e
       0.06651739 0.114432 0.014447104 0.13895425
000280 3e 46 39 bd 06 a1 11 be 6c bd f5 3d 67 0b ec bc
       -0.045233004 -0.14221582 0.1199902 -0.02881403
000290 aa 79 6b be a1 ad 59 3e 79 8f 60 bd 13 95 b3 3d
       -0.2299563 0.2125764 -0.054824326 0.08768668
0002a0 84 37 2e be 83 d9 f4 bd 73 97 d4 3d 0e bc 87 bd
       -0.17013365 -0.119555496 0.10380449 -0.066276655
0002b0 b3 c8 cb 3a 71 47 37 bc f4 d8 86 3d ba 4a 86 bd
       0.0015547484 -0.011186467 0.06584349 -0.06557222
0002c0 e8 c5 89 3c eb 4a d7 bc 94 7f 06 3e 49 2d 02 bc
       0.016818002 -0.02628084 0.13134605 -0.007945367
0002d0 23 17 dc 3d 07 a5 0a 3e 7e a8 57 be 0e e5 46 3e
       0.107466005 0.13539515 -0.21060368 0.19423315
0002e0 d2 da 89 3a 1d 5f d5 bd e3 44 10 3e 3b 2f e0 3b
       0.0010517484 -0.10418532 0.14088778 0.006841568
0002f0 a8 52 4c bd 29 4a 76 3d 9a 7a 45 3d 57 3a 52 be
       -0.049883515 0.06012932 0.048212625 -0.20530067
000300 22 7c b6 3d 3c 23 95 bb 7c c5 12 3e ea b7 fa 3c
       0.08910395 -0.0045513194 0.14333147 0.030605275
000310 60 0d 9a 3a d9 96 91 3e cd 4e 58 3a d0 e0 f0 3c
       0.0011753254 0.284354 0.00082514883 0.029404074
000320 42 fe cc bc ca cd 81 be 76 78 0a 3d f1 14 99 3d
       -0.025023583 -0.25352317 0.033806287 0.074746974
000330 ed 73 81 bd 3e c1 c3 3d e8 83 bb 3d 47 64 e6 bc
       -0.06320939 0.095583424 0.091560185 -0.028123988
000340 59 4e 66 ba 9e d1 d1 3d 4d b4 5d bd b8 93 fc 3d
       -0.00087854784 0.102450594 -0.054127026 0.123328626
000350 d9 a1 d0 3d 26 8f 99 3d df 1b 54 3e 5b 40 00 3e
       0.1018712 0.074980065 0.20713757 0.1252455
000360 33 85 3b be cf 34 09 be 38 32 61 bd 25 b3 96 ba
       -0.1831253 -0.13399051 -0.054979533 -0.0011497481
000370 22 31 4c bd e2 b1 61 bd fd bf c8 3d d5 ad 92 3c
       -0.049851544 -0.055101283 0.09802244 0.017905155
000380 ba 98 db bd d6 47 9d 3c 1d 8d 61 be 15 d1 43 be
       -0.1072249 0.019199293 -0.22026487 -0.19122727
000390 81 c1 8c 3e 97 f6 14 be e6 18 7c be 61 53 af 3c
       0.27491382 -0.14547192 -0.24618873 0.021402063
0003a0 c4 55 cf bd 5c 5a 37 be 2d 60 7f bc 08 d3 8c bd
       -0.1012378 -0.17905563 -0.015586895 -0.068761885
0003b0 79 89 13 be 4b 79 12 3e ec 02 b5 bd 77 e2 5c be
       -0.1440791 0.14304082 -0.08838448 -0.21570764
0003c0 0e c2 34 3e b2 03 6c bd 7b 93 0e be 13 00 f4 bd
       0.17652151 -0.05762071 -0.13923447 -0.11914077
0003d0 64 aa 23 bd a2 9f fd bc 3c 80 28 3e 02 f3 86 3e
       -0.03995742 -0.030959908 0.16455168 0.26357275
0003e0 89 b8 ed 3c 80 e1 ee 3d af 2c 27 3e 1a e0 b3 bb
       0.029018657 0.116641045 0.16325639 -0.0054893615
0003f0 ae 38 09 bd 57 3f c4 bc 6c e8 a8 be 7c 8e 99 3e
       -0.03350132 -0.023955984 -0.32989824 0.2999152

encoder.6.bias f4 [32]
000000 fc ba 8e bd ef fe 22 3e 94 30 99 bc 7a 81 8f 3e
       -0.06969258 0.15917562 -0.018699922 0.2802847
000010 4b f4 ac 3d ba 7c aa be cf 39 2a 3e 72 9f 26 bd
       0.08445033 -0.33298284 0.16623615 -0.040679403
000020 cf 91 df 3d 36 eb 89 3b f0 9f b1 bb 94 36 3b 3d
       0.10916483 0.0042089475 -0.0054206774 0.045706347
000030 95 a6 8b 3e 51 47 b2 bc fc 23 5f bd 0d 05 36 3d
       0.2727553 -0.021762522 -0.054477677 0.04443841
000040 b4 59 77 3d e1 97 f4 3d 9d bb 5e 3d 85 36 db bd
       0.060388282 0.11943031 0.05437814 -0.10703758
000050 9d aa 5f 3d f4 ae 10 3d 61 98 35 3e 4b cb 57 bd
       0.05460607 0.0353231 0.17733909 -0.05268411
000060 98 65 ba 3c 29 77 3b 3e 40 3d 88 be e4 91 e9 bb
       0.022753522 0.18307175 -0.2660923 -0.007127987
000070 3a 51 c6 bd 03 05 1e bc b2 94 1e 3e 02 a0 6e be
       -0.096834615 -0.00964475 0.1548641 -0.23303226

bottle_neck.0.conv_block.1.weight f4 [32, 32, 3, 3]
000000 03 2c 00 be 95 59 65 3d 6a 44 cf bd 1d 13 c3 3d
       -0.12516789 0.055993635 -0.10120471 0.0952513
000010 23 bb 0a 3e fd 4e f9 bd 92 ab bd 3d e9 7d b7 3d
       0.1354795 -0.12173269 0.0926124 0.08959562
000020 da 4b d1 3c 16 66 07 be 1b b8 0f 3d 50 9a 53 be
       0.025548864 -0.13222536 0.035087686 -0.20664334
000030 43 0d 0c 3e ea 53 0c 3e 13 95 80 3d 87 ab 88 bd
       0.13676934 0.13703886 0.06278434 -0.06673341
000040 01 71 23 bd a6 ff a0 3d 9f 55 22 be 1d 82 24 3e
       -0.03990269 0.07861261 -0.15852974 0.1606526
000050 a4 d3 e3 be 49 cd 26 3e 6a 18 1c 3d 4c 85 a9 3d
       -0.44497406 0.16289248 0.03810922 0.082773775
000060 1d 39 c7 bd 0c 09 52 3e 90 81 9d be c3 85 db ba
       -0.0972769 0.20511264 -0.3076291 -0.0016748238
000070 3c 43 be 3d d4 fa 30 3e 64 fe 64 3e 02 64 5c bd
       0.09290168 0.17283183 0.22362667 -0.053806312
000080 50 8d fd bd 71 0c 19 3e 5e 93 fa 3c aa d2 3b be
       -0.12380469 0.14946152 0.030587848 -0.1834208
000090 f0 e8 31 bd bb 17 34 3e 7c 95 ba 3c 35 d4 fd bd
       -0.043435037 0.17587177 0.022776358 -0.12393991
0000a0 eb 2c 4a bd e1 5d 86 3c 17 61 3c be 2f 47 6f bd
       -0.049359243 0.016402187 -0.18396412 -0.058417495
0000b0 8b 91 09 3e 30 35 05 be 17 3f 30 3e 56 63 5e be
       0.13434426 -0.1300857 0.17211567 -0.21717581
0000c0 7c d0 f6 bd 28 6f 96 3d ed 7f 15 3d ff 26 48 3d
       -0.12051484 0.0734542 0.036498953 0.048865315
0000d0 d3 58 50 3e c8 9b b1 bd e9 42 0d 3e 16 2b fb bd
       0.20346384 -0.08672291 0.13795055 -0.12264077
0000e0 21 c4 04 3e 68 05 87 bd fa f8 25 bd c2 99 64 be
       0.12965442 -0.06592828 -0.040520646 -0.22324279
0000f0 9e 67 93 bd 90 35 6d bd e9 df 88 be 6d f6 a2 bd
       -0.07197498 -0.05791241 -0.2673333 -0.07957158
000100 ac c8 21 3e cb 1d 61 be 34 ff d3 bc e6 9b 1b be
       0.15799206 -0.21984021 -0.025878526 -0.1519619
000110 ec a5 37 3d 98 5a 89 3d 3c 45 34 3e 51 34 c7 3d
       0.04483597 0.067067325 0.17604536 0.097267754
000120 b0 b3 c5 bd 67 7f 01 ba 4d 39 d0 3d 86 b0 2a bc
       -0.09653413 -0.0004939944 0.10167179 -0.010418063
000130 96 16 68 3d e3 9c 12 be b9 8b 94 3d 8c e3 01 bd
       0.056662165 -0.1431766 0.072532125 -0.031711146
000140 82 b0 44 3d fa 19 9e 3d 00 14 aa bd 39 c0 a5 3e
       0.048019893 0.077197984 -0.08304596 0.32373217
000150 f1 8a c5 bd 5f 85 95 3c e4 3c af be d6 e5 9e 39
       -0.096456416 0.018252073 -0.34226143 0.0003030735
000160 41 7d 98 3d ff c4 64 bd ad 98 e9 bd 07 28 32 3d
       0.07445765 -0.055851933 -0.11406074 0.043495204
000170 e6 2f 5c be ab 39 bf bc d6 44 64 bd 53 f2 ac 3d
       -0.21502647 -0.023342928 -0.05572971 0.08444657
000180 dc 2d 07 be 3e 4d a9 bd 3e 2d 46 be 8b 3a 9e bc
       -0.13201088 -0.08266686 -0.19353196 -0.019315025
000190 62 c8 ed 3d 5d 70 d0 bc 4e 68 e9 3d 72 e5 ff 3d
       0.116104856 -0.025444204 0.11396848 0.12494935
0001a0 ba 98 5b be 77 bc 3e 3d 9b bf 64 bd 4a d4 87 3c
       -0.2144498 0.046566453 -0.05584679 0.01658072
0001b0 c0 2f 03 bd b0 9e fe bb 7f 7c 18 bd bf f2 c2 3b
       -0.03202796 -0.007770382 -0.037228104 0.0059493477
0001c0 28 bd e7 3d 76 55 bf bc b4 29 fc bc d7 33 2d 3e
       0.113153756 -0.02335618 -0.030781604 0.16914307
0001d0 37 52 b8 3d e4 9d 32 be 05 9a 5d 3c 32 26 36 be
       0.09000056 -0.17443043 0.013525491 -0.17788008
0001e0 ca 4b 81 3e ec 48 0c bc fe da 4d 3e a9 a3 99 be
       0.25253135 -0.008562308 0.2010307 -0.30007675
0001f0 d6 21 db 3d ff 3d 60 3d 9c a8 af 3d d7 26 60 3d
       0.10699813 0.054746624 0.085770816 0.05472454
000200 1b 65 3a be 10 f6 6b 3d 0d 32 f7 3d 67 98 f8 3d
       -0.18202631 0.05760771 0.12070093 0.121384434
000210 42 2a 81 3d 83 82 34 3c a0 05 ff 3c 7e f0 d5 3d
       0.06306888 0.011017445 0.031130612 0.10446261
000220 c1 53 f9 bd d6 c6 74 3d 1a a0 dd 3d e7 ee 1c 3e
       -0.12174178 0.059759937 0.108215526 0.15325509
000230 2a d7 72 3d 72 84 e3 bd 06 d3 80 bc 5e a2 c0 3e
       0.059287228 -0.11109246 -0.015725624 0.37623876
000240 61 8d 28 3e b8 5d d8 bc 43 ba 80 3c 88 d2 8b be
       0.16460182 -0.026411876 0.015713817 -0.2730906
000250 3b cf 31 3e 3b e8 40 bd e7 29 3f 3d 46 0f 1b bd
       0.17364208 -0.047096472 0.04667082 -0.037856363
000260 59 85 b7 3d 8a 4a 42 3e 01 f9 40 bd 68 87 25 3e
       0.08960981 0.18973747 -0.04711247 0.16164935
000270 78 99 dd 3d f4 86 c8 bd 2c d6 37 3b 23 19 b5 bd
       0.108202875 -0.09791365 0.002805124 -0.08842685
000280 81 4d 97 bd 14 9c 4c bd f5 bc ac be 9d 5b d4 bc
       -0.073878296 -0.049953535 -0.33737913 -0.02592259
000290 e1 6e 90 bd 7f 0c 17 bd e8 f8 5a 3e fb 3e 10 be
       -0.070523985 -0.03687715 0.21384013 -0.14086525
0002a0 84 e2 5b bc 8b 60 88 3d 18 26 dc bb c6 59 aa 3e
       -0.013420705 0.06659039 -0.0067184083 0.33271617
0002b0 e0 c8 e7 bc 45 c4 29 3d 84 1c 0c be 6e c9 40 3e
       -0.028294027 0.041446943 -0.13682753 0.1882684
0002c0 fd 8d b0 be 6c ca 3b 3e e5 f4 36 3e 2a 76 5b 3e
       -0.34483328 0.18338937 0.17866857 0.21431795
0002d0 25 97 41 3e 6f 3c ea bd dc 3f 46 bc d0 2e e6 38
       0.18905313 -0.11437308 -0.012100186 0.00010975974
0002e0 be ea d7 3d d2 6e 1f be 26 49 66 be 1a d2 f1 3c
       0.105428204 -0.15569618 -0.22488841 0.02951913
0002f0 ea 9a fc bd 2f c2 46 3e 99 34 0a 3d 4a d9 59 3e
       -0.12334235 0.19410013 0.033741567 0.21274295
000300 47 ed 22 3e 1d 46 d8 3d 03 30 56 bd e2 73 0c be
       0.15910827 0.10560248 -0.05229188 -0.13716081
000310 c3 52 1f 3e 40 fe 14 3e 26 56 34 3e f5 d1 3a 3e
       0.15558915 0.14550114 0.17610988 0.18244155
000320 cb a3 e8 bd 41 92 d5 bd c9 b8 62 3d 9e 1a a8 bd
       -0.11359366 -0.10428286 0.055352006 -0.08208202
000330 2e 99 b9 3d 10 0d 4c 3e 43 01 42 3d 4d fe 93 3d
       0.0906242 0.19926858 0.047364485 0.072262384
000340 51 00 0f be 99 e0 86 3d e5 2b 75 be 0e a0 53 3d
       -0.13964964 0.06585807 -0.23942526 0.051666312
000350 44 21 1c bd 3f 13 32 3d c1 54 e4 bd 67 9a 96 3e
       -0.038117662 0.043475386 -0.11148978 0.29414675
000360 f1 d3 0c bd 6a 10 32 3d 06 85 3a be df 24 8b 3d
       -0.03438181 0.043472685 -0.18214807 0.06794142
000370 04 c9 30 3e 87 9b 05 3e af cb 3f 3e b9 90 65 bc
       0.17264181 0.1304761 0.18730043 -0.014011555
000380 b5 78 1b 3e 3c 99 51 bc 3a cd 8e 3d 9a a3 9b bd
       0.15182765 -0.012792882 0.069727376 -0.07599564
000390 a1 b1 36 be 55 83 7a 3e 15 2b 8d bc 75 19 e1 3d
       -0.17841198 0.24464162 -0.017232457 0.10991184
0003a0 41 d8 a9 bd d6 82 fc bd d9 59 ca bd 10 cf 4b 3e
       -0.082932 -0.123296425 -0.09880418 0.19903207
0003b0 20 b9 1f be 43 05 82 bd 56 77 40 3d 77 55 08 3e
       -0.15597963 -0.0634866 0.046988808 0.13313852
0003c0 f2 e7 d3 bd b8 9a e1 3d 37 21 b1 bd c7 97 b5 bd
       -0.103469744 0.110158384 -0.08648913 -0.0886684
0003d0 34 03 78 bb 8b aa 67 3d ca 18 45 3d 9f ea fd bd
       -0.0037843706 0.056559127 0.048119344 -0.12398266
0003e0 4a 3e 2c be 54 07 85 3d bc 38 b7 3c 02 8e cb be
       -0.16820636 0.06495538 0.02236592 -0.3975678
0003f0 b9 2a a7 bb b0 28 f0 3d f5 9f 2c be c5 e9 f6 bd
       -0.0051015285 0.117265105 -0.16857894 -0.12056307

bottle_neck.0.conv_block.2.weight f4 [32]
000000 cd 3d 69 3f 5b a2 62 3f 7c 11 86 3f df 3e 69 3f
       0.91109926 0.88528985 1.0474086 0.9111156
000010 57 8f 6c 3f 46 17 73 3f 90 74 82 3f 37 6b 72 3f
       0.9240622 0.9495739 1.0191822 0.94694847
000020 b1 b4 97 3f 58 9e 87 3f ad 05 8f 3f 8e 54 87 3f
       1.1852018 1.0595198 1.1173607 1.0572679
000030 68 cf 99 3f 58 1c 79 3f 4f f8 66 3f 3c 6a 8a 3f
       1.201642 0.97308874 0.9022264 1.081367
000040 19 0a 82 3f 96 ea 87 3f 4a d2 98 3f 3a c7 81 3f
       1.0159332 1.0618465 1.1939175 1.0138924
000050 82 44 47 3f 71 86 95 3f 46 b6 67 3f f2 7b 45 3f
       0.7783891 1.1681653 0.905125 0.7714225
000060 00 b5 83 3f 8d 54 84 3f 53 a4 95 3f 68 7a 69 3f
       1.0289612 1.0338303 1.1690773 0.912024
000070 3e 7c 8c 3f 07 73 55 3f 55 4e 5e 3f a3 1e 96 3f
       1.0975416 0.8337864 0.86838275 1.17281

bottle_neck.0.conv_block.2.bias f4 [32]
000000 4f 65 28 3e 6c f8 08 be 66 3f 04 be 35 95 34 be
       0.16444896 -0.13376015 -0.1291481 -0.17635043
000010 6c 35 51 bb e4 fa 2a be 7c e4 99 3c 5f 0d 4d 3c
       -0.003192271 -0.1669727 0.018785708 0.012515395
000020 34 ba 0d bc 34 21 28 bc 5b 2b 02 be 61 71 0d 3c
       -0.008650351 -0.0102618225 -0.12711851 0.008632989
000030 e9 e5 28 3d a2 eb 41 3d 64 86 e1 bc 23 0f 1a bd
       0.041234884 0.047343858 -0.027529903 -0.03761209
000040 19 9d cb 3d ff df 41 be 45 c6 b8 bd 12 33 e2 bd
       0.099420734 -0.18933104 -0.09022192 -0.11044897
000050 45 0f 94 be ea 2f 29 3e c0 95 12 be 04 59 70 be
       -0.289179 0.16522184 -0.14314938 -0.23471457
000060 c3 d1 07 3e 5e 92 bf bd ce 3e 2b 3e 87 79 fe bd
       0.13263611 -0.09354089 0.16723177 -0.12425523
000070 2c 72 28 be f4 e6 51 bc 1d 34 b8 bd 6f 71 08 be
       -0.16449803 -0.012811411 -0.08994315 -0.13324521

bottle_neck.0.conv_block.2.running_mean f4 [32]
000000 59 1a e8 3e 2d 74 29 c0 c2 a0 76 bf 67 94 ed 3f
       0.45332602 -2.6477158 -0.96339047 1.8560914
000010 27 43 50 40 6f 76 29 3f c1 7a 05 3f 89 f8 7e c0
       3.2540987 0.6619634 0.5214043 -3.9839194
000020 6f 24 1d 3f da 3d a2 3f c2 ba 9c 3f 97 70 db 3e
       0.6138372 1.2675126 1.2244494 0.42859337
000030 4e 72 aa bf 30 f8 00 bf 38 ef 3f bf b5 b8 6d 3f
       -1.3316133 -0.50378704 -0.74974394 0.92859966
000040 9e 66 0b c0 97 bd 9a 3f a2 15 26 3f 23 97 87 bf
       -2.1781383 1.2089108 0.6487676 -1.0592998
000050 68 5e e8 bf c5 6c 3c 40 08 9c 60 bf d2 8e ea 3f
       -1.815381 2.9441388 -0.87738085 1.8324835
000060 32 07 26 bf d4 85 60 3e a3 86 6e bf e0 b3 9a bf
       -0.6485473 0.21926051 -0.9317419 -1.2086143
000070 8a 8b 6f 3f 6f f1 e5 bf 2b 32 ae 3f 97 cf 00 3f
       0.93572295 -1.7964305 1.360906 0.50316757

bottle_neck.0.conv_block.2.running_var f4 [32]
000000 d1 3a cc 40 38 58 b2 40 6b 78 d8 40 49 61 d8 40
       6.3821797 5.573269 6.7646995 6.7618756
000010 de d2 d1 40 ba fa ca 40 a3 d1 cc 40 1c 19 b0 40
       6.5569906 6.3431063 6.4005904 5.503065
000020 bf b7 f3 40 65 13 b5 40 c6 db b8 40 f6 29 db 40
       7.61618 5.6586175 5.776828 6.848872
000030 34 10 f8 40 36 d3 d9 40 b0 b9 d6 40 8b f0 c6 40
       7.751978 6.8070326 6.710167 6.216863
000040 97 d0 b2 40 2b c1 e9 40 4f 1d b7 40 d1 22 ef 40
       5.5879626 7.30483 5.7223277 7.473
000050 4b c6 bd 40 56 78 05 41 b3 46 c7 40 59 1b 00 41
       5.9304557 8.341879 6.2273803 8.006677
000060 86 a0 c2 40 e1 0d c7 40 d4 a0 9d 40 e8 23 ba 40
       6.082095 6.220444 4.9258823 5.816883
000070 34 bf db 40 7b e5 ba 40 95 14 ef 40 1e 84 c6 40
       6.86709 5.8405128 7.4712625 6.2036276

bottle_neck.0.conv_block.5.weight f4 [32, 32, 3, 3]
000000 76 d7 4f bd cc 1a 8d 3a 2a bd 92 3d d7 e9 05 bd
       -0.05074259 0.0010765432 0.071649864 -0.03269371
000010 10 a9 5e 3e ef 5c bf bc e7 fa 91 bd 1c bb d5 3d
       0.2174418 -0.023359744 -0.07127934 0.10436079
000020 70 cf 10 3e 26 3e 25 3e 02 73 44 bd ef ed db bc
       0.14141631 0.16136989 -0.047961242 -0.026846854
000030 f8 e9 a7 bd b5 71 36 be 69 57 0e be 17 a5 43 3e
       -0.08198923 -0.17816813 -0.13900532 0.19105946
000040 d3 3b 54 3c 37 8f 93 3d 11 cd dd 3d 30 5f 06 3c
       0.012953716 0.072050504 0.10830129 0.008201405
000050 5f eb 3b be 77 b0 3b bd 3d d8 4b 3e 9a c9 e2 3c
       -0.18351506 -0.045822587 0.19906707 0.027684022
000060 c7 52 5f bd e0 74 3d bc 22 2f 9b bd e3 03 45 3e
       -0.054522302 -0.01156351 -0.07577349 0.19239764
000070 63 d3 bb 3d 61 41 e8 3d 60 8b 98 bd 69 14 4d be
       0.09171178 0.11340595 -0.07448459 -0.20027317
000080 75 00 09 be 67 20 85 bd f4 a0 d2 3d a5 2b 9c 3e
       -0.1337908 -0.06500321 0.102846056 0.30502048
000090 ff e4 2d 3e fd 85 cf 3c 1e be 9b 3d 6f 34 25 bc
       0.16981886 0.025332445 0.07604621 -0.010083302
0000a0 a7 75 c6 bd 92 8d 0e 3e 7d 02 22 3d 18 75 98 3d
       -0.09690409 0.13921192 0.039553154 0.07444209
0000b0 73 1a 1f 3e 7e 4a 94 bd f5 3d 7b 3e 09 2e 08 3e
       0.15537433 -0.07240771 0.24535353 0.13298811
0000c0 7c 36 a8 3d 72 1d 8a 3d 40 83 50 bd 58 d7 55 bd
       0.08213517 0.067438975 -0.05090642 -0.05220732
0000d0 2a a4 9a 3e 43 06 16 3e 3d c9 9a 3d e4 c1 a3 3d
       0.30203372 0.14650826 0.075579144 0.07995966
0000e0 54 99 99 be cc 81 7b be f1 e3 b9 be 23 c4 d4 bc
       -0.29999793 -0.24561232 -0.36306718 -0.025972432
0000f0 87 cf b7 3d 14 34 df 3d cf 44 09 be 8d 7d fc bd
       0.089751296 0.10898605 -0.13405155 -0.123286344
000100 94 24 44 3d cf bb cd 3d 15 da 3c 3e 50 c4 37 3e
       0.047886446 0.10045587 0.18442567 0.17945981
000110 e7 be af 3c 07 f4 39 3a e3 8c b9 bb 3a 91 6d bd
       0.021453334 0.0007093553 -0.005662547 -0.057999827
000120 51 f3 31 3d 11 d7 2b be 3d 20 fb bd f9 21 3b 3e
       0.043444935 -0.1678126 -0.12262008 0.18274678
000130 c5 43 e3 bd 7d 32 69 3e c1 8a 2b bc 9c 65 27 be
       -0.110969104 0.22773166 -0.010470093 -0.16347355
000140 bf f1 83 be d8 3d dc 3d 4b 69 4d 3c 2a ae 4b 3e
       -0.25770375 0.10753983 0.012537311 0.19890657
000150 90 89 2c be 40 94 aa 3d 77 97 f5 bd d6 eb d0 3d
       -0.16849351 0.08329058 -0.1199178 0.10201232
000160 3a d3 25 3e 1d 9a 76 3e c5 af 10 3e 58 a8 70 be
       0.16193858 0.24082227 0.14129551 -0.23501718
000170 dd a2 4f 3d 89 fd 22 3e b5 d4 36 be 6d 0a 4d be
       0.050692428 0.15917028 -0.17854579 -0.20023508
000180 83 64 82 3e cb 7d 8c 3c ca c6 89 3e 44 9e 01 be
       0.2546731 0.017149827 0.26909477 -0.1265803
000190 1e a1 cd bc 07 53 39 be bf 1f ea 3d 04 b2 8a 3d
       -0.02510124 -0.18098079 0.11431836 0.06772235
0001a0 7d 2f 3b 3e 4a 24 65 3d a0 c3 90 bd 18 ae 37 bd
       0.18279834 0.05594281 -0.070685625 -0.044843763
0001b0 74 7d 03 3e c2 fb 4c bc a7 f6 a5 bd 34 9c 7b 3e
       0.12840825 -0.012511196 -0.08103686 0.24571306
0001c0 d9 72 fd 3d 1c 35 41 bd 31 8e 18 be 9f 35 ad be
       0.12375421 -0.04716979 -0.14897992 -0.33829972
0001d0 b4 b3 b9 bd e3 a4 9f bd 54 77 ab bd a2 9e 5e be
       -0.09067479 -0.077951215 -0.083723694 -0.21740201
0001e0 19 2c 58 3c c0 f5 9f be b8 9f 8a 3d 20 74 0d 3e
       0.013194107 -0.3124218 0.06768745 0.1381383
0001f0 5b 71 17 3c 0b 78 18 3d 0b 89 15 bc a4 70 01 be
       0.009243335 0.037223857 -0.009126912 -0.12640625
000200 2f f1 40 be 6a fd 64 be 07 16 74 3e 58 2c a3 bd
       -0.18842004 -0.22362295 0.23836528 -0.07967442
000210 5d e6 32 ba a1 25 d0 3d ad 29 a0 3d 23 6b 09 be
       -0.0006824488 0.10163427 0.07820449 -0.13419776
000220 ac 07 8e 3d 12 3b 24 be 17 d5 b6 3c 00 23 74 be
       0.06935057 -0.16038159 0.022318406 -0.23841476
000230 05 8b 5e bc 27 11 19 3e 54 6f 3b 3d 4e cb 95 bd
       -0.0135829495 0.1494795 0.045760468 -0.07314168
000240 65 86 8f bd 4a 83 a5 3d 24 bd 62 3e d1 36 20 be
       -0.070080556 0.08081682 0.22142464 -0.15645911
000250 c3 0d 48 3e 80 ce d0 bd b2 4f 38 be 47 29 75 bd
       0.195365 -0.10195637 -0.17999151 -0.05985382
000260 96 22 c2 3d 6c b5 04 bd f1 6f 18 be 5d fd 29 3e
       0.09479253 -0.03239958 -0.14886452 0.16600557
000270 08 4e 08 be b2 63 19 3e 9c 0f a2 bd 11 d6 6f 3c
       -0.13311017 0.14979437 -0.079131335 0.01463844
000280 9c e7 b3 bd 40 77 24 bd 21 3d 35 3d 52 17 d3 3d
       -0.0878441 -0.04015279 0.04424775 0.10307182
000290 e4 a6 2d be cf e6 1f be ea a5 47 bd 32 da f7 bc
       -0.16958195 -0.1561539 -0.048742212 -0.03025541
0002a0 67 47 08 3e 03 c1 1a be 2f 85 5e 3d 25 20 87 bd
       0.13308488 -0.1511269 0.054326233 -0.06597928
0002b0 e0 4d aa 3c 2a b1 12 bd ad 5e 6b be e7 ed 64 be
       0.020789087 -0.035813488 -0.22985335 -0.22356378
0002c0 5b 36 9e be 4d 79 20 bb 4f 64 c2 bd 1b 76 93 3d
       -0.30900845 -0.0024486363 -0.094917886 0.07200261
0002d0 a6 8d d7 3d c3 94 fd bd 10 19 20 3e 41 7e fe 3a
       0.10525064 -0.1238189 0.1563456 0.0019416289
0002e0 1f 9d 77 3e 63 a7 8f 3d 6e 2f 40 bd 6c cd 2e be
       0.2418103 0.07014348 -0.046920232 -0.1707055
0002f0 d9 96 f9 bd 70 e2 1a 3e f4 47 05 be 56 dd cb bd
       -0.12186975 0.15125442 -0.13015729 -0.09954326
000300 21 b3 8b 3d 74 fd 0e bd 81 0e fb bd 3e 05 13 3d
       0.068212755 -0.03490968 -0.12258626 0.03589367
000310 3f 29 e7 bd cf f2 9a bd 15 1b 35 3e 41 9e bd bc
       -0.11287164 -0.07565843 0.17686112 -0.02314675
000320 78 35 01 3e 5c ad ef bc ad e5 cd bd 02 b2 d5 bd
       0.12618053 -0.029257469 -0.10053573 -0.10434343
000330 f5 fb 11 3e fe a9 43 3d 77 e7 21 be d1 aa 50 3e
       0.1425627 0.04776954 -0.15810953 0.20377661
000340 bc 81 3e be 33 3b e6 3c 68 27 5d bd 70 48 2e be
       -0.18604177 0.0281044 -0.05399266 -0.1701982
000350 0d 6d 9a bd 27 f3 9c 3d f6 7f 49 bd 74 3f b0 3d
       -0.07540331 0.07663565 -0.0491943 0.08605853
000360 77 3e a3 3d d9 44 86 3d 21 86 f6 bd 93 7c 22 3c
       0.079708986 0.065561004 -0.12037302 0.009917396
000370 cb dc 28 be 1a c2 8a 3c 31 97 d3 bd d0 f5 6f 3d
       -0.16490476 0.016938258 -0.10331572 0.058584034
000380 fd 18 74 bd 6a 00 65 3e 6f 40 51 3e e6 c1 61 3d
       -0.059594143 0.22363439 0.20434736 0.055116557
000390 d3 17 96 bd 29 a9 36 be 4f 7f 20 bc 70 80 57 3a
       -0.07328763 -0.17837967 -0.009795978 0.0008220738
0003a0 86 44 d0 3d d8 e3 96 3c 61 e8 c3 bd e0 88 c1 3d
       0.1016932 0.018419191 -0.09565807 0.09449935
0003b0 af 8d 76 3c 1d a0 3b 3d 95 c0 c3 bd 92 dd 4e bd
       0.015048428 0.045806993 -0.095582165 -0.050504275
0003c0 51 7f 92 bd ef 55 60 be 01 30 0f bd 00 d0 e3 3d
       -0.0715319 -0.21907781 -0.03495789 0.11123657
0003d0 a4 fc c6 3d bf 79 ac 3c 20 95 11 bd 26 23 08 bd
       0.09716156 0.021054147 -0.035542607 -0.033236645
0003e0 5c bc 9a bd d0 ba 1f be b9 65 2a 3b 84 d9 81 3b
       -0.07555458 -0.15598607 0.0026000573 0.0039626975
0003f0 f2 08 03 3d 96 6c 8b be 4e 13 c2 3d a3 03 1c bc
       0.031990953 -0.27231282 0.09476338 -0.009522351

bottle_neck.0.conv_block.6.weight f4 [32]
000000 2d d5 6b 3f 29 6a 4d 3f 66 72 2b 3f 24 e3 41 3f
       0.92122155 0.8024011 0.66971433 0.75737214
000010 3d 35 74 3f c4 b5 53 3f 9b 19 55 3f 79 b8 73 3f
       0.95393735 0.8269923 0.83242196 0.9520336
000020 d6 bd 4d 3f f2 01 40 3f 69 30 53 3f 70 00 66 3f
       0.8036779 0.7500297 0.82495743 0.8984442
000030 05 19 40 3f d0 b1 6a 3f d0 6c 26 3f ac 6c 4b 3f
       0.75038177 0.9167757 0.65009785 0.79462695
000040 4b f8 37 3f e6 77 59 3f c5 c4 56 3f 7c bf 2d 3f
       0.7186324 0.84948575 0.83893996 0.67870307
000050 ce 22 3f 3f 4e bb 80 3f aa 10 77 3f 53 1c 80 3f
       0.7466248 1.0057161 0.965098 1.0008644
000060 4d 8c 22 3f 21 70 3c 3f 4c 3c 2c 3f ad f8 63 3f
       0.6349533 0.73608595 0.67279506 0.89051324
000070 3d a7 69 3f 19 70 74 3f ba 3e 52 3f 28 86 72 3f
       0.9127081 0.9548355 0.82126963 0.94735956

bottle_neck.0.conv_block.6.bias f4 [32]
000000 b3 cf 9b 3d 8e 07 05 be 73 53 e9 bc fa 50 52 3d
       0.07607975 -0.12991163 -0.028482175 0.051346757
000010 f0 38 c8 bd 1b d9 78 bd 21 48 2a 3b 4d d4 d7 bb
       -0.09776485 -0.060753923 0.0025982934 -0.0065865875
000020 ef 58 83 bd e9 d4 03 bb 59 1c 97 bc 19 71 70 3d
       -0.06413447 -0.0020115918 -0.018446134 0.05870161
000030 26 88 9e 3d 33 f3 2e be 24 65 8e bd 98 f1 80 3d
       0.07740812 -0.1708496 -0.06952885 0.0629608
000040 92 f5 16 3e 3a 3d 88 bd cd d3 76 3d 4c 79 94 bc
       0.14742115 -0.06652303 0.060260583 -0.018124245
000050 d4 7f b9 bc 04 0b 8b bd 40 8d 33 3e 0b 0a 4f 3d
       -0.022643961 -0.067892104 0.17534351 0.050546687
000060 3f 43 09 bd 94 f4 8c 3d 85 b5 04 3d 54 69 0f 3c
       -0.033511396 0.06882587 0.032399673 0.0087531395
000070 44 1a be bd 86 f8 05 be 38 4c 2a be 1b c3 f4 bc
       -0.092823535 -0.13083085 -0.16630638 -0.02987819

bottle_neck.0.conv_block.6.running_mean f4 [32]
000000 3d cb d0 3d df 4d 19 40 a8 11 18 40 01 8f 91 bf
       0.101950146 2.3953779 2.3760777 -1.1371766
000010 82 44 8d 40 13 5f b4 3f 5a ea 07 bf ce d9 32 3f
       4.414613 1.4091514 -0.5309197 0.69863594
000020 42 a7 59 3f 0b e8 3a c0 c6 18 48 bf 30 5c 03 3f
       0.8502084 -2.9204128 -0.781628 0.5131254
000030 7d 60 af 3f 9b ba e2 be e0 c7 a0 3f 3a 9b 67 40
       1.3701321 -0.44282994 1.2560997 3.6188493
000040 31 d5 5d 3f e9 89 46 c0 fe bd 5d 40 49 f4 2b bc
       0.8665343 -3.1021674 3.4647212 -0.010495254
000050 12 e7 5b bf d7 75 a0 bf 24 79 49 40 97 4b d3 3f
       -0.8589946 -1.2535962 3.1480188 1.6507443
000060 86 55 90 40 55 67 58 3e e6 fd a0 40 22 f4 06 c0
       4.51044 0.21133168 5.0309935 -2.1086507
000070 5b 37 53 40 2b 3d 17 c0 c3 fe 29 40 8b 5a b2 3f
       3.3002536 -2.3631084 2.6561744 1.3933882

bottle_neck.0.conv_block.6.running_var f4 [32]
000000 ec b3 1c 41 ed 55 04 41 39 bc 22 41 ac 16 37 41
       9.793926 8.270978 10.170953 11.443035
000010 b2 00 cd 40 76 63 11 41 b3 dd 3a 41 b3 ef 09 41
       6.406335 9.086782 11.679126 8.62102
000020 b1 52 ff 40 7f f6 3b 41 50 7e cb 40 cc 6b 3e 41
       7.978844 11.74768 6.359169 11.901318
000030 27 cc e6 40 10 3e 3c 41 07 2c 0d 41 4f 0d 16 41
       7.212421 11.765152 8.823249 9.378249
000040 12 4f 1c 41 26 59 e0 40 5d 36 de 40 35 e7 4a 41
       9.769304 7.0108824 6.944136 12.681447
000050 16 fc ca 40 a2 c9 c0 40 cc 01 ed 40 50 59 c3 40
       6.343272 6.0246134 7.4064693 6.1046524
000060 48 31 da 40 ba fb dc 40 ff c1 b8 40 95 2e 4f 41
       6.818516 6.9057283 5.773681 12.948873
000070 d8 af eb 40 ed aa 1d 41 1b f5 24 41 bf d5 bc 40
       7.3652153 9.85423 10.30984 5.901092

bottle_neck.1.conv_block.1.weight f4 [32, 32, 3, 3]
000000 c6 60 9d 3d 01 06 2f be 62 81 d2 3c 82 3d c7 3c
       0.07684474 -0.17092134 0.02569646 0.024321321
000010 48 d3 d0 bd a4 0a af 3d c5 d7 11 be 62 f5 23 be
       -0.10196549 0.085469514 -0.14242466 -0.16011575
000020 6c e0 22 be 54 3c 2e 3d be 5c 24 bd fe 25 e0 3d
       -0.15905923 0.042538002 -0.04012751 0.109447464
000030 27 01 33 3c f9 33 55 3d c7 76 2b be bc 6c 97 3d
       0.010925568 0.052051518 -0.16744529 0.07393786
000040 76 51 e2 bd 16 91 44 3d ba fd 47 3e 77 33 51 bd
       -0.11050694 0.047989927 0.19530383 -0.05107447
000050 60 ae de 3d b9 8a 33 3e 00 a4 a0 bc c2 2c b8 3c
       0.10873103 0.17533387 -0.019609451 0.02248228
000060 fa 4b e8 bc 46 dc 19 be c9 93 25 be 16 93 6b be
       -0.028356541 -0.15025434 -0.16169657 -0.23005328
000070 50 aa 07 be f0 96 69 be 9e 6e bb 3d 82 ff 9d 3d
       -0.13248563 -0.22811484 0.09151958 0.0771475
000080 44 99 e9 bd 79 dc 49 bd 55 5b de bc d9 9e e5 3c
       -0.11406186 -0.049282525 -0.02714316 0.028029846
000090 0f 93 1e bc 1a ec 8f 3d 48 4a ee 3d 8a db 03 bc
       -0.009678616 0.07027455 0.11635262 -0.008047948
0000a0 62 e8 e4 3d 45 35 73 bd e1 08 3e 3e dc 35 86 3d
       0.11177136 -0.059376974 0.18558075 0.065532416
0000b0 75 04 96 3a 6a 67 87 3e c6 67 9a bc 00 ba 05 3e
       0.001144542 0.26446086 -0.018848311 0.13059235
0000c0 fa e5 1c 3e d5 a9 76 3b 6a 67 70 bd b6 f6 37 3d
       0.15322104 0.003763785 -0.058692373 0.044913016
0000d0 c0 f4 34 be 35 56 cc bd 59 1b 80 3e b3 0f 5f bd
       -0.1767149 -0.0997738 0.25020865 -0.05445833
0000e0 ea e3 bc 3a e4 ca 6e 3e 14 98 20 bd cc 86 d0 3d
       0.0014411185 0.23319584 -0.039207533 0.101819605
0000f0 ee 38 9d bc f2 c9 5c be 39 6a 10 be 10 56 73 bd
       -0.019192185 -0.21561411 -0.1410302 -0.059408247
000100 7b a1 07 3d 36 ad f1 3d ca 61 81 be 20 32 0c 3e
       0.033112984 0.118006155 -0.2526992 0.13690996
000110 af dc 21 be e4 02 13 3d ed 1b 09 3d ca 9e 37 3e
       -0.1580684 0.03589143 0.033473898 0.17931667
000120 c9 7c 42 be 6c 0f 91 3d 3b a4 88 be f6 5b d6 3d
       -0.18992914 0.070830196 -0.26687798 0.10466759
000130 e6 9b 51 3c fc b5 c9 bb 25 45 27 3e 1e c7 0d 3e
       0.012793517 -0.0061557274 0.1633497 0.13845488
000140 98 ff e3 3c 78 5b d6 bd ac e8 1a be 84 9a 70 be
       0.027831838 -0.10466665 -0.1512782 -0.23496443
000150 00 0d 06 3e 80 b7 87 bd 0c 12 65 3d d4 9c f9 bc
       0.13090897 -0.06626797 0.055925414 -0.03047029
000160 dc a2 50 3d 10 9f be bb 38 19 0d bd d7 ba 01 be
       0.050936565 -0.0058173016 -0.03444788 -0.1266893
000170 32 a1 a1 bb 1d a7 79 be 2f 3e ca 3d c9 a6 2d be
       -0.004932546 -0.24380155 0.09875142 -0.16958155
000180 9d f0 36 3b 51 2a bf bd 2b 2b b4 3d 7b 0b c5 bc
       0.0027914413 -0.09334243 0.08797296 -0.024053326
000190 31 48 39 be f2 bd fe bd 15 1b 82 3d 84 34 44 3c
       -0.18093945 -0.12438573 0.06352822 0.011975411
0001a0 0f 58 ed bd 6d 0a 2f bd 4f 7d 88 3d 46 2a c7 bc
       -0.115890615 -0.042734552 0.06664526 -0.02431215
0001b0 f9 b0 2a bc b9 29 71 3e ca e6 cd 3d 00 8d 25 3e
       -0.01041817 0.23551072 0.10053785 0.16167068
0001c0 42 64 28 3e c4 e9 c2 bc fd 20 64 3e 50 10 76 3d
       0.16444495 -0.023793109 0.22278209 0.06007415
0001d0 78 1a 8c 3d 9d e5 21 bd d7 24 32 3d b2 85 0d 3e
       0.06840986 -0.039525617 0.043492164 0.13820532
0001e0 dd 41 87 be 38 db f4 3c fc ab 07 be 4a cc b9 3d
       -0.26417437 0.029889688 -0.132492 0.09072168
0001f0 41 ac 17 bc e5 9e ff 3d 9a 45 45 3b dd 65 ad 3d
       -0.009257377 0.124814786 0.00301013 0.084666945
000200 80 56 03 3b 05 f2 18 bc 8c 87 66 bd d1 a1 1f ba
       0.0020040572 -0.009335046 -0.05628161 -0.0006089481
000210 22 40 73 3c 3d fc 5e bd 9b 80 07 be 0b dd 10 3e
       0.014846833 -0.054439772 -0.13232653 0.14146821
000220 cf 0c 36 3e df e4 99 3e fc 2a 0d be 08 70 51 bc
       0.17778324 0.30057427 -0.13785928 -0.012783058
000230 eb 66 4a 3e af cd 85 3d af 77 a1 3d 9a c9 a4 3d
       0.19765823 0.06533372 0.07884156 0.08046265
000240 2c 92 27 bc 45 1d 87 bc e7 55 93 3e 0a 3d 3b be
       -0.010227721 -0.016493449 0.28776476 -0.18285003
000250 fa 45 75 bd f3 4d 4d 3e 9f c6 32 be 07 3b b3 3d
       -0.059881188 0.20049267 -0.1745858 0.08751493
000260 eb 93 0e 3d 79 8a c0 bb 11 f8 3e 3d 28 1f f8 3d
       0.034809034 -0.005875882 0.046623293 0.121153176
000270 95 45 2a 3d 47 99 a6 3d e9 19 35 bd 67 a3 1e be
       0.041570265 0.08134704 -0.044214163 -0.1549202
000280 ad 48 bc bd db 10 3b bd bb 6c 46 3e 45 41 28 3d
       -0.09193549 -0.04567037 0.19377415 0.04107787
000290 36 87 07 be 5e 23 cc 3d a8 c5 95 bd f8 a4 ff 3d
       -0.13235173 0.09967683 -0.073130906 0.12482637
0002a0 ab de 80 3d 3c 5c 05 3d fe e9 b2 3d 88 dc 0c bd
       0.062924705 0.032558665 0.08736037 -0.034390002
0002b0 56 f3 c5 bd ce b9 15 3b 85 a1 26 bc 00 ce bc bd
       -0.09665553 0.0022846344 -0.010170345 -0.09218979
0002c0 0a 71 10 3e 73 de 62 bc 23 a1 2e ba d2 13 f3 3d
       0.14105621 -0.013846981 -0.00066615845 0.11869015
0002d0 e6 aa ce 3b ed cf 86 3d 7e 7e 0e be a3 02 12 3e
       0.006306994 0.065826274 -0.1391544 0.14258818
0002e0 e0 88 03 bc 7f e7 ec 3d 6d c5 81 bd d7 a7 18 be
       -0.008028239 0.11567592 -0.06336484 -0.14907776
0002f0 cc e5 11 3d 1e 7b 01 3e 11 e2 af 3d 5c 26 c5 3e
       0.035619542 0.12644622 0.085880406 0.38505828
000300 4a 4c 09 be 64 89 44 be 2a 75 a2 3d b9 bc 1b 3d
       -0.13408008 -0.19193035 0.079325035 0.038021777
000310 6c 3b 29 be 09 0a 0c 3e 20 57 d1 bd 82 e6 d8 bc
       -0.16526574 0.13675703 -0.10221696 -0.026477102
000320 57 a4 c5 bb cc 84 0b bd 73 f8 4a 3e 7b bd 90 bb
       -0.0060315537 -0.03406219 0.19821338 -0.004417119
000330 ff 99 48 3d e3 c5 a9 3d eb ac f9 3d ed e5 60 3d
       0.048974987 0.08289697 0.121911846 0.054906774
000340 50 26 21 3e 04 ea 3c 3e 4c 7f 83 3c 53 7b 2c bd
       0.15737271 0.18448645 0.01605191 -0.0421098
000350 c1 39 2d 3e bd f7 25 3e 47 73 d1 3d 15 d2 c8 3d
       0.16916563 0.16207786 0.102270655 0.09805695
000360 5f e0 2f bd 0b d7 24 3e c0 98 0a 3c d9 34 9a 3d
       -0.042938586 0.16097657 0.00845927 0.07529611
000370 0d 2b 86 bc cd bc ca bc f2 ae 70 3d 7b 2b ff bc
       -0.01637795 -0.02474823 0.05876059 -0.031148663
000380 12 95 4f bd 09 e1 2b 3e a4 32 dd bc 33 ee ad 3e
       -0.050679274 0.16785063 -0.027001686 0.33970794
000390 97 bd 6a 3d 9c ee f5 3c 35 b8 d5 3d df 37 4a be
       0.057309713 0.030021004 0.10435525 -0.19747876
0003a0 2b 9f e2 bd 1d 21 c7 3c 5e 41 16 bc d6 f9 81 3c
       -0.11065515 0.024307782 -0.009170858 0.015866201
0003b0 0d a2 cc 3d 1d 0f 31 be 46 fc 0c 3b f8 6b 86 bb
       0.09991846 -0.17290922 0.0021512671 -0.0041022263
0003c0 7b 95 19 3e a1 ac a2 3d 7e 85 43 3e b8 eb fe bc
       0.14998429 0.079430826 0.19093892 -0.031118259
0003d0 04 1d cc bd 72 f7 50 be 03 0c 07 3e 52 6e 97 3d
       -0.09966472 -0.20406893 0.13188176 0.07394089
0003e0 84 c0 76 bc 86 f6 3a bd bc 67 1f bc 29 cd 32 bd
       -0.015060548 -0.04564526 -0.009729322 -0.043652687
0003f0 84 e3 65 3d c8 2c b1 3d 03 44 8e 3e 2f 98 25 3d
       0.05612518 0.086511195 0.27786264 0.040428337

bottle_neck.1.conv_block.2.weight f4 [32]
000000 78 1e 7c 3f 68 f8 75 3f c8 21 b1 3f 19 95 8d 3f
       0.9848399 0.9608216 1.3838434 1.1061126
000010 69 54 8e 3f 55 de 55 3f 8b 66 4e 3f 59 55 8c 3f
       1.111951 0.83542377 0.8062522 1.0963546
000020 77 28 62 3f 98 3a 2c 3f c5 5c 6a 3f fd 45 a1 3f
       0.88342994 0.67276907 0.91547805 1.2599484
000030 2a 4d 40 3f b4 81 93 3f 67 39 67 3f ca 40 87 3f
       0.75117743 1.1523957 0.90321964 1.0566647
000040 94 d3 92 3f f0 29 4f 3f db 89 75 3f 24 63 90 3f
       1.1470819 0.80923367 0.95913476 1.1280255
000050 44 28 8e 3f 53 f8 33 3f 70 99 75 3f 1f 6c 7a 3f
       1.1106038 0.7030079 0.9593725 0.9782123
000060 b3 17 7b 3f a3 38 8c 3f d4 15 80 3f 15 80 a3 3f
       0.9808304 1.0954784 1.0006661 1.2773463
000070 7e 6b 92 3f 8c a8 49 3f 92 2f 90 3f 87 53 82 3f
       1.1439054 0.7877281 1.1264517 1.018174

bottle_neck.1.conv_block.2.bias f4 [32]
000000 c8 cc 57 be e6 09 23 be a6 ed 87 bd 07 17 47 bd
       -0.21074212 -0.15921745 -0.06637125 -0.048605945
000010 e4 fd 09 bd 25 73 50 be 4f 8f 94 be 29 ad 56 be
       -0.033689395 -0.20356424 -0.29015586 -0.20964493
000020 81 d2 e8 be 59 f5 a5 be 62 99 a9 be 55 50 e3 bd
       -0.45473102 -0.32413748 -0.33124834 -0.110993065
000030 da dd c2 be 6e 11 47 be 78 6e 67 be 3f 1a 2b bd
       -0.38059884 -0.19440243 -0.22600734 -0.041773077
000040 63 a2 13 be d4 d9 a2 be fb 7a 89 be 2a 34 a1 bd
       -0.14417414 -0.31806815 -0.2685164 -0.07871278
000050 45 07 2a be 71 07 96 be b0 23 62 be d8 5f 4a be
       -0.16604336 -0.29302552 -0.22083926 -0.19763124
000060 8f c9 bb be e4 ff 9b be 25 e1 7c be dc 35 62 be
       -0.36677215 -0.30468667 -0.24695261 -0.22090858
000070 74 42 1b be 6c 3f a8 be c1 3c bb be a7 23 87 be
       -0.15162069 -0.32860887 -0.3656979 -0.26394388

bottle_neck.1.conv_block.2.running_mean f4 [32]
000000 9e 80 5d 3f d7 88 b3 3f 85 c8 9e 40 47 86 0d 3e
       0.8652438 1.4026135 4.9619775 0.13820754
000010 d8 34 ef 3e 57 56 24 40 32 56 0d 40 55 4f 6f 3f
       0.46720004 2.5677698 2.208386 0.93480426
000020 39 a4 32 40 be a1 45 bf 77 df a5 be 84 45 9a 3f
       2.7912734 -0.77199924 -0.32397053 1.2052464
000030 99 54 b0 3e 18 ad 06 40 73 5a e6 3f d8 55 de 3f
       0.34439543 2.1043148 1.7996353 1.7369947
000040 35 fd 89 3d ac d8 bc 3f 67 b6 06 40 45 cb 0f be
       0.067377485 1.4753623 2.104883 -0.14042385
000050 8c eb 07 40 96 89 e8 3f df 53 45 3f e9 9e 88 3f
       2.1237516 1.8166988 0.770811 1.0673496
000060 bd 26 0e 40 a3 a3 00 40 90 d4 44 3e 26 7e a2 40
       2.2211144 2.0099876 0.19221711 5.077899
000070 fa a0 88 3f 1c 90 41 bf f0 c2 8f 3f 24 6f cf 3f
       1.0674126 -0.7561052 1.1231365 1.6205792

bottle_neck.1.conv_block.2.running_var f4 [32]
000000 9d 0f 53 42 27 10 11 42 a7 4e 92 42 c6 7e 5b 42
       52.765247 36.265774 73.15362 54.873802
000010 4a d8 15 42 24 1d 50 42 57 eb 84 42 31 5f bb 42
       37.46122 52.028458 66.45965 93.68592
000020 6c cb 9a 42 79 b9 41 42 1f e2 13 42 c9 43 b4 42
       77.39731 48.431126 36.97082 90.13239
000030 26 9d 86 42 31 09 9f 42 08 b4 47 42 01 68 37 42
       67.30693 79.51795 49.92581 45.851566
000040 be 70 b5 42 15 8d 46 42 96 e3 8a 42 bd f6 9f 42
       90.7202 49.637775 69.4445 79.98191
000050 a9 58 8c 42 14 99 1f 42 2f 2d 0b 42 83 39 4f 42
       70.173164 39.89949 34.794125 51.806164
000060 d8 3d 92 42 e6 97 a5 42 e4 b5 ca 42 27 d0 97 42
       73.12079 82.79668 101.355255 75.90655
000070 7f fd 3a 42 05 82 5b 42 c9 0c 93 42 ee 76 5a 42
       46.747555 54.876972 73.52497 54.616142
