models/defG_epoch_40.pth (torch_old, 358184 bytes, 49 tensors)

encoder.0.weight f4 [8, 1, 3, 3]
000000 a8 29 9d 3c a0 29 86 3c 51 eb 67 3b 56 f5 2a 3c
       0.019184902 0.01637727 0.0035388062 0.010434469
000010 76 f8 87 bd 10 e8 83 bd ea 25 c6 3d 10 2d d4 3e
       -0.06639187 -0.06440747 0.096752 0.4144063
000020 af 5a 05 be a2 9f d8 3b 75 e3 96 3b 78 9e dc 3c
       -0.13022874 0.0066108266 0.0046047517 0.026931033
000030 89 03 d7 bc f6 cd 05 bb ad 43 91 3d ce 6b 56 3d
       -0.026246803 -0.0020416952 0.07092986 0.052348904
000040 7c e0 4a 3d 35 71 5c bf 4b 0d 08 3e 8d d7 ac bd
       0.04953049 -0.8611024 0.13286321 -0.084395505
000050 2f e4 09 be 5a fc c6 3d 01 1e b4 bd b5 8b f3 bd
       -0.13465951 0.09716101 -0.08794785 -0.118918814
000060 21 87 9a bd 27 a0 b9 bd 20 4a ff bd 63 da 76 3d
       -0.07545305 -0.0906375 -0.1246531 0.060266864
000070 25 47 93 3c b7 29 46 bf 9a 71 ea 3c 29 06 8b bc
       0.01797826 -0.774074 0.028618623 -0.01697071
000080 78 0d 7b bc 28 45 9b bb bb cc f4 bc 59 d7 7a 3c
       -0.015323035 -0.0047384687 -0.02988278 0.015310132
000090 52 0f 50 bc f8 15 c7 bb f0 7e 1d bc b2 b4 9c 3c
       -0.012698965 -0.006075617 -0.009612784 0.019129131
0000a0 ed f4 31 3d 72 c9 e4 3c de a9 93 3b 39 18 36 bf
       0.04344647 0.027928088 0.0045063337 -0.7113071
0000b0 5e b0 e6 3d c4 f7 90 bc c1 ea 31 3d 73 fa bd bd
       0.11264108 -0.017696269 0.04343677 -0.09276285
0000c0 d8 a6 b1 bd 62 e1 d2 3e 39 44 d5 3d 13 c2 b8 bc
       -0.08674401 0.41187578 0.10413403 -0.02255348
0000d0 78 c7 bb 3d 6d 64 07 be 9d 3b 08 bd ed c2 24 bd
       0.09168905 -0.13221903 -0.033259977 -0.04022496
0000e0 46 cf 94 bd ad 22 00 bd 85 98 a4 3d 01 67 0f 3e
       -0.07266097 -0.03128307 0.08036903 0.14004137
0000f0 25 90 37 be dc 8f ca 3e c3 c7 ef 3d c3 72 18 bd
       -0.1792608 0.3956288 0.117080234 -0.03721882
000100 31 4e a8 bb da 8e f9 bc b0 f7 ab 3e 94 43 1a 3c
       -0.0051362743 -0.030463625 0.33587408 0.009415526
000110 17 d9 21 be 9b cd ba 3d e4 59 4c bd 99 f5 da bd
       -0.1580547 0.091212474 -0.049890414 -0.10691375

encoder.0.bias f4 [8]
000000 bb 13 05 be c6 c5 4d 3e 07 55 6f 3e 18 1f b1 be
       -0.12995808 0.20094976 0.23372279 -0.34594035
000010 b2 d6 87 bc 45 9f 53 be 50 76 a1 3d 65 f6 8e 3e
       -0.016581867 -0.20666225 0.078838944 0.2792236

encoder.3.weight f4 [16, 8, 3, 3]
000000 cc 8d 18 3d 17 74 a7 bd 9b 74 2a be 73 59 48 be
       0.037244603 -0.08176439 -0.16646044 -0.19565372
000010 87 4b f0 bd 76 11 ac be 09 13 de bb ed 81 10 be
       -0.11733156 -0.33607072 -0.0067771715 -0.14112063
000020 99 96 82 be e0 15 62 bd ce b9 07 3e 72 b3 12 3e
       -0.25505522 -0.055196643 0.13254473 0.14326265
000030 94 77 d9 3d ef 0d 4c 3e b8 f8 cd 3d 1f 7c a6 3d
       0.10618511 0.1992719 0.10057205 0.08129143
000040 5b 3a 2c 3d 06 78 a2 3d ac 3d 32 bb 4d 6d 6f 3d
       0.04204784 0.07933049 -0.0027197404 0.058453847
000050 7e 04 ed 3d a5 56 06 3c 30 84 5c bd 95 d4 80 3d
       0.115731224 0.008199369 -0.053837 0.06290547
000060 5a e7 b5 3c 57 51 f5 bb d0 97 60 3e f4 d7 87 bd
       0.022205044 -0.007486503 0.21932912 -0.06632987
000070 84 35 f8 3d bf 1d 62 3d f7 4c 13 be 84 17 c8 bd
       0.12119582 0.05520415 -0.14384829 -0.0977011
000080 6d 56 38 bd 71 d9 8d bd 2d 63 f5 3d bc 69 f8 3d
       -0.045004297 -0.06926239 0.11981807 0.12129542
000090 b5 9b ba 36 da cf b0 3a 8e d5 1c 3e 6c 99 51 3e
       5.5613586e-06 0.0013489679 0.1531584 0.20468682
0000a0 a2 06 01 3e 0f 46 ff 3d 58 6f e6 3c 64 f5 95 3d
       0.12600186 0.124645345 0.028129265 0.07322195
0000b0 e5 6e 2e bd a8 c5 4b 3b bb ac fb 3d a1 69 0b 3e
       -0.042586226 0.0031093154 0.12288805 0.13614513
0000c0 77 a8 94 bc 1c 76 55 bd a0 6d 8e 3d 3b f4 37 be
       -0.018146737 -0.05211459 0.06954503 -0.1796426
0000d0 ad 19 65 be 67 bd 1a be 90 d1 20 3d 6c 70 91 bc
       -0.22373076 -0.15111314 0.039262354 -0.017753802
0000e0 c7 7a 31 3e 48 4c f5 bd 38 af 83 be 2d 8f 8a bd
       0.17331992 -0.1197744 -0.2571962 -0.0676559
0000f0 ce 51 12 bd 79 a3 ef bd 24 18 c0 be 3b 7d 26 bd
       -0.035722546 -0.11701102 -0.37518418 -0.040646773
000100 0e 7a e4 3c cc 46 0d ba da 70 8b 3d 14 70 17 3d
       0.027890231 -0.00053892727 0.06808634 0.03697212
000110 ff 77 51 bd 93 c2 aa 3b 9a 2d 5c bd 31 8b 2d be
       -0.051139828 0.0052111833 -0.053754427 -0.16947629
000120 46 60 f6 bd 97 7d 01 bd fc cd 23 3e 06 aa cf bd
       -0.120300815 -0.031613912 0.15996546 -0.10139851
000130 48 c0 bc 3c 9f a6 20 3e 41 33 d1 bd 44 42 ad bd
       0.023040906 0.15688561 -0.10214854 -0.08459905
000140 f9 7b c2 bd 6a e7 e0 bd a5 ea c5 3d 0d 13 c9 3d
       -0.09496302 -0.10981639 0.096638955 0.09818087
000150 a5 46 f5 3d 45 7d ef 3d 83 f2 22 3e e5 8f a8 3d
       0.11976365 0.11693815 0.15912823 0.08230571
000160 5f a8 e9 3b 73 4f aa 3d 47 f8 9e 3b eb 3e a7 3c
       0.007130667 0.08315935 0.0048513743 0.020415744
000170 74 40 0b 3d bc 1d d1 3d 8e 67 e0 3d 5a 2e 29 3e
       0.033997014 0.102107495 0.109572515 0.16521588
000180 de 3f 1d 3e 11 83 27 3e 69 ee 06 3e c1 ee 1d 3c
       0.15356395 0.16358592 0.13176884 0.009639443
000190 0f e2 84 3d ed 22 91 3d 76 73 61 be f5 0d 93 bd
       0.0648843 0.0708674 -0.22016701 -0.071803965
0001a0 b1 ac e4 bd 42 5f 80 bd fc c6 f4 3d 4d a0 d3 3d
       -0.11165751 -0.06268169 0.11952016 0.10333309
0001b0 33 b7 0c bd da c8 99 bd d5 4e 02 3e bb 7f 21 bd
       -0.0343544 -0.075090125 0.12725385 -0.039428454
0001c0 f3 2f 03 3e 3a 27 af 3d 72 00 bc bc 8d 8d a2 3d
       0.1281126 0.08552404 -0.022949431 0.07937155
0001d0 dd 52 a8 bc 62 9c 1a be f5 91 ff bc 83 0a d0 3d
       -0.020547325 -0.15098718 -0.031197527 0.10158255
0001e0 52 e2 89 bd 9d 24 ea 3d 98 9a 88 3e 56 56 77 3a
       -0.0673262 0.11432765 0.26680446 0.00094351673
0001f0 0c 45 e0 3d 12 79 6e 3e 1e 70 45 bd 25 b5 18 3e
       0.1095067 0.23288372 -0.048202626 0.14912851
000200 f5 c3 94 3e c4 37 41 bd e1 a6 1b 3e 60 f9 83 3e
       0.29055753 -0.047172323 0.15200378 0.25776196
000210 de 1e 0f 3b e4 21 2c 3c 45 8a a2 bc fc ff e0 bd
       0.0021838467 0.010506127 -0.019841323 -0.10986325
000220 59 d7 17 be 47 e8 da bd 2e f4 0a be 12 4e af bd
       -0.14828242 -0.10688835 -0.1356971 -0.085598126
000230 a0 91 ed 3d 73 be 5d bd f0 1e 69 bd 71 75 00 3e
       0.116000414 -0.054136705 -0.05691427 0.125448
000240 17 40 e5 bd c2 ea 93 ba 18 b7 5a bd fa 2b b2 3c
       -0.11193865 -0.0011285173 -0.053397268 0.021749485
000250 81 ee 29 3d 2d e6 84 bd 2f 49 9f 3d 3e f0 6d bc
       0.04148722 -0.06489215 0.077776305 -0.01452261
000260 f4 a4 69 be e0 08 0f 3e b9 c2 c7 3d ec 19 99 3d
       -0.22816831 0.1396823 0.09753937 0.07475647
000270 c8 6f ff bc aa e1 62 be fb ef 17 be 69 cb 76 be
       -0.031181231 -0.22156397 -0.14837639 -0.24101032
000280 c7 10 e0 be 2a bd 73 be 10 71 88 3d fa 9f ce 3c
       -0.437628 -0.23802629 0.0666219 0.025222767
000290 ba d1 36 bc 35 9d ba 3d 8e 1b 12 bc c3 53 4a 3d
       -0.011158401 0.09112016 -0.008917702 0.049396288
0002a0 31 66 c3 3c 8f 88 0e be 74 4d 64 bd ce 54 38 3e
       0.02385244 -0.1391928 -0.055737928 0.180011
0002b0 78 05 bd 3d 2c 1a 10 3c 7b eb 27 3e 83 23 ae 3d
       0.09229559 0.008795302 0.16398422 0.08502867
0002c0 a7 eb 28 3d e7 e5 fa 3d 6e 82 aa bb d2 2a 95 3c
       0.04124036 0.12250882 -0.0052035367 0.018208895
0002d0 97 7c 76 3e 62 c9 0b 3e a0 ff 4c 3d 9e 9c 04 3e
       0.24070965 0.1365104 0.05004847 0.1295037
0002e0 61 35 fa bb 78 53 b7 be cf 49 b8 bd cf 13 41 be
       -0.007635758 -0.3580587 -0.08998453 -0.18855213
0002f0 11 8c ed be 07 53 93 bc cc fe 4b bc 49 16 98 3d
       -0.46395925 -0.017983926 -0.012450885 0.074261256
000300 bc a6 cb bc 7b 82 a0 3d 67 8b f5 bc 47 75 3b bb
       -0.024859779 0.07837387 -0.029973699 -0.0028603838
000310 81 ba 18 be ab be 43 be 33 c9 25 bd 09 95 11 bd
       -0.14914896 -0.19115703 -0.04047508 -0.03554252
000320 5e d2 64 3d 96 1c 9f bc b7 31 d7 bd 73 f9 13 be
       0.055864684 -0.01942281 -0.10507529 -0.14450626
000330 20 e4 36 bd 20 e1 3c be 1e df a2 be 59 3a 80 3d
       -0.04465115 -0.18445253 -0.3181085 0.06261129
000340 0f 2e c6 bb d4 4d cf bd dc ee f7 bd 39 04 98 3c
       -0.006047971 -0.101222664 -0.12106106 0.018556701
000350 76 8f 89 3b 13 b5 86 bd 8a 62 a2 3d 7f d4 b1 3a
       0.00419801 -0.06577506 0.07928951 0.0013567357
000360 2f 36 1f 3d ac 49 3c bd e1 ef a4 bd aa 9f 62 be
       0.038870033 -0.045968696 -0.08053566 -0.2213122
000370 75 9d 93 be e2 3d 80 be 33 ea b4 bb b8 f1 80 bd
       -0.28831068 -0.25047213 -0.005521083 -0.06296104
000380 25 f7 07 be 66 99 c2 3b e0 35 94 bd c9 ca ab bd
       -0.13277872 0.0059386967 -0.07236838 -0.083882876
000390 9e 23 d5 bd 73 d8 23 be e6 36 1d 3e 39 75 24 3d
       -0.10407184 -0.16000538 0.15352973 0.040150855
0003a0 4d c0 5c 3e b2 e1 83 3e e8 26 61 3d 38 b8 94 bd
       0.21557732 0.2575813 0.054968745 -0.072616994
0003b0 73 30 35 3b c1 4e a8 3d 04 ce 1d 3d f4 92 15 3d
       0.0027647286 0.08218146 0.03852655 0.0365171
0003c0 44 a8 ff 3d 51 2d c8 3c fd 0c 15 3e b0 67 be 3c
       0.12483266 0.024435671 0.14555736 0.023242801
0003d0 b4 83 ea bd 0e 01 50 bd 29 8b 0e be 10 df cd bd
       -0.11450902 -0.050782256 -0.13920273 -0.100523114
0003e0 8d 48 29 be bd ae 84 bd 44 e3 0d be 10 b8 c0 bd
       -0.16531582 -0.06478641 -0.13856226 -0.09410107
0003f0 24 57 8e bd 34 4c 35 bd 6f 70 86 bd 48 e6 83 bd
       -0.069502145 -0.044262126 -0.06564414 -0.06440407

encoder.3.bias f4 [16]
000000 65 f1 79 be a7 26 64 be a8 f2 50 3d f1 c8 f2 3c
       -0.24408491 -0.2228037 0.051012665 0.029636832
000010 98 c3 fc bd 69 53 be 3d e5 90 d1 bd 99 17 47 be
       -0.12341994 0.09293253 -0.102327146 -0.19442596
000020 61 52 d0 3c 0e 83 6f bd ea d0 28 3c 54 63 31 be
       0.025429906 -0.058474593 0.010303715 -0.17323047
000030 f1 35 3c bd 5b 9e 9b be 1f 99 60 3c 7c d0 06 be
       -0.04594988 -0.30394253 0.013708382 -0.13165468

encoder.6.weight f4 [32, 16, 3, 3]
000000 14 80 cd bd 66 0c 6b 3d ba db 4c 3e bb 2c 02 bd
       -0.100341946 0.05738487 0.20005694 -0.03178094
000010 3f ee 36 bd 46 2e 4d 3d db f3 31 3c 85 ef 9c be
       -0.044660803 0.050092958 0.010861362 -0.3065149
000020 48 e5 02 be 0e 30 6f 3c 03 46 6d bb 95 6d 96 3c
       -0.12782776 0.0145988595 -0.003620506 0.0183628
000030 d9 04 00 3e fd 72 0d 3e cd d8 31 3b ab 44 2e 3d
       0.12501849 0.13813396 0.002713728 0.042545956
000040 05 c0 40 bb 9f 37 64 bd bc 09 58 3e 18 3d 0b 3e
       -0.0029411328 -0.055717107 0.21097463 0.13597524
000050 62 ea 14 3e f2 47 af bc f4 8b cb 3d c3 86 00 3e
       0.14542535 -0.02139661 0.09938803 0.12551408
000060 9f 24 71 be 25 0c 46 be 08 6c 7e bc a2 22 03 bc
       -0.23549126 -0.1934057 -0.015528686 -0.008003863
000070 e7 d7 ca bc 50 44 d8 3d 2a 4a 92 3b 7f e9 7b bd
       -0.024761153 0.105599046 0.0044644075 -0.061501976
000080 b0 12 09 3c e0 a4 43 be 5a 06 7f be 5c 22 02 bc
       0.008366272 -0.19105864 -0.24904767 -0.007942762
000090 6c 50 bf 3d 93 0d 3b 3d 84 50 59 3d 20 97 9f 3d
       0.09341511 0.045667242 0.0530553 0.07792497
0000a0 eb 58 58 3e 45 c5 bb 3d d5 c7 8e 3c a7 3a 82 3d
       0.2112767 0.091684856 0.017429272 0.06358843
0000b0 93 d6 62 bd 2c f1 1a 3e a2 b7 16 3e db ba 22 3e
       -0.055380415 0.15131062 0.14718488 0.15891592
0000c0 e4 2a 80 bd bb b5 8d bd a6 e3 d6 3c 4a 0c e8 bb
       -0.06258181 -0.06919428 0.026231598 -0.007081543
0000d0 a4 bf d2 bd 0d 39 08 bd c7 77 b0 3d ce bc 66 3c
       -0.10290459 -0.033257533 0.08616596 0.0140831005
0000e0 2b 93 04 3e 56 4a f3 bd 04 83 2e be 8d 2e bc bd
       0.12946765 -0.11879413 -0.17042166 -0.09188566
0000f0 bb 62 7f 3c d1 dd 95 3d 89 24 b3 bd 55 a5 0b 3d
       0.015587504 0.07317699 -0.08747203 0.03409322
000100 ed 4a 34 bd 24 b7 3f 3d 63 f8 b9 bd af 3f e1 3d
       -0.044016767 0.046805516 -0.09080579 0.10998475
000110 57 33 7d 3d e6 f5 d6 bc 56 8f ac 3d e2 4d c4 bc
       0.06181654 -0.0262403 0.08425777 -0.023962919
000120 65 48 08 be e0 b6 c5 bc 43 88 74 bd 2c 82 0b 3e
       -0.13308866 -0.024135053 -0.05970026 0.13623875
000130 ba f1 fb 3d af 90 4e 3e cc f8 94 ba 8b c8 0d 3e
       0.12301965 0.2017238 -0.0011365651 0.13846032
000140 c9 10 07 3e 98 67 99 bd f6 63 9a 3d d8 58 cb 3b
       0.13189997 -0.07490462 0.07538597 0.0062056594
000150 8c a5 0d 3e fa 09 8b 3e 98 90 8d 3e 09 71 3c bc
       0.13832682 0.2715605 0.2764938 -0.011501559
000160 15 3a 32 be 9e f5 f9 bb 79 08 88 bc 24 a3 87 bd
       -0.17404969 -0.007628157 -0.016605603 -0.066229135
000170 ae e6 bc bd fe 39 80 3c d4 25 e4 3b 98 27 63 3d
       -0.09223686 0.015652653 0.0069625173 0.05545768
000180 59 f0 86 3d 5f bd 9c bd bc 58 f3 bc 16 b7 1a 3d
       0.065888114 -0.07653307 -0.029705398 0.03777226
000190 ef 19 1c 3d d8 62 d3 3c 45 b0 97 3d 73 0e a8 3e
       0.03811067 0.025803968 0.074066676 0.32823524
0001a0 a4 1e 24 3e f5 12 06 bd fd 20 0c bd 01 59 d8 bd
       0.16027313 -0.032732923 -0.034211148 -0.10563851
0001b0 bb 66 0e bc 96 cd 8f bc cb 3c b5 3d f1 8a 41 3e
       -0.008691485 -0.017554086 0.08849486 0.18900658
0001c0 2e 1a 95 3e 5e a1 99 3e 1d 55 5c be da 16 ad be
       0.29121536 0.30005926 -0.21516843 -0.33806497
0001d0 6e 4a cb bd 2c 58 61 3d 30 be 60 3d b1 7d 20 bd
       -0.09926306 0.055015728 0.054868877 -0.03918237
0001e0 97 1f 1e 3e 41 59 6a 3e 68 53 0e 3e 3b 2c 2a 3d
       0.15441738 0.2288561 0.13899004 0.041546088
0001f0 f9 10 30 bd 5f 9a 6a bd d4 9a 11 3e 96 a7 f7 bb
       -0.042984936 -0.057276126 0.14219218 -0.0075578196
000200 2b 54 4b bd 00 7b 6f bd a1 b5 a7 3d e2 67 34 bd
       -0.049640816 -0.05846691 0.0818894 -0.044044383
000210 7d ad 66 bd 66 0f 1d 3e be 5d 18 3e 07 fd 47 bc
       -0.056317795 0.15337905 0.1487951 -0.0122063225
000220 21 6a 02 3e 15 65 35 3e 0f 34 bf bd 87 cb d1 bd
       0.12735797 0.17714341 -0.09336101 -0.10243898
000230 6c 52 c4 3d 1d 22 a7 3d 99 3b 7d be 51 82 4e be
       0.09586033 0.081608035 -0.24729766 -0.201669
000240 18 3a be 3c 64 3d e4 bb a8 42 4e 3d 7d 82 cf bd
       0.02322106 -0.006965326 0.050356537 -0.101323105
000250 76 09 7a be 92 5a d7 3d e1 f8 03 bd e3 3f 4e 3e
       -0.24417672 0.10515322 -0.03221977 0.20141558
000260 15 0b 91 3e 35 d8 ce bb 74 ab 32 be ef a8 bb bd
       0.28328767 -0.006312395 -0.17448217 -0.09163081
000270 16 4e 1c 3e d4 0f 80 3d cf 92 2e bd 71 89 db 3d
       0.15264162 0.06253019 -0.042620476 0.10719574
000280 e3 39 f5 bd d2 15 80 bd 41 8a a2 3d 30 91 d9 bc
       -0.11973932 -0.06254162 0.07936526 -0.026558489
000290 50 e0 dc bd 41 c5 41 3e 54 5a e9 bc 47 64 ed 3b
       -0.10784972 0.18922903 -0.028485455 0.00724462
0002a0 03 18 14 be b0 8b eb bd 03 69 8e 3d 56 76 85 bd
       -0.14462285 -0.11501253 0.06953623 -0.065167114
0002b0 80 ef 68 3c af 6b 81 ba f6 64 a5 3b fa 29 47 bc
       0.0142172575 -0.0009874011 0.005047436 -0.012156004
0002c0 53 17 55 3d 2a 46 21 bd d3 a4 a4 3d ba e0 23 3d
       0.052024197 -0.039373554 0.0803925 0.040009238
0002d0 8e 9d 9e 3d 37 56 0a 3e 03 02 1e be 56 b5 86 3e
       0.07744895 0.13509451 -0.15430455 0.26310223
0002e0 37 bc 2c 3c da c5 ed bd 83 c1 42 3e 48 dc dd 3c
       0.010542921 -0.11610003 0.19019131 0.027082577
0002f0 af f0 36 bd bc f5 c8 3d b5 cf d7 bb 62 d8 4e be
       -0.044663128 0.09812495 -0.00658604 -0.20199731
000300 95 c1 54 bc 3d bc e4 ba f8 ff cb 3d b7 76 66 3a
       -0.012985607 -0.0017451119 0.099609315 0.00087914936
000310 86 87 c7 3b 0f 87 89 3e 95 4e b7 bc 48 c4 83 3d
       0.0060891537 0.26860854 -0.022376338 0.06433922
000320 19 f7 61 bd 52 5a 57 be 5c 65 7c bc 4a be 88 3d
       -0.05516729 -0.21030548 -0.015405025 0.0667692
000330 7b ac 4d bd 51 ce 48 3c bb 4c 94 3d 6a 54 8d bd
       -0.05021332 0.012256221 0.07241198 -0.06900866
000340 3e a0 4d bd 8f b7 39 3d 10 b1 0e bd 7f 55 b3 3d
       -0.050201647 0.04534107 -0.03483683 0.087565415
000350 73 86 cb 39 b5 f4 5c 3d ec 9a 39 3e bc 39 ec 3d
       0.0003881935 0.05394431 0.18125504 0.115344495
000360 31 0e 27 be d4 1f db bd ff a2 93 bd 73 f9 42 bc
       -0.16314007 -0.1069943 -0.072088234 -0.011900294
000370 c9 df 54 bd ce bb ba 3c b9 ca c6 3d 44 1e 67 3d
       -0.05197123 0.02279463 0.09706635 0.056425348
000380 36 3c be bd d4 9f c2 38 e5 52 4d be 62 a1 33 be
       -0.09288828 9.280411e-05 -0.20051153 -0.17542031
000390 0a e8 5c 3e f2 85 03 be 4e 71 8b be 77 72 e1 3c
       0.21572891 -0.12844065 -0.27234882 0.027520401
0003a0 6f 50 18 bd 1a 19 22 be b1 2a 4d 3d 05 00 65 bd
       -0.037186082 -0.15829888 0.05008954 -0.05590822
0003b0 d3 49 5d be 1f f9 68 3d 71 b5 ef bd a9 19 5a be
       -0.21610193 0.056878205 -0.11704529 -0.21298851
0003c0 27 67 16 3e f9 27 44 bd f3 e2 0a be 47 93 9e bd
       0.14687787 -0.047889683 -0.13563137 -0.07742935
0003d0 99 65 df bc 37 ce 5b bd 00 5a 4f 3e fc 24 4e 3e
       -0.027270125 -0.05366346 0.20249176 0.20131296
0003e0 54 35 6c bd a1 da 1a 3e f4 04 11 3e db e1 30 bd
       -0.057668045 0.15122463 0.14162046 -0.043184143
0003f0 21 94 9d bc 76 5e aa bd 04 80 87 be 10 1c 90 3e
       -0.019235672 -0.08318798 -0.26464856 0.2814641

encoder.6.bias f4 [32]
000000 50 2b 6b 3d 7d 38 05 3e 59 91 37 3c e8 81 83 3e
       0.057414353 0.1300983 0.011204087 0.25685048
000010 82 ba bf 3d bd ec 8f be 85 b8 4f 3e 6b 66 9a bd
       0.093617454 -0.28110304 0.20285232 -0.07539066
000020 0b 03 07 3e 5d 0c 25 ba 7b 72 97 3c 81 dd b9 3d
       0.13184755 -0.0006296093 0.018487206 0.09075452
000030 bf e6 8f 3e a1 f6 d4 bc be a5 9e bd ee bd d6 3b
       0.28105733 -0.025996508 -0.077464566 0.006553403
000040 61 e9 b8 3d 8e e0 cc 3d 30 7e 74 3c 36 5b b7 bd
       0.090288885 0.10003768 0.014922664 -0.08952944
000050 e8 eb 2f 3d c1 63 03 bc 4c b0 0d 3e be 36 b0 bd
       0.042949587 -0.008019389 0.13836783 -0.08604191
000060 ea 1e 07 3d 26 90 13 3e ce ae 74 be e1 1c b5 bc
       0.032988466 0.14410457 -0.23894808 -0.022108497
000070 fe d6 23 bd 0c e9 3a 3d 10 50 47 3e 68 df 59 be
       -0.039999954 0.045632407 0.19464135 -0.21276629

bottle_neck.0.conv_block.1.weight f4 [32, 32, 3, 3]
000000 5f 27 a7 bd 36 35 35 3d 65 29 4d bd 74 c4 9f 3d
       -0.08161806 0.0442402 -0.050088305 0.07801142
000010 dc df b0 3d 6f dd 8f bd 76 24 e7 3d d6 63 b0 3d
       0.08636448 -0.07024657 0.11286251 0.08612792
000020 94 ab e1 3d fc 8b 6f bd b1 d8 81 3d a2 af 19 be
       0.11019054 -0.05848311 0.06340159 -0.15008405
000030 29 4c ec 3d 87 67 7b 3c dc 63 d3 3d 42 d9 32 bd
       0.11537964 0.015344507 0.10321781 -0.043664224
000040 3b 9a f2 bc 63 4a 41 3b bd 10 a0 bd 2d 60 ed 3d
       -0.029614558 0.00294938 -0.078156926 0.1159061
000050 f6 52 eb be d1 c3 de 3d 20 b0 ba 3d 53 50 1a 3e
       -0.45961732 0.10877193 0.091156244 0.15069704
000060 ca e8 0f bd eb ad 01 3e 8b 6b 92 be 91 d9 1c bd
       -0.035134114 0.12664 -0.28597674 -0.038293425
000070 c6 60 31 3e f8 fa e6 3d b8 bf 43 3e 8e 22 9e 3c
       0.17322072 0.11278337 0.19116104 0.019303586
000080 60 a0 c4 bd af fe cc 3d d4 b8 01 3c bc 83 9b bd
       -0.096009016 0.100095145 0.007917602 -0.07593486
000090 46 1a bd bd f4 53 af 3d 1a 18 ac bb db 84 bf bd
       -0.09233527 0.08560935 -0.0052518966 -0.09351512
0000a0 bd 3d 44 bd c1 4d 77 3d d0 89 33 be c9 34 99 bd
       -0.04791044 0.060376886 -0.1753304 -0.07480771
0000b0 34 98 0e 3e b2 47 84 bd c7 95 04 3e f0 d7 5d be
       0.13925248 -0.06458987 0.1294776 -0.21664405
0000c0 1b 3f 28 be 47 bd 75 3d 7e 1b ef 3d 75 01 cc 3d
       -0.16430323 0.059994962 0.116751656 0.099612154
0000d0 44 f8 e3 3d 07 9b 3b bd b3 9a ba 3d 65 c2 fc bd
       0.11131337 -0.045802142 0.09111538 -0.12341765
0000e0 9b 9c 04 bd 05 cd 6d bd 3f cd b9 3b 6a cf 27 be
       -0.032375913 -0.05805685 0.005670219 -0.16387716
0000f0 b4 7f ee bd 64 18 ce 3c bf 76 a5 be 11 55 8d bd
       -0.11645451 0.025158115 -0.3231716 -0.06900991
000100 5b ed d9 3d 2c 6f 1b be 20 71 88 bd 30 c3 e9 bd
       0.10640975 -0.15179127 -0.06662202 -0.11414182
000110 61 dc 28 3c 37 37 2b 3e 93 6b 06 3e 13 7e 05 3e
       0.010306449 0.16720282 0.13126974 0.13036375
000120 f5 da da bd 7c 8d 52 bd a4 09 91 3d 5f 6a 91 bc
       -0.10686294 -0.05140446 0.07081917 -0.017750917
000130 22 48 b4 3d 2c 0a 66 be f8 65 c1 3c 33 ca 77 3c
       0.08802821 -0.22464818 0.023608193 0.015123892
000140 bd 68 5d 3d 97 79 3b 3d 2c 08 c6 bd 73 7e 2c 3e
       0.054054964 0.045770254 -0.096695274 0.16845112
000150 50 3d 8c bd e5 69 07 3d a2 df 98 be 6e 95 ce bd
       -0.06847632 0.033059973 -0.29858118 -0.10087095
000160 8f 62 8a 3d c9 97 eb bd 48 f8 9a bd 44 ef bd 3b
       0.0675708 -0.1150356 -0.07566887 0.005796345
000170 ac aa b6 bd 8d 00 25 bd 9a a4 be bd b3 30 80 3d
       -0.08919272 -0.04028373 -0.09308739 0.06259289
000180 5a 3c a3 bc 7c e3 05 be b0 ac 11 be d5 48 7b bd
       -0.019926239 -0.1307506 -0.14226031 -0.061348755
000190 d5 6e 4e 3e 3c 1e c4 bc 51 05 d9 3d c0 92 fa 3d
       0.20159467 -0.023940198 0.10596717 0.122350216
0001a0 4b e3 3f be 8a 1e 3b 3d 57 1d 78 bc e1 5d 91 3d
       -0.18739049 0.04568342 -0.015143714 0.07097984
0001b0 7a 4b 85 bd e5 25 19 3c 92 30 8a bc bf be 82 bd
       -0.06508537 0.009347414 -0.016868863 -0.06384038
0001c0 b0 0e 38 bc 1c ad b2 3c da b5 57 3c d7 15 4d 3e
       -0.0112339705 0.02181106 0.013165915 0.20027862
0001d0 20 36 ea 3d 29 da 1e be d7 dd 8e 3c 39 a5 2b be
       0.11436105 -0.15512909 0.017439766 -0.16762246
0001e0 0c a4 41 3e fd 53 5c 3c bb a3 36 3e f7 62 56 be
       0.18910235 0.013447759 0.17835896 -0.2093619
0001f0 3d 53 45 ba 3e 00 05 3e 4b 5e 8a 3d c4 81 bf bc
       -0.0007527357 0.12988374 0.06756266 -0.023377307
000200 6e fb 18 be f8 34 56 3d ee ca 16 3e 4c 05 d1 3d
       -0.14939663 0.05229661 0.14725849 0.102060884
000210 19 50 ec 3c 79 63 f8 3c 9e 2d 25 3c cb f4 d1 3d
       0.028846787 0.03032087 0.010081677 0.10251769
000220 1f 90 d1 bd e7 cc 56 3d 0a 99 19 3e 87 b1 bc 3d
       -0.10232567 0.052441504 0.14999786 0.09213548
000230 01 3b f9 3d 24 8a 81 bd e8 35 90 bd e7 0e 8b 3e
       0.12169457 -0.06325176 -0.07041532 0.27159807
000240 11 36 18 3e 8d 8a c7 3c ba 51 03 3d 0d c6 6d be
       0.14864375 0.024358058 0.032060362 -0.23220082
000250 50 e2 db 3d 0d 49 10 bd 08 ee da bc c2 30 cb bc
       0.10736525 -0.035225917 -0.02672483 -0.024803523
000260 62 d0 82 3d 00 0a ca 3d 5f 8f ab bd 48 2f 33 3e
       0.06387402 0.098651886 -0.08376955 0.17498505
000270 6c 7e 12 3e f0 16 b0 bb 85 1f 09 3d b1 aa 00 3b
       0.14306039 -0.005373828 0.033477325 0.001963299
000280 22 50 8f bd 89 09 c2 bd e4 88 7a be dc f2 9a bc
       -0.06997706 -0.09474475 -0.24466282 -0.018914632
000290 bd 81 99 bd 1b 41 c2 bc 99 42 88 3e 92 89 2a be
       -0.07495449 -0.023712685 0.2661331 -0.16654041
0002a0 d0 cc cb 3d 5c b2 70 3d f3 a3 4a 3d 1e b8 68 3e
       0.09951174 0.058763847 0.04947276 0.22726485
0002b0 cb b2 8d 3c 79 30 82 3c 9e 6a 0a be 66 b5 10 3e
       0.01729717 0.015892254 -0.13517234 0.14131698
0002c0 1d 69 8d be 63 80 77 3d c2 16 71 3e 94 5e 1c 3e
       -0.27619258 0.060425173 0.23543838 0.15270454
0002d0 79 e2 4d 3e 6d 30 02 be 3b 15 53 bd 49 5a 19 3c
       0.20105924 -0.12713785 -0.05153392 0.009359905
0002e0 6b c3 32 3e 94 ab 0f be 57 b6 14 be 3c 80 3d bc
       0.17457359 -0.14030296 -0.14522682 -0.011566218
0002f0 92 0f 06 be 9d 62 07 3e 46 e5 74 3c 47 f2 56 3e
       -0.13091877 0.13221212 0.014947241 0.20990859
000300 97 12 31 3e 7c e9 e9 3d a4 5e 88 bd ce 8f 11 be
       0.17292248 0.11421487 -0.06658676 -0.14215013
000310 89 7e e9 3d 34 20 2d 3e ae 58 06 3e 85 03 30 3e
       0.11401088 0.16906816 0.13119766 0.17188843
000320 85 91 ef bc 58 97 c7 bd d0 91 9b 3d ba 24 c4 bd
       -0.029244194 -0.097456634 0.07596171 -0.095773175
000330 b9 c0 69 3d 16 14 51 3e 52 62 4e 3d 5b 4c a0 3d
       0.05706856 0.20417818 0.050386734 0.07827064
000340 db 61 d7 bd 75 c7 9e 3d f3 01 3f be ad 27 c7 bc
       -0.10516711 0.07752887 -0.18653087 -0.024310911
000350 c3 f9 ee 3c bf 2b 85 bd 1c f8 2a bd 12 ce 4e 3e
       0.02917183 -0.065024845 -0.04174052 0.20195797
000360 6c 96 5b bd 3f f6 73 3c e9 23 fe bd 93 37 b1 3d
       -0.05361025 0.014890253 -0.12409193 0.08653178
000370 39 ec 24 3e 8a f7 fd 3d d9 6a 0b 3e 5a 28 75 3d
       0.16105737 0.1240073 0.13614978 0.059852935
000380 9a a4 f0 3d 9f 8c 9d bd f8 95 10 3e 94 30 48 bc
       0.11750145 -0.07692837 0.14119709 -0.012218613
000390 51 a0 0d be 39 fb 6c 3e 18 d1 29 3b 00 31 59 3e
       -0.13830687 0.23142709 0.0025911983 0.21210098
0003a0 21 27 db bd d8 17 a7 bd 81 4e fa bc 12 8e 12 3e
       -0.107008226 -0.08158845 -0.030555012 0.14312008
0003b0 14 d5 b6 bd ac cd 8f bd 89 08 88 3c 9d 67 d5 3d
       -0.0892736 -0.07021651 0.016605632 0.10420153
0003c0 f6 ec a9 bd 03 60 a5 3c 9f 42 9c bd 13 2e ab bd
       -0.0829715 0.020187384 -0.076298945 -0.08358397
0003d0 09 2a 88 3d 7e 56 5c 3c c3 23 5f 3d 3f 05 30 bd
       0.066486426 0.013448356 0.054477464 -0.042973753
0003e0 9f 03 db bd 8c d5 e8 3c 22 89 c7 3c 52 07 b0 be
       -0.1069405 0.02842214 0.024357382 -0.34380585
0003f0 de ec 7f bd dd 29 ee bc 01 24 0c be 20 60 88 bd
       -0.062481754 -0.029072696 -0.1368561 -0.066589594

bottle_neck.0.conv_block.2.weight f4 [32]
000000 cb f6 74 3f 7a 87 56 3f 64 f1 8a 3f a4 ed 6d 3f
       0.95689076 0.8380047 1.0854917 0.92940736
000010 af 69 68 3f 0a c2 7c 3f 1e 0c 7a 3f e4 c1 78 3f
       0.9078626 0.9873358 0.9767474 0.97170854
000020 96 73 90 3f 0a cf 83 3f 62 d7 8b 3f ac 3a 8a 3f
       1.1285274 1.0297558 1.0925105 1.0799155
000030 7b fe 9b 3f fb af 83 3f 81 c5 56 3f ea 1d 85 3f
       1.2187036 1.028808 0.8389512 1.0399754
000040 96 b9 7c 3f 58 a6 85 3f 08 4d 94 3f 2b 7c 84 3f
       0.9872068 1.0441389 1.1586008 1.0350393
000050 99 ab 4f 3f 38 0b 90 3f de 36 75 3f 01 d6 4b 3f
       0.8112121 1.1253424 0.95786846 0.7962342
000060 c0 8e 86 3f d9 7a 81 3f 9e 97 97 3f e9 80 74 3f
       1.0512314 1.0115615 1.1843145 0.955092
000070 64 86 85 3f 6b 17 5d 3f 3d 55 63 3f c1 fe 8d 3f
       1.0431638 0.8636386 0.8880194 1.109337

bottle_neck.0.conv_block.2.bias f4 [32]
000000 8d 2f 2b 3e ea 56 2a be a1 45 b3 bd 37 96 0a be
       0.16717358 -0.16634718 -0.08753515 -0.13533865
000010 41 90 e4 bc 4c d7 97 bd 18 99 8b bc 10 2c f2 3b
       -0.027900817 -0.074141115 -0.017040774 0.0073905066
000020 6e 15 0d 3d 77 c6 8d bd 93 f0 06 be 8e fe 19 3b
       0.034444265 -0.0692262 -0.1317771 0.0023497674
000030 75 ee b6 3c e8 a8 ae 3d c7 b4 ed bd b9 9a fa bc
       0.022330502 0.0852831 -0.11606746 -0.030591356
000040 2c 08 71 3d fe b8 a4 bd b5 5f c0 bd 9a 34 97 bd
       0.058845684 -0.08043097 -0.09393255 -0.0738308
000050 ed e1 71 be 2f 4b 28 3e 4e cd 73 bd c6 3a 59 be
       -0.2362134 0.1643493 -0.059521966 -0.21213827
000060 e1 85 d2 3d 0d bb 6e bd e8 84 06 3e 00 36 7c bd
       0.102794416 -0.058283854 0.13136637 -0.061574936
000070 99 7a 3e be fe b8 2e bb 0b c5 ef bd 06 22 c5 bd
       -0.18601455 -0.0026660557 -0.11707505 -0.0962563

bottle_neck.0.conv_block.2.running_mean f4 [32]
000000 da 18 1a 3f f7 98 13 c0 13 e4 6a bf 26 1d f7 3f
       0.6019417 -2.3062112 -0.91754264 1.930577
000010 38 d7 2b 40 ef bd 3e 3e 0f 3e a9 3e 8c 52 3f c0
       2.685011 0.18627141 0.3305516 -2.9894133
000020 f5 04 5c 3f 78 ed c7 3f 07 b2 8e 3f fc 66 3b 3f
       0.85945064 1.5619345 1.114808 0.73204017
000030 e8 44 b3 be 9f 99 95 bf 81 a0 72 be 38 bf 93 bc
       -0.3501351 -1.1687506 -0.2369404 -0.018035516
000040 98 07 b0 bf 9b fc 2c 3f a8 f6 03 3f ad 1f 84 bf
       -1.3752317 0.67572945 0.5154824 -1.0322167
000050 5f 9f e2 bf ba ba 30 40 03 d2 f1 be d3 65 91 3f
       -1.7704886 2.761397 -0.4723054 1.1359199
000060 5b 03 d6 be 86 be 87 3e 4e 88 61 bf 8f f8 6d bf
       -0.41799435 0.26512545 -0.8809861 -0.92957395
000070 c1 07 82 3f a6 ce b4 bf d1 fa 99 3f 0c 11 47 3f
       1.0158616 -1.4125564 1.2029668 0.77760386

bottle_neck.0.conv_block.2.running_var f4 [32]
000000 0d 3c a5 40 37 2c a5 40 6c bb b4 40 39 6a 9b 40
       5.1635804 5.1616473 5.6478786 4.8567166
000010 ec 8f a8 40 6c 99 a1 40 8e 93 b3 40 f4 9e 87 40
       5.2675686 5.0499783 5.611762 4.2381535
000020 5c 72 ac 40 ad 16 a6 40 b0 f9 b6 40 af f7 a6 40
       5.38896 5.190268 5.7179794 5.217735
000030 00 56 c4 40 ff 97 91 40 e4 06 a7 40 88 ed 9e 40
       6.135498 4.549804 5.219591 4.9664955
000040 fd d7 9e 40 79 7f a9 40 6f 86 ac 40 53 f0 c5 40
       4.9638658 5.2968106 5.3914104 6.1855865
000050 44 be a3 40 d1 9a eb 40 a5 47 8d 40 26 bf be 40
       5.116976 7.3626485 4.4149957 5.9608335
000060 99 12 97 40 ec 10 b1 40 6d 3e 8d 40 f8 88 c1 40
       4.72102 5.5333157 4.4138703 6.04797
000070 30 b2 a6 40 3b 34 a4 40 4d 38 e6 40 3d bf a0 40
       5.2092514 5.131376 7.1943727 5.0233445

bottle_neck.0.conv_block.5.weight f4 [32, 32, 3, 3]
000000 c1 d3 e5 3b b0 99 2c 3d a0 f9 a9 3c ba a6 63 bd
       0.0070137684 0.042138755 0.020748913 -0.055578925
000010 24 0d 5a 3e 4b 92 9f bd eb 7a b0 bd 50 c6 e6 3d
       0.21294075 -0.07791575 -0.08617195 0.11268294
000020 4a 41 b0 3d 94 1f e3 3d 7e 58 cd bc 3d 8c 46 3d
       0.08606203 0.110900074 -0.02506661 0.048473585
000030 b5 72 74 bd 9f 73 25 be ec d8 fa bd f6 a8 0a 3e
       -0.059679706 -0.16157387 -0.12248406 0.13541016
000040 06 3b 1b 3d bb 43 93 3d ac 33 a9 3d da f9 1b 3d
       0.037898086 0.07190653 0.08261809 0.038080074
000050 9b 26 09 be 2e 14 2a bd aa a2 1e 3e 6b ce 22 bc
       -0.13393633 -0.04152315 0.15491739 -0.009936909
000060 97 9c 1f bb 6a 02 8f bb 8d 8c 1a bd bd fa 1b 3e
       -0.002435481 -0.0043643015 -0.037731696 0.15232368
000070 5f e9 bb 3d 84 e0 d1 3d a1 38 8b bd 82 85 11 be
       0.091753714 0.10247901 -0.067979105 -0.14211085
000080 6c 26 c6 bd 93 53 61 bd 7c a2 3e 3d 49 66 71 3e
       -0.09675297 -0.055011343 0.046541676 0.23574175
000090 7f 99 24 3e d6 94 b9 3d ed 14 1d 3d 81 a5 76 bd
       0.16074179 0.09061591 0.038350035 -0.06021643
0000a0 a4 f8 10 be f0 e5 c2 3d 21 dc 10 3d 07 c1 69 3d
       -0.14157349 0.09516513 0.03536618 0.05706885
0000b0 2c 79 8f 3d f0 58 bd bc 0b 20 40 3e b7 32 bf 3d
       0.070055336 -0.023113698 0.18762223 0.09335845
0000c0 9a cc c8 3c d5 d9 dc 3d 2a 6b 61 bd b3 24 cc bd
       0.024511624 0.10783736 -0.05503384 -0.09967937
0000d0 22 fb 26 3e 25 17 d2 3d 81 2e 37 3c c6 d3 22 3d
       0.16306737 0.10258321 0.011180521 0.039752744
0000e0 38 f3 97 be 6c 32 24 be 41 24 8d be d1 f4 c9 bd
       -0.2967775 -0.1603486 -0.27566722 -0.09861148
0000f0 90 aa 22 3d 88 6a 88 3d 81 83 fc bd 0d 27 c9 bd
       0.039713442 0.06660944 -0.1232977 -0.098219015
000100 19 2c 37 bc e7 16 e5 3d 2e 0c 2c 3e 39 92 f4 3d
       -0.011179947 0.11186009 0.16801521 0.11941952
000110 29 cf d5 bc 43 a2 3f 3c be ed b1 b9 08 c5 9b 38
       -0.026099758 0.011696401 -0.00033937203 7.427676e-05
000120 74 c4 74 3c e4 4a 11 be a2 a9 b1 bd 46 57 38 3e
       0.014939416 -0.14188725 -0.08674933 0.18002042
000130 cf 3a 00 be cc 90 52 3e f3 2e 3e 3b 1e e5 f4 bd
       -0.12522434 0.20563048 0.0029019683 -0.11957763
000140 3f 79 66 be 80 fc 7b 3d b0 a7 b1 3d bf 78 41 3e
       -0.22507189 0.0615201 0.08674562 0.18893717
000150 0e 53 fe bd 36 00 d4 3d f2 08 cc bd fe 51 2f 3d
       -0.12418185 0.10351603 -0.09962644 0.042802803
000160 de 23 11 3e 2d 80 7e 3e b8 9a 45 3d 18 41 4b be
       0.14173838 0.24853583 0.048243254 -0.1984905
000170 ec 72 cd 3b 18 ab 53 3e e1 d3 31 be 33 e5 01 be
       0.0062698033 0.20670736 -0.17365982 -0.12685089
000180 29 0e 4b 3e 58 f0 eb bc 2c cb 52 3e 1a 4f 1f be
       0.1982962 -0.028801128 0.20585316 -0.15557519
000190 59 09 7b bd 8d 99 09 be 81 21 ee 3d c9 0c d6 3d
       -0.06128821 -0.13437481 0.11627484 0.10451657
0001a0 20 42 7f 3e 0b 19 52 3c 2b e6 50 bd fa 5d b6 bd
       0.24927568 0.0128233535 -0.051000755 -0.08904643
0001b0 0b ae 9c 3d 77 95 fd bc 73 f9 e7 bc 21 91 34 3e
       0.076503836 -0.03095506 -0.028317189 0.17633487
0001c0 d8 3d 38 3d 0a b6 dd bd b8 dd d9 bd ed 29 9f be
       0.044980854 -0.10825737 -0.106379926 -0.31086674
0001d0 36 0b 77 bd c2 3b 8c bd 79 19 b7 bd 3c 22 19 be
       -0.060313426 -0.068473354 -0.089404054 -0.14954466
0001e0 48 19 8d bd 67 16 85 be 80 a4 9f 3c 7a ac b4 3d
       -0.06889588 -0.25993654 0.01948762 0.0882196
0001f0 5a 37 6a 3c 8f 8b 5d 3d 2c 31 0b bc c8 1a 82 bd
       0.014295423 0.05408817 -0.00849561 -0.06352764
000200 d6 7e 46 be 12 ad 06 be 3d d4 6a 3e c7 76 31 bd
       -0.19384322 -0.13151959 0.22932525 -0.043326166
000210 2d b2 ab bb a6 63 ed 3d 86 e1 03 3d 3b 55 dc bd
       -0.005239746 0.11591272 0.032197498 -0.10758444
000220 09 3b bf 3d 04 5d ee bd 7b 1c 91 3d 28 ab 47 be
       0.09337432 -0.11638835 0.0708551 -0.19498885
000230 60 90 86 3c e6 6d 13 3e 03 b9 24 3d 2e e0 ff bb
       0.016426265 0.14397392 0.040215503 -0.0078087067
000240 a4 29 0f bc 3c cf c2 3d 83 ff 48 3e 97 aa 30 be
       -0.008737955 0.09512183 0.1962872 -0.17252575
000250 bf 44 22 3e a6 bf 0a be 52 b7 74 be b7 c5 55 bd
       0.15846537 -0.1354967 -0.23898056 -0.05219051
000260 c4 fb 67 3d 64 9a 6c bb d2 53 5d be e3 de e7 3d
       0.056636587 -0.0036102766 -0.21614006 0.11321809
000270 85 2a f2 bd e7 42 0e 3e 94 0e a6 bd d4 c5 e2 bc
       -0.11824516 0.13892709 -0.08108249 -0.027682222
000280 b3 66 2f be fa d4 55 bd 16 23 34 3d d1 a3 e5 3d
       -0.1712902 -0.052205063 0.043978773 0.11212886
000290 8f 52 0c be 11 39 d5 bd 67 c4 11 bd eb b7 31 bb
       -0.13703369 -0.10411275 -0.035587694 -0.002711768
0002a0 21 8e 06 3e 8d 95 13 be 25 fe a8 3d af c9 bc bd
       0.13140155 -0.14412518 0.08251599 -0.092181556
0002b0 0f 65 6d 3c 61 67 6c bd 1e f5 17 be 97 ce 74 be
       0.014489426 -0.057715777 -0.14839599 -0.23906933
0002c0 ba b5 77 be e2 ac 5a bd 87 d1 c3 bd 94 81 ab 3d
       -0.24190417 -0.05338753 -0.095614485 0.083743244
0002d0 00 9b 64 3d 83 82 e4 bd 08 16 28 3e 0a 52 d1 bc
       0.055811882 -0.11157706 0.16414654 -0.025551815
0002e0 8a b1 45 3e d7 a5 71 3d 20 61 67 bd 29 2b 6b bd
       0.19306007 0.058996048 -0.05648911 -0.057414208
0002f0 bb 82 7a bd 91 76 f4 3d 7e b0 d7 bd 8c 8a 11 be
       -0.06115983 0.11936677 -0.1053171 -0.14213008
000300 84 0c a4 3c 4a ec b6 bc a5 f8 9c bd 29 bb 19 3c
       0.0200255 -0.022329468 -0.07664613 0.009383001
000310 f4 3b 85 bd c2 4c fe bd 6a 59 19 3e f0 8f e1 bb
       -0.06505576 -0.12416984 0.14975515 -0.0068836138
000320 54 62 dd 3d 3e 1e f2 bc e2 ae ab bd c3 95 9f bd
       0.1080977 -0.029555436 -0.083829656 -0.07792237
000330 4f a1 b8 3d b1 26 44 3d 9d 08 31 be be 81 3e 3e
       0.09015142 0.04788846 -0.17288442 0.1860418
000340 d5 de 39 be 88 c6 72 3d 0e 76 36 bd b4 fa 0d be
       -0.1815141 0.059271365 -0.04454618 -0.13865167
000350 65 f0 b7 bd e3 eb 8b 3d 64 bb 5b bd a6 00 16 3d
       -0.089813985 0.06832101 -0.053645507 0.036621712
000360 4b 0e bb 3d bd f7 72 3d 32 6b d5 bd 95 b1 02 bd
       0.091335855 0.059318293 -0.104208365 -0.031907637
000370 1d d6 12 be 49 74 43 bd 93 67 2b be 36 ea a8 3d
       -0.1433949 -0.04771832 -0.16738729 0.08247797
000380 d0 2f 9a bd e2 97 67 3e 02 62 3e 3e c7 41 6e 3d
       -0.07528651 0.22616532 0.18592075 0.0581682
000390 ba e0 f6 bd d7 4d 1e be 39 e4 f4 bc 33 8d 91 3d
       -0.12054582 -0.15459381 -0.029893981 0.0710701
0003a0 84 a7 9d 3d 8f db a2 3d 60 46 9c bd 5f 39 e3 3d
       0.07697967 0.07952034 -0.076306105 0.11094927
0003b0 07 ea 4c 3d 60 d8 88 3c 73 d4 bc bd fd 05 6a bd
       0.050027873 0.016704738 -0.09220209 -0.057134617
0003c0 ed 8f b2 3c b1 df 69 be 6d 9d a7 3c 6f 37 af 3d
       0.021797145 -0.22839238 0.020460809 0.08555495
0003d0 47 08 e8 3d 4b 8a 41 3d 05 04 32 bc 51 53 99 bd
       0.11329704 0.047251027 -0.010865216 -0.074865945
0003e0 a1 20 a3 bd 9a 5b 34 be bc f2 09 3c cb 50 f9 bc
       -0.07965208 -0.17613068 0.008419689 -0.030434033
0003f0 5c 34 bf 3d 48 c4 6f be 59 8d 0f 3e ba 20 72 bd
       0.09336159 -0.23414719 0.14018764 -0.05911324

bottle_neck.0.conv_block.6.weight f4 [32]
000000 09 f3 71 3f 18 46 5b 3f 11 d4 36 3f 0d 63 48 3f
       0.9451147 0.8565383 0.7141734 0.7827614
000010 c3 6f 75 3f 3e 1d 5b 3f 3b 49 5f 3f 85 db 83 3f
       0.9587366 0.85591495 0.87221116 1.0301367
000020 31 42 55 3f 51 21 4a 3f c4 2d 5f 3f f0 b6 64 3f
       0.83304125 0.78957087 0.8717921 0.8934164
000030 cc 88 46 3f 6d 4e 77 3f 1d 85 40 3f 04 29 54 3f
       0.77552485 0.96604043 0.75203115 0.82875085
000040 22 65 3f 3f 1f 27 6c 3f 81 54 5e 3f 22 20 3e 3f
       0.7476369 0.92247194 0.8684769 0.7426778
000050 41 de 4f 3f 09 d9 7f 3f e0 40 7f 3f d8 88 85 3f
       0.8119851 0.99940544 0.99708366 1.0432386
000060 88 33 32 3f 2f 09 51 3f a6 95 30 3f f6 49 76 3f
       0.6960988 0.8165464 0.68978345 0.96206605
000070 53 29 71 3f e9 05 7d 3f b5 87 60 3f 94 d7 71 3f
       0.9420368 0.98837143 0.8770707 0.9446957

bottle_neck.0.conv_block.6.bias f4 [32]
000000 33 05 48 3d 2a 96 2e be a4 01 81 3c d2 2b a5 3d
       0.048833083 -0.1704947 0.015747853 0.08064999
000010 a7 2c 59 bd 38 13 9a ba a7 0b b0 3c 9f e9 a4 3c
       -0.0530211 -0.0011754995 0.021489931 0.02013093
000020 98 e2 65 bd f7 89 3c 3d 41 b9 66 3d 6a 2f d4 3d
       -0.0561243 0.04603001 0.056329016 0.10360606
000030 e1 82 5e 3c 63 32 1c be 5d 56 36 bd 01 31 4c 3d
       0.013581009 -0.15253596 -0.044515956 0.04985142
000040 b1 78 12 3e 0b dc a2 bd 3a c0 f6 3d 82 7e df 3c
       0.14303853 -0.07952126 0.12048383 0.027282003
000050 4e 5e eb 3b 9c c1 a3 bd 3b 78 37 3e 7a 82 0b 3c
       0.007182873 -0.079959124 0.17916958 0.008514995
000060 6e 80 39 bd 04 72 97 3c 0d e6 8a ba 51 b4 c6 3c
       -0.045288496 0.018486984 -0.0010597125 0.024255903
000070 ce e8 9a bd 7b 98 e9 bd 12 4e 61 be 79 e8 61 bd
       -0.07563935 -0.114060365 -0.22002438 -0.055153344

bottle_neck.0.conv_block.6.running_mean f4 [32]
000000 6b 08 41 be ca 4a 0e 40 5d 1d c5 3f 8b 5d 93 bf
       -0.18850867 2.2233148 1.5399586 -1.1512922
000010 a1 45 70 40 34 ff 05 3f 40 38 75 bf e6 0d 1d 3f
       3.7542498 0.52342534 -0.95788956 0.6134933
000020 c2 f4 b9 3f 70 41 13 c0 37 1b 4e bf b8 1b 63 3e
       1.4527819 -2.300869 -0.80510277 0.22178543
000030 35 af 3d 3f a7 a5 b9 3d e9 f6 8c 3f 33 bb 2a 40
       0.7409547 0.09064799 1.1012851 2.6676757
000040 fc 54 92 3e fa ec 2c c0 9c c2 51 40 4e aa 14 3f
       0.28580463 -2.701964 3.277503 0.58072364
000050 57 74 ab bf 0f b5 95 bf e3 d4 21 40 ce 82 fd 3f
       -1.3394879 -1.169588 2.5286186 1.9805543
000060 73 6f 81 40 eb 5d 74 bf 89 43 7f 40 98 d4 0f c0
       4.0448546 -0.9545581 3.988497 -2.2473507
000070 45 01 54 40 1a 15 05 c0 3a 3d 35 40 43 68 c4 3f
       3.3125775 -2.079413 2.831862 1.5344318

bottle_neck.0.conv_block.6.running_var f4 [32]
000000 f1 5d 02 41 96 6c b8 40 17 4b 01 41 c8 f9 07 41
       8.147935 5.763255 8.0808325 8.498482
000010 53 d6 9b 40 99 38 05 41 aa 32 14 41 4c 63 c4 40
       4.8699126 8.326318 9.262369 6.137121
000020 2e 4f e0 40 63 62 0a 41 d1 a9 a2 40 7a 8d 15 41
       7.0096655 8.64902 5.0832295 9.34704
000030 0b d8 ae 40 e4 bd 00 41 b2 15 c5 40 32 87 c6 40
       5.4638724 8.04636 6.1588984 6.2040033
000040 ba 06 df 40 f7 91 ad 40 38 98 be 40 44 02 17 41
       6.969571 5.424068 5.9560814 9.438053
000050 bc 84 b8 40 97 f4 88 40 97 18 cd 40 a3 61 aa 40
       5.766203 4.279857 6.4092517 5.3244185
000060 b3 8b be 40 11 90 ad 40 f3 61 a2 40 56 cb 09 41
       5.954553 5.423836 5.0744567 8.612143
000070 14 78 c5 40 f7 f2 e9 40 23 f4 f7 40 bc 96 a9 40
       6.170908 7.310909 7.748552 5.29965

bottle_neck.1.conv_block.1.weight f4 [32, 32, 3, 3]
000000 33 ce ae 3b 0d 91 48 be 51 6d 56 bc e3 bc 44 3d
       0.0053346395 -0.19586582 -0.0130875865 0.0480317
000010 6e 17 8f bd 89 0e f6 3d 8d 3a 0d be 80 d3 37 be
       -0.06986891 0.12014491 -0.13791867 -0.17951775
000020 03 8b e3 bd e9 fb 62 3b 58 58 36 bd 07 fe 1e 3d
       -0.11110499 0.0034635013 -0.044517845 0.038816478
000030 13 f4 82 3c 46 5e 14 3d 0a db c9 bd 15 e7 49 3d
       0.015985524 0.03622272 -0.098562315 0.049292643
000040 06 f8 8b bd 21 3d a0 bc 5e ab 03 3e d1 47 0a be
       -0.06834416 -0.019560399 0.1285834 -0.13503958
000050 d6 e9 98 3d 9d 10 67 3e 8c df 1d 3d f2 58 90 3d
       0.07466476 0.22564931 0.03854327 0.07048215
000060 89 40 a2 bd 98 00 39 be 15 45 fb bd 55 72 50 be
       -0.07922465 -0.18066633 -0.12269036 -0.20356114
000070 8e f6 01 be 74 ba 13 be db e2 49 3c ac 0a d0 3c
       -0.1269171 -0.14426595 0.012322153 0.025395714
000080 74 16 a2 bd 62 8d 67 3b ed ce 9e bc 1f 07 a2 3d
       -0.07914439 0.0035332073 -0.01938578 0.079115145
000090 9a 2f 40 3d 24 22 84 3d 85 6f ba 3d 2e 1f 60 3d
       0.046920396 0.06451824 0.09103302 0.054717235
0000a0 95 ba 34 3e 81 20 9c bd bb 6a fd 3d f8 25 8f 3d
       0.176493 -0.07623387 0.12373873 0.06989664
0000b0 1c 59 aa bd 5e 52 15 3e 04 ed 6f bd e8 93 78 3d
       -0.083177775 0.14582202 -0.058575645 0.06068793
0000c0 fb 8d 2e 3e d9 4a 49 3b f9 f7 77 3c 6c 0d 0b bd
       0.17046349 0.0030714779 0.015134805 -0.033948347
0000d0 bc 4b 29 be 76 f4 c8 bd 3b c0 11 3e 9f d8 98 bd
       -0.16532797 -0.09812252 0.14233486 -0.07463192
0000e0 de 77 a0 3c fd 04 1e 3e 83 ab 3b bd af a2 c1 3d
       0.019588407 0.1543159 -0.045817863 0.094548576
0000f0 8b 3c 2d bd ae 12 99 be 7a a2 cb bd 3d 29 ac bb
       -0.042294066 -0.29897064 -0.09943099 -0.0052539394
000100 50 da 6b 3d ea 3e 8c 3d 53 70 38 be c3 fc 0a 3e
       0.057581246 0.068479374 -0.18011598 0.13572983
000110 02 cb f9 bd f4 9b 8f 3c 0e 60 0e 3e be d9 04 3e
       -0.12196924 0.017530419 0.1390383 0.12973687
000120 df 77 17 be 05 d5 9e 3d bb 16 38 be af 5c 34 3d
       -0.14791821 0.07755474 -0.17977421 0.044033702
000130 d4 72 38 bd 13 96 40 bd 30 72 2c 3e 95 54 17 3e
       -0.045031384 -0.047018122 0.16840434 0.14778359
000140 5a e3 9f 3d a3 c6 e8 bd 4b b4 e2 bd 67 ef e8 bd
       0.07807036 -0.11366012 -0.110695444 -0.113737874
000150 b9 b5 84 3d ad e2 ea bd fb 77 f1 3c ed 1b be 3c
       0.06479973 -0.11469016 0.029476156 0.023206675
000160 a1 e5 81 3c f4 2b c1 3d 3d 4a 74 bd 4e 22 8b bd
       0.015856566 0.094322115 -0.05964111 -0.067936525
000170 69 56 79 3c f8 77 56 be 32 e4 12 3e e5 06 d0 bd
       0.015218356 -0.20944202 0.14344862 -0.10157565
000180 5e 32 58 bc f5 79 4e 3d 41 60 ce 3d 8b 65 e4 bb
       -0.013195602 0.050409276 0.10076953 -0.0069701127
000190 fb 03 00 be 73 40 87 bd 8f ca cb 3c 68 47 40 bd
       -0.12501518 -0.066040896 0.02487686 -0.0469431
0001a0 10 21 ca bd e0 f0 a4 ba 20 a0 99 3d 8a 95 0c 3d
       -0.098695874 -0.0012583993 0.075012445 0.0343223
0001b0 f3 d2 09 3c e8 49 53 3e 85 81 f8 bc 02 ac 28 3e
       0.008412111 0.20633662 -0.030335197 0.16471866
0001c0 79 45 20 3e b4 bf e7 bb 4c 65 48 3e 94 a6 58 3d
       0.15651502 -0.0070724133 0.19569892 0.052893236
0001d0 61 93 a3 bc 27 3a 4f 3c b1 4b 13 3d cb f9 a3 3d
       -0.019967737 0.012648142 0.035960857 0.080066286
0001e0 c4 fe 29 be 3b 9b c7 3d 24 40 d5 bd 1e 24 80 3d
       -0.16601092 0.09746405 -0.104126245 0.06256889
0001f0 b8 93 cd 3d 53 e2 8a 3d 9c 1e ae bc 55 e1 02 3d
       0.10037941 0.06781449 -0.02125483 0.031953175
000200 09 32 43 bd 90 c1 54 3c 06 67 65 bd c2 b3 8c bc
       -0.04765514 0.012985602 -0.056006454 -0.017175559
000210 a0 fb 39 bd cf 00 87 bd 97 0a 1a be de dc 20 3e
       -0.045405984 -0.06591951 -0.15043102 0.15709254
000220 cb 9c 36 3e 44 e9 49 3e 04 a4 33 bd c3 78 8a bc
       0.1783325 0.1971789 -0.04385759 -0.016903287
000230 52 b4 f9 3d f9 a4 ba 3d fa b9 b2 3c 1a ea 00 3d
       0.121925965 0.09113497 0.021817196 0.031473257
000240 97 5b 52 3d 6f 1a 26 3c c7 20 8c 3e d6 1c 34 bd
       0.051356878 0.010138138 0.27368757 -0.043972813
000250 c6 ad 72 bd fe bf 27 3e 0e b2 8b bd d1 65 60 3d
       -0.059247755 0.16381833 -0.068210706 0.0547846
000260 9f c5 98 3d a5 d8 cc bb 40 3d 35 3c 64 8e 11 3e
       0.07459568 -0.006251412 0.011061966 0.14214474
000270 e3 83 e2 3c a3 68 00 3e ce 1c 97 bc b2 e1 41 be
       0.02765078 0.12539916 -0.018446352 -0.18933752
000280 18 05 89 bd 5e 96 61 bd b2 2c 13 3e 68 3c 24 3d
       -0.06690425 -0.055075042 0.14372519 0.04009667
000290 5f 61 03 be c4 85 ca 3d 5c 79 fb bd 01 83 ed 3d
       -0.12830113 0.09888795 -0.12279007 0.11597253
0002a0 e9 ba c2 3c 7d d7 25 3d 00 a1 16 3e 8c ab d0 3c
       0.023770766 0.04048871 0.14709854 0.025472425
0002b0 32 76 8d bc 19 dc 3c bb 84 5b 32 bc 85 2d b6 bd
       -0.017268274 -0.0028817712 -0.010886077 -0.08895401
0002c0 6b ed 9c 3d d4 e3 95 ba a1 8c 1d 3c d8 90 24 3e
       0.076624714 -0.0011435696 0.009616048 0.16070879
0002d0 8f 69 6c bd dc 25 0e bd 07 69 13 be ac e8 db 3d
       -0.057717856 -0.034704074 -0.14395534 0.10737738
0002e0 dd c9 5c 3b e6 b1 fd 3d 01 fd 23 be 01 67 24 be
       0.0033689656 0.12387447 -0.16014482 -0.16054918
0002f0 34 86 94 bb eb 8f 19 3e d0 94 b7 3d 9d ea a7 3e
       -0.0045326 0.14996307 0.089639306 0.32796183
000300 7b 3e 6e bd 6b ef 13 be fc 93 a4 3d 72 b4 ce 3c
       -0.058165055 -0.144468 0.08036038 0.025232527
000310 6a cf 0e be fb 4f f2 3d 2f 49 9b bc 30 cd ac 3c
       -0.1394631 0.11831661 -0.018955795 0.021093935
000320 67 1f 95 bc 31 a1 9a bb d1 75 20 3e 50 13 74 bc
       -0.01820345 -0.0047189225 0.15669943 -0.014897183
000330 86 bc 79 3d 15 26 1f 3e b6 0f db 3d 8d 1f c0 3d
       0.060970806 0.15541871 0.10696356 0.09381018
000340 e4 1b 31 3e cc 59 2a 3e fa 5e c1 3b d1 37 50 bc
       0.17295796 0.16635817 0.0059012147 -0.01270862
000350 7b a0 dc 3d c9 b3 45 3e 96 7c 89 3d b3 8c 07 3e
       0.10772797 0.19306864 0.06713216 0.13237266
000360 69 c0 a1 bc 90 60 ac 3d 61 39 22 3c be 86 9e 3c
       -0.019745069 0.08416855 0.0099013755 0.01935136
000370 0c 79 8a bc 9b 8b ae bd a2 d7 2e 3d 89 ac cc bd
       -0.016903423 -0.085227214 0.042686112 -0.09993846
000380 88 ac c5 bd 9d aa 30 3e 3e b8 16 bd e0 33 92 3e
       -0.09652048 0.17252584 -0.0367968 0.28555202
000390 3c 71 e0 3d 4c 12 c8 3c 86 ea f1 3c cb 0c 2f be
       0.10959098 0.024422787 0.029530775 -0.17094724
0003a0 86 25 d5 bd c0 c3 5b bc 28 6a 40 3d 73 91 93 3d
       -0.10407548 -0.01341337 0.04697624 0.072054766
0003b0 65 01 a8 3d 0b 87 ab bd 83 ca 42 3d 80 c6 84 3c
       0.08203391 -0.08375367 0.04755641 0.016207933
0003c0 aa 55 0b 3e 04 8d 20 3e a6 1c 09 3e f0 61 e0 bc
       0.13606897 0.15678793 0.13389835 -0.02739045
0003d0 c5 d8 c2 bd 71 57 fe bd ae 88 7c 3d 87 61 fa 3c
       -0.09514002 -0.12419022 0.061653785 0.030564083
0003e0 80 6f a1 3a 4a 3c 58 bd da 70 ce bc 8c c0 ca 3b
       0.0012316555 -0.05279187 -0.025200296 0.006187504
0003f0 ad 8d 0a 3e ef 51 a5 3d 5e b5 63 3e f7 a3 b2 3d
       0.13530608 0.08072268 0.22237155 0.0872268

bottle_neck.1.conv_block.2.weight f4 [32]
000000 fd ad 78 3f 5f 91 7c 3f 8b b8 aa 3f e6 3c 90 3f
       0.97140485 0.9865932 1.3337568 1.1268585
000010 7d 7e 8e 3f f8 ec 5c 3f 16 df 59 3f a7 53 88 3f
       1.1132351 0.86299086 0.8510603 1.0650529
000020 5e 7f 6c 3f 1a b1 38 3f 1b 5f 6d 3f 30 79 9b 3f
       0.92381847 0.72145236 0.92723244 1.2146358
000030 d9 eb 58 3f ea f2 95 3f 0d 2f 66 3f 43 ca 82 3f
       0.84734875 1.1714756 0.89915544 1.0217975
000040 a8 e8 93 3f c6 e0 59 3f 0c 3f 74 3f 17 cb 8c 3f
       1.1555376 0.851086 0.954087 1.0999478
000050 1b ed 8e 3f 7f f1 43 3f ee f6 65 3f 05 c7 75 3f
       1.1166109 0.7654037 0.8982991 0.96006805
000060 01 57 87 3f d1 61 91 3f 13 25 84 3f 6c 1a 98 3f
       1.0573426 1.1357976 1.0323814 1.1883063
000070 bb 93 91 3f e2 4d 4d 3f c1 68 92 3f 2c a5 75 3f
       1.1373209 0.80196965 1.1438218 0.9595516

bottle_neck.1.conv_block.2.bias f4 [32]
000000 b3 02 4e be 4c 89 09 be c2 32 b8 bd fd f2 f4 bb
       -0.20118217 -0.13431281 -0.08994056 -0.0074752555
000010 62 f7 df bc f4 0d ef bd d4 8c 66 be a7 93 26 be
       -0.027339641 -0.11672583 -0.22514659 -0.16267262
000020 70 05 b6 be f5 da 94 be f0 62 83 be 59 78 b1 bd
       -0.35551023 -0.290733 -0.2566142 -0.086655326
000030 83 3a 69 be 52 73 13 be 02 f5 8c be 46 1f ad bd
       -0.22776227 -0.1439946 -0.27530676 -0.084532306
000040 79 59 13 be 80 6a 8b be fa 59 50 be c0 8e b8 bd
       -0.143896 -0.2722969 -0.20346823 -0.090116024
000050 52 82 00 be 42 ac 3b be 1f 9e 8d be 94 54 42 be
       -0.12549713 -0.1832743 -0.276597 -0.18977576
000060 a0 de 92 be d7 f5 51 be 9a 3b 2b be 8e ff 6f be
       -0.28685474 -0.20503937 -0.16721955 -0.2343733
000070 2b 58 ca bd f9 28 ab be 87 0e 8b be 6f d9 7a be
       -0.09880098 -0.33429697 -0.2715952 -0.24497007

bottle_neck.1.conv_block.2.running_mean f4 [32]
000000 fc 2f 81 3f 0e 87 81 3f 81 09 47 40 f9 d1 d8 be
       1.0092769 1.011934 3.109955 -0.42347696
000010 93 37 d3 3e 05 2b d4 3f 59 c3 10 40 74 eb 86 3f
       0.41253337 1.6575629 2.261923 1.0540605
000020 c7 61 24 40 13 77 2f bd 3b d5 39 be 06 4b c1 3f
       2.5684679 -0.042838167 -0.18147747 1.510102
000030 93 3b 8a be a7 82 bf 3f 05 33 b0 3f 5b 2c e7 3f
       -0.26998577 1.4961747 1.376557 1.8060411
000040 dc ac 59 be 5b 48 98 3f d6 a0 d3 3f 30 21 64 bf
       -0.21257347 1.1897081 1.6533458 -0.8911314
000050 c5 3d ee 3f 4a 6c cf 3f ed 06 45 3f 48 17 bd 3f
       1.86126 1.6204922 0.7696369 1.477273
000060 f8 15 02 40 ee a1 65 3f 37 a3 ca 3e 8b c2 80 40
       2.0325909 0.8970021 0.39577648 4.023748
000070 d8 67 c9 3f f4 8d 83 3d 21 e7 bc 3f e8 72 12 3f
       1.5734816 0.0642356 1.4758035 0.57206583

bottle_neck.1.conv_block.2.running_var f4 [32]
000000 45 c5 32 42 8a 7b de 41 19 ae 84 42 a0 f3 0f 42
       44.692646 27.810322 66.340034 35.987915
000010 cd 51 ec 41 23 0a 2a 42 e4 a1 50 42 af b6 76 42
       29.539942 42.5099 52.158096 61.678402
000020 45 76 63 42 19 9f 0f 42 0b 3b 0c 42 61 d8 93 42
       56.865498 35.90537 35.05766 73.922615
000030 f3 9c 55 42 72 3c 4d 42 f2 38 1e 42 0e 1e 29 42
       53.40327 51.30903 39.55561 42.27935
000040 a3 c8 96 42 d5 09 2d 42 7e f9 69 42 b3 39 81 42
       75.39187 43.2596 58.493645 64.61269
000050 59 e3 82 42 15 63 f5 41 9b bc 0b 42 c9 0a 3e 42
       65.44404 30.67338 34.934185 47.510532
000060 ab 9f 32 42 5d 83 79 42 a8 93 9f 42 ad 6a 84 42
       44.655926 62.378284 79.78839 66.20835
000070 5b 31 36 42 75 ab 33 42 c5 07 48 42 b9 84 51 42
       45.5482 44.91744 50.007587 52.379612
