models/netG_epoch_20.pth (torch_old, 358159 bytes, 49 tensors)

encoder.0.weight f4 [8, 1, 3, 3]
0	0xbe074a4f	-0.1321194
1	0x3c52b834	0.0128613
2	0x3d513001	0.05107117
3	0xbda27dae	-0.07934128
4	0xbdde91b7	-0.10867637
5	0xbdc016e9	-0.0937937
6	0x3d3804b4	0.04492636
7	0x3d600cdd	0.054699767
8	0xbe01fb02	-0.12693408
9	0x3cf8b4a1	0.030359568
10	0x3da4691d	0.08027861
11	0x3d06cbf2	0.03290934
12	0xbe28a961	-0.16470863
13	0xbddb87cb	-0.1071926
14	0xbe4f3148	-0.20233643
15	0xbdb02363	-0.086004995
16	0x3cb52f1a	0.022117186
17	0x3c135f6e	0.00899492
18	0x3cab568e	0.020915296
19	0xbd27a2a8	-0.040926605
20	0xbd86b91e	-0.06578277
21	0xbcbd780f	-0.023128537
22	0xbda91b8b	-0.082572065
23	0xbe19ba01	-0.15012361
24	0xbd0c9a31	-0.034326736
25	0xbdec1a72	-0.115284815
26	0xbdba058b	-0.090830885
27	0xbe052467	-0.13002168
28	0xbdb8218f	-0.08990776
29	0xbd214514	-0.03937252
30	0x3c8bc61d	0.017062241
31	0x3c0ab55e	0.008466093
32	0xbd421d9f	-0.04739153
33	0x3dbad8cd	0.09123383
34	0x3d170392	0.03686864
35	0xbd8ab361	-0.06772495
36	0x3dae07db	0.08497592
37	0x3d1d4726	0.03839793
38	0xbd2946fc	-0.04132746
39	0x3d20176b	0.039084833
40	0xbdae3dd2	-0.08507885
41	0xbdf0c86d	-0.11756978
42	0xbe1aae63	-0.15105586
43	0xbdd1618f	-0.10223686
44	0x3c8d7608	0.017268196
45	0xbbbe23d6	-0.005802612
46	0xbcddbf0e	-0.027068641
47	0xbda3c91c	-0.07997343
48	0xbcb15b3d	-0.021649951
49	0x3d93c1e4	0.07214716
50	0x3ddcfb6c	0.107901424
51	0x3bcba8db	0.0062151975
52	0x3e142a68	0.14469302
53	0x3dcb9139	0.099398084
54	0xbdf991e4	-0.121860296
55	0x3c7007c8	0.014650293
56	0x3d04ba68	0.032404333
57	0xbdd5a865	-0.10432509
58	0xbdb77ab3	-0.0895895
59	0xbe16575b	-0.14681761
60	0x3b3fab5f	0.0029246432
61	0x3d244220	0.040102124
62	0xbdcd3728	-0.10020286
63	0x3c96b894	0.01839856
64	0x3cb6bb33	0.02230606
65	0xbcf531ca	-0.029930968
66	0x3c5a8a49	0.013338634
67	0x3d231e34	0.039823726
68	0x3da6863a	0.081310704
69	0x3d83e53f	0.064402096
70	0x3e113b1a	0.14182702
71	0x3e07c635	0.13259204

encoder.0.bias f4 [8]
0	0x3d79d314	0.060992315
1	0xbe9ec246	-0.31007594
2	0x3e80045e	0.25003332
3	0xbd9b4420	-0.07581353
4	0xbdfafa34	-0.12254754
5	0xbe046fe0	-0.12933302
6	0x3e36f691	0.17867495
7	0xbe9a00ca	-0.30078727

encoder.3.weight f4 [16, 8, 3, 3]
0	0xbdb5af15	-0.08871285
1	0xbdab167c	-0.08353898
2	0xbda49d30	-0.08037794
3	0xbdf9c8be	-0.12196492
4	0xbdbb80b4	-0.091554075
5	0x3a1ed5d6	0.0006059086
6	0xbc8d79d8	-0.017270014
7	0xbdc0f2f4	-0.0942134
8	0xbd6118b6	-0.054955207
9	0xbd87c365	-0.066290654
10	0xbe12f2b7	-0.14350401
11	0xbe3631ec	-0.17792481
12	0xbdeaba79	-0.11461348
13	0xbde833f1	-0.11338032
14	0xbe09424a	-0.13404194
15	0x3bfc4182	0.007698239
16	0xbd9e04ac	-0.07715735
17	0xbcdf722b	-0.02727612
18	0xbdc9b805	-0.09849552
19	0xbd464ce5	-0.048413176
20	0xbd0a0335	-0.033694465
21	0xbdaeeb52	-0.085409775
22	0xbe065225	-0.13117273
23	0x3cb0232b	0.021501144
24	0xbe021a90	-0.12705445
25	0xbdd7708d	-0.10519514
26	0xbdc550fb	-0.096345864
27	0xbd0ca475	-0.034336526
28	0x3c35a7ec	0.011087399
29	0x3c3dfbb2	0.011595653
30	0xbd42992a	-0.04750935
31	0xbd11f860	-0.03563726
32	0xbd5ec286	-0.05438473
33	0xbcde3116	-0.027123015
34	0x3bfc009b	0.007690502
35	0xbd87ed77	-0.0663709
36	0xbdcd3b46	-0.10021071
37	0xbdccba26	-0.099964425
38	0xbcc365ad	-0.023852194
39	0xbdd71d81	-0.10503674
40	0xbd940769	-0.07227976
41	0xbdbc4d49	-0.091944285
42	0xbc9e557e	-0.019327875
43	0xbd943e00	-0.07238388
44	0xbd42f157	-0.04759344
45	0x3d9bd019	0.07608051
46	0x3dc119b2	0.09428729
47	0x3d5689a6	0.052377366
48	0x3d749efe	0.05972194
49	0x3d6943c1	0.05694938
50	0x3d095303	0.03352643
51	0xbbcf0eec	-0.0063189175
52	0xbc7f622d	-0.015587372
53	0x3d3deaac	0.04636638
54	0xbe06b6a5	-0.13155611
55	0xbda1cef5	-0.07900802
56	0xbd9fef8d	-0.078093626
57	0xbdd66764	-0.10468939
58	0xbdfc60d1	-0.12323154
59	0xbdb0f118	-0.08639735
60	0xbdcec697	-0.10096472
61	0xbe02b370	-0.12763762
62	0xbdab0762	-0.083510175
63	0x3d686c36	0.056743823
64	0x3dafef6e	0.085905895
65	0xbb84797b	-0.004042802
66	0x3d5baefb	0.05363367
67	0x3d86f96e	0.06590544
68	0x3cde3146	0.027123105
69	0x3d50f8d4	0.05101855
70	0x3d64ef32	0.055892177
71	0xbc796fe4	-0.015224431
72	0x3d8ec72e	0.06971584
73	0x3b297368	0.002585614
74	0xbd759076	-0.05995222
75	0x3c50df45	0.012748544
76	0x3d4786f1	0.048712675
77	0xbb87a4c1	-0.0041395132
78	0x3d740823	0.059578072
79	0x3dc56d09	0.096399374
80	0x3d690e9c	0.0568987
81	0x3d19a778	0.037513226
82	0xbd5abd99	-0.05340347
83	0xbe4fb7b6	-0.20284924
84	0x3d71c21b	0.059023004
85	0xbd252661	-0.040319804
86	0xbde592a2	-0.112096086
87	0x3dcd5c1c	0.10027334
88	0x3d830c50	0.06398833
89	0x3d44de91	0.04806382
90	0x3c96437d	0.018342728
91	0xbd81a34d	-0.06329975
92	0xbe4613cf	-0.19343494
93	0x3b70ca81	0.0036741795
94	0xbdd0a141	-0.10187007
95	0xbe3656c9	-0.17806543
96	0x3d4e4ac5	0.050364275
97	0xbd1e7a10	-0.038690627
98	0xbdec2378	-0.115302026
99	0x3c53109e	0.01288238
100	0x3dada5c4	0.08478883
101	0x3da19936	0.07890551
102	0x3d486188	0.048921138
103	0x3d945573	0.07242861
104	0x3cbffd29	0.023436146
105	0x3d001d0e	0.03127771
106	0xbc4792cb	-0.012180994
107	0xbc9e4bfa	-0.019323338
108	0x3d56b73b	0.052420836
109	0xbddfefa8	-0.10934383
110	0xbe725712	-0.23666027
111	0x3c2e374a	0.010633299
112	0xbd866e23	-0.06563976
113	0xbe249fcb	-0.16076581
114	0x3dcc0bf3	0.09963217
115	0x3cae3637	0.021266086
116	0xbd0e4c0d	-0.034740496
117	0x3c109153	0.0088237105
118	0x3dbb1459	0.091347404
119	0x3dfc7d95	0.1232864
120	0x3c2012c2	0.009770097
121	0x3c34d2e8	0.011036612
122	0x3a0f7b72	0.0005473412
123	0xbde69647	-0.11259132
124	0xbde79283	-0.11307242
125	0xbda53e60	-0.08068538
126	0xbc25bce4	-0.010115836
127	0xbdc777b6	-0.0973963
128	0xbdae6667	-0.085156254
129	0x3d04847e	0.032352917
130	0xbd4dfc6b	-0.050289553
131	0xbde62922	-0.11238314
132	0x3db3dded	0.08782563
133	0x3d9f051a	0.07764645
134	0xbd2d56e8	-0.04231921
135	0x3c70a943	0.014688793
136	0x3d4a8f26	0.049452923
137	0x3d983c2b	0.07433351
138	0xbd16b44f	-0.03679305
139	0xbd3650a4	-0.0445105
140	0x3b02fdc0	0.0019987673
141	0xbdb4d6ec	-0.088300556
142	0xbdcdd839	-0.10051007
143	0xbdd654ad	-0.104653694
144	0xbdc4b865	-0.09605483
145	0xbdd4e8c5	-0.1039596
146	0xbd845d75	-0.06463138
147	0xbdabee8a	-0.08395107
148	0xbdd8bc0f	-0.10582744
149	0xbdc1e19d	-0.094668604
150	0xbdd3cc7d	-0.103417374
151	0xbe296d22	-0.16545537
152	0xbdad35d9	-0.08457536
153	0xbd4635a8	-0.048391014
154	0xbdaf382b	-0.08555635
155	0xbe149988	-0.14511693
156	0xbcf890b6	-0.030342441
157	0xbddf6b1f	-0.109091036
158	0xbddb922e	-0.10721241
159	0xbd1f0079	-0.03881881
160	0xbdff13fa	-0.12454982
161	0xbcab18a6	-0.020885777
162	0xbcaa632c	-0.020799242
163	0x3d47762a	0.048696674
164	0x3cadeb71	0.021230431
165	0x3c5ac8a1	0.013353498
166	0xbd6a9e5e	-0.057279937
167	0xbd0393ea	-0.032123484
168	0xbda9067b	-0.08253189
169	0xbe098238	-0.13428581
170	0xbe23bb80	-0.15989494
171	0xbd011db1	-0.031522457
172	0x3d1e1e61	0.03860319
173	0xbd1db9c8	-0.038507253
174	0xbc9310a7	-0.017952276
175	0x3c853999	0.016262816
176	0xbb060456	-0.0020449362
177	0xbd264236	-0.040590487
178	0xbc4de6ce	-0.012567235
179	0xbd684d97	-0.05671462
180	0xbd19430e	-0.037417464
181	0xbc6acfc8	-0.0143317655
182	0xbd746bab	-0.059672993
183	0xbd692184	-0.05691673
184	0xbe07718d	-0.1322691
185	0xbdde7684	-0.10862449
186	0xbd381038	-0.044937342
187	0xbd8e6d57	-0.06954449
188	0xbda9af73	-0.082854174
189	0xbcac8a7b	-0.021062126
190	0x3d8e5701	0.069501884
191	0x3c6547ee	0.0139942
192	0x3dd5b973	0.10435762
193	0x3df4b15e	0.119478926
194	0x3d25a2fc	0.040438637
195	0x3d923afc	0.071401566
196	0x3d808499	0.06275291
197	0x3d24e7a8	0.040259987
198	0xbce82fec	-0.028343163
199	0xbd526769	-0.05136815
200	0x3ba3b88f	0.0049963663
201	0xbd2483e3	-0.04016484
202	0xbe186fa6	-0.1488634
203	0xbd90391c	-0.07042143
204	0xbd9f62a9	-0.0778249
205	0xbdda0ac7	-0.10646587
206	0xbde49f66	-0.11163215
207	0xbb1c5729	-0.0023855662
208	0x3ce57ec2	0.028014544
209	0x3c4d1eed	0.01251958
210	0x3da6d72a	0.08146508
211	0x3e1b4da2	0.15166333
212	0x3db0f61b	0.08640691
213	0x3d61f860	0.05516851
214	0x3d8f32b6	0.06992094
215	0x3d5071f8	0.05088994
216	0x3da04f5c	0.078276366
217	0xbca56caa	-0.020193417
218	0xbd062ff0	-0.03276056
219	0x3da5cd03	0.080957435
220	0x3e17dee3	0.14831118
221	0x3e5eba7d	0.21750827
222	0x3cdcb4d6	0.026941698
223	0x3bee868a	0.007279222
224	0x3e47e3a8	0.19520438
225	0x3d66bd2a	0.056332745
226	0xbc72cc0c	-0.014819156
227	0xbda8530c	-0.08218965
228	0x3de9fbb5	0.114249624
229	0xbd104f68	-0.035231978
230	0x3cc3dc71	0.023908826
231	0x3d2171e1	0.039415244
232	0xbbc4ae9a	-0.0060022594
233	0x3deb4df4	0.11489478
234	0x3da0cd11	0.07851613
235	0xbd196e56	-0.03745874
236	0xbd08f6aa	-0.033438362
237	0x3e0ab715	0.13546403
238	0xb9ebe529	-0.0004499343
239	0x3d5809c9	0.052743707
240	0xbd585381	-0.05281401
241	0xbdfb64cf	-0.12275087
242	0x3d815f1e	0.0631697
243	0xbd51a92a	-0.051186718
244	0xbda17bb1	-0.078849204
245	0x3cc31c9d	0.023817355
246	0xbd832cf6	-0.0640506
247	0xbcaa97b6	-0.020824295
248	0x3cf59907	0.029980196
249	0x3d8bbc08	0.068229735
250	0x3db4ea06	0.08833699
251	0x3e41dee5	0.18932684
252	0x3df02765	0.11726264
253	0xbdc4aeb8	-0.096036375
254	0xbd2982a1	-0.041384343
255	0x3b251598	0.0025189873

encoder.3.bias f4 [16]
0	0xbabc7bb9	-0.0014380134
1	0xbc9391bd	-0.01801383
2	0xbdb2e2d9	-0.08734674
3	0x3da6bc44	0.081413776
4	0x3d11fa91	0.03563935
5	0xbde427a4	-0.11140373
6	0x3d8b910e	0.06814776
7	0x3e45901a	0.19293252
8	0x3c42d162	0.011890741
9	0x3d582df1	0.05277819
10	0xbb9ba826	-0.0047502695
11	0xbe095b60	-0.13413763
12	0xbdb7e334	-0.089788824
13	0xbda9e730	-0.08296049
14	0xbc86985f	-0.016430078
15	0x3deec50e	0.11658679

encoder.6.weight f4 [32, 16, 3, 3]
0	0xbddcffe7	-0.10790997
1	0xbdd70ad8	-0.10500115
2	0xbd939f5c	-0.0720813
3	0xbd7b3195	-0.061326582
4	0xbd610cfb	-0.05494402
5	0xbdb38ce6	-0.087671086
6	0xbc9c3d6d	-0.019072259
7	0xbc422a52	-0.01185091
8	0x3d2d9422	0.0423776
9	0xbdb03e03	-0.08605578
10	0xbd9b2859	-0.07576055
11	0xbcbb4417	-0.022859616
12	0xbc12511d	-0.008930472
13	0x3c113116	0.008861801
14	0xbb769b27	-0.00376291
15	0xbd9812fb	-0.07425495
16	0xbdfe4399	-0.12415237
17	0xbdd15e09	-0.10223014
18	0xbda7499d	-0.081683375
19	0xbd3f5257	-0.046709385
20	0xbd496779	-0.049170945
21	0xbd1b4336	-0.037905894
22	0xbdd47bfd	-0.103752114
23	0xbd85958e	-0.06522666
24	0xbd1482b4	-0.03625746
25	0x3d5d8be3	0.054088484
26	0x3d946b51	0.072470315
27	0x3d9dab71	0.076987155
28	0x3dc04b91	0.09389413
29	0x3d99660f	0.07490169
30	0x3b43d476	0.0029881275
31	0x3cd93373	0.02651379
32	0x3daa660f	0.083202474
33	0x3c1337f4	0.008985508
34	0xbe35e690	-0.17763734
35	0xbdac8443	-0.084236644
36	0xbcc98682	-0.024600271
37	0xbcb223f6	-0.021745663
38	0xbdcc2526	-0.09968023
39	0x3c5b52e7	0.013386465
40	0xbd9571d3	-0.07297101
41	0xbdbcde6d	-0.09222112
42	0x3d3ebd70	0.04656738
43	0x3d384a39	0.04499266
44	0x3e4ac28c	0.19800776
45	0x3d5c0b06	0.05372145
46	0xbd0d3d0e	-0.034482054
47	0xbd06a83e	-0.032875292
48	0xbd0719b0	-0.032983482
49	0xbcd2b7ce	-0.02572241
50	0x3ccdf701	0.025142195
51	0x3bb6c388	0.0055775084
52	0x3e362aaa	0.17789713
53	0x3e2bb147	0.16766845
54	0xbd4d73b0	-0.050159156
55	0x3bef5c29	0.0073046875
56	0x3d8b6994	0.06807247
57	0xbcc8913b	-0.024483314
58	0xbc59e3b4	-0.013298918
59	0xbd87c728	-0.06629783
60	0xbcc7da07	-0.024395956
61	0xbe092f8d	-0.13397045
62	0xbe448713	-0.19192152
63	0xbd72942c	-0.05922334
64	0xbda4331d	-0.080175616
65	0xbc2ab744	-0.0104196705
66	0x3aeb32b4	0.0017944188
67	0xbd92f85b	-0.07176276
68	0xbd6abb2b	-0.057307404
69	0xbd9b618c	-0.07586965
70	0xbcffe207	-0.031235708
71	0x3d84e3af	0.0648874
72	0xbbd2818e	-0.0064241355
73	0xbb8a193f	-0.0042144354
74	0xbdd8c4a5	-0.10584382
75	0x3c5aae13	0.013347167
76	0xbdd55bf0	-0.10417926
77	0xbc7b7458	-0.015347563
78	0x3ccf0669	0.025271611
79	0x3d933477	0.07187741
80	0x3d1e5697	0.038656797
81	0xbdc0e4ea	-0.09418662
82	0xbd9aba8c	-0.07555112
83	0xbd7aca96	-0.061228357
84	0xbc7289b9	-0.014803343
85	0xbd6eecc3	-0.058331262
86	0xbd27b367	-0.040942576
87	0xbc93f552	-0.018061314
88	0x3dbf97e1	0.093551405
89	0x3dc17482	0.0944605
90	0xbdf9df46	-0.12200789
91	0xbd85a67c	-0.06525895
92	0xbd1c35e9	-0.03813735
93	0xbd17175e	-0.03688752
94	0xbd7a107c	-0.061050877
95	0xbd679ade	-0.056544177
96	0x3a659b73	0.00087588205
97	0x3cd34988	0.025791898
98	0x3dac6fa6	0.08419733
99	0xbdbf4053	-0.09338441
100	0xbd7f57fe	-0.062339775
101	0xbb5a1f87	-0.0033282952
102	0x3dda3dd6	0.106563255
103	0x3cf075d2	0.029353056
104	0x3dde7346	0.108618304
105	0xbcb7f07f	-0.022453545
106	0xbcc21f5e	-0.023696598
107	0xbd8c700d	-0.068573095
108	0xbd85ef86	-0.06539826
109	0xbdf35f4f	-0.11883413
110	0xbd649ac6	-0.055811666
111	0xbce376e2	-0.027766649
112	0xbe0fa3e2	-0.1402736
113	0xbc81ce1b	-0.015845349
114	0xbd017a6d	-0.031610895
115	0xbc378af4	-0.011202563
116	0x3d1eba16	0.038751684
117	0x3ddec8f6	0.10878174
118	0xbc3b3b6d	-0.011427742
119	0xbdaa3d39	-0.083124585
120	0x3c8f7c99	0.017515467
121	0x3d40abde	0.047038905
122	0xbdc9dd58	-0.09856671
123	0x3e083568	0.13301623
124	0x3e4c4e23	0.19951682
125	0x3ce6ba70	0.028165072
126	0x3df588a2	0.11988951
127	0x3ca893f2	0.020578358
128	0x3d0d9a1b	0.034570795
129	0x3c0197f3	0.007909763
130	0x3db478a3	0.08812072
131	0x3e22bfed	0.15893526
132	0xbcaf1071	-0.021370145
133	0xbd62e49e	-0.055393808
134	0x3dbf8b24	0.09352711
135	0xbd8aed8c	-0.0678359
136	0xbd818741	-0.06324626
137	0xbd1d3f91	-0.0383907
138	0xbc44c74f	-0.0120104095
139	0xbda41b37	-0.08013003
140	0xbcbf4faa	-0.023353416
141	0xbcd03ad4	-0.025418676
142	0x3b48c509	0.003063502
143	0x3da3503d	0.079742886
144	0xbd5cc3a0	-0.0538975
145	0x3d1d60b9	0.03842232
146	0x3dd7db9a	0.105399325
147	0x3b06a798	0.002054667
148	0xbd84039a	-0.064459994
149	0xbd22e6f1	-0.039771024
150	0xbd8f4749	-0.069960184
151	0xbdf6c4b5	-0.12049238
152	0xbdd3b5a9	-0.10337383
153	0xbd6f5fd1	-0.058440987
154	0xbd166870	-0.036720693
155	0xbdff8287	-0.12476068
156	0xbcbff2c1	-0.023431184
157	0x3dc3d79d	0.09562609
158	0x3e02769a	0.12740555
159	0xbd0fced5	-0.03510936
160	0xbd321718	-0.043479055
161	0xbdda4948	-0.106585085
162	0xbcb2bf80	-0.02181983
163	0x3ba375c3	0.0049884035
164	0x3dcf1d6f	0.10113036
165	0xbcd9fe17	-0.026610417
166	0xbd270346	-0.040774606
167	0xbd623e92	-0.055235453
168	0xbd03cc56	-0.03217729
169	0xbe15b917	-0.14621387
170	0xbd9565b7	-0.07294791
171	0xbc78e4b9	-0.0151912505
172	0xbd664c72	-0.056225248
173	0xbd07a139	-0.03311274
174	0x3bc77fee	0.0060882485
175	0x3d64736a	0.05577413
176	0x3d0e8313	0.03479297
177	0x3d75624e	0.059908204
178	0x3d451fae	0.048125915
179	0x3e5d1677	0.21590601
180	0x3d9a632d	0.075384475
181	0x3b4f2b18	0.003161138
182	0xbcd64788	-0.026157156
183	0xbdbaaec6	-0.09115367
184	0xbdb14324	-0.08655384
185	0xbdc03c37	-0.09386485
186	0x3dbe07db	0.09278842
187	0x3d050c35	0.032482345
188	0x3d779bea	0.060451426
189	0x3db4c75d	0.08827088
190	0x3c55bca1	0.013045461
191	0xbcfe6295	-0.031052867
192	0xbda5dc80	-0.08098698
193	0xbd5d0c8b	-0.05396704
194	0xbd99a720	-0.0750258
195	0x3d231661	0.039816264
196	0x3da5e209	0.080997534
197	0xbcbd8330	-0.023133844
198	0xbd55849f	-0.05212843
199	0xbc0fa333	-0.008766937
200	0xbdd45f1c	-0.10369703
201	0x3d5277c4	0.05138375
202	0x3e331147	0.1748706
203	0x3e31cd46	0.17363462
204	0xbbfc7f48	-0.007705603
205	0xbc94ddd9	-0.018172191
206	0xbb25fa49	-0.0025326184
207	0x3c891be0	0.016736925
208	0x3d8b05a2	0.06788184
209	0x3d5cbdb7	0.053891864
210	0x3d1101b6	0.035402022
211	0xbd6c7502	-0.057728775
212	0xbcdb684f	-0.026783137
213	0xbdec0267	-0.11523896
214	0xbdfa25ac	-0.122142166
215	0xbd95e24c	-0.07318553
216	0x3cfe1dd5	0.031020084
217	0x3dc3e97b	0.09566017
218	0x3d054161	0.032533053
219	0xbd83562c	-0.0641292
220	0xbdde9a8c	-0.10869321
221	0xbdad99f4	-0.0847663
222	0xbdf793b3	-0.12088718
223	0xbc943e6d	-0.018096173
224	0xbdf314b0	-0.1186918
225	0x3d85424f	0.06506788
226	0x3d333589	0.043752227
227	0x3d36cef2	0.044630952
228	0xbd348fca	-0.04408244
229	0xbda9aa1b	-0.08284398
230	0xbd4a6def	-0.049421247
231	0xbd83aa85	-0.064290084
232	0xbd625890	-0.05526024
233	0xbd90b8f9	-0.07066531
234	0x3ce9c412	0.028535876
235	0x3d091e04	0.03347589
236	0x3d32796d	0.043572832
237	0xbd2e80d3	-0.042603325
238	0xbdecabb6	-0.11556189
239	0xbd678923	-0.05652727
240	0xbd589382	-0.05287505
241	0xbdb3de14	-0.087825924
242	0xbdab55e6	-0.08365993
243	0xbd0a2fa7	-0.03373685
244	0x3d25dd95	0.04049452
245	0x3cd59e52	0.02607647
246	0x3d97b708	0.07407957
247	0x3dcedcd6	0.10100715
248	0x3dba492e	0.09095989
249	0xbaf9894f	-0.0019038114
250	0xbdabf97e	-0.08397196
251	0xbd9b4244	-0.075809985
252	0x3cdb55a6	0.026774239
253	0x3d91c789	0.071181364
254	0x3d3d6b75	0.046245057
255	0x3b4b08e9	0.0030980653

encoder.6.bias f4 [32]
0	0x3c518c3c	0.012789782
1	0xbc788771	-0.0151690105
2	0xbe387185	-0.18012054
3	0x3cd7f981	0.02636409
4	0xbc9cc313	-0.019135987
5	0x3d184c1f	0.03718197
6	0x3e0c601b	0.13708536
7	0x3d8e37b3	0.069442175
8	0xbdc33184	-0.09530929
9	0xbdd7babb	-0.10533663
10	0xbd5a86d0	-0.053351223
11	0xbd919a97	-0.07109564
12	0xbcb58b2c	-0.022161089
13	0x3e0f4de6	0.1399456
14	0x3dac82eb	0.08423408
15	0xbe04cf30	-0.12969661
16	0x3e308b88	0.17240727
17	0xbd36391a	-0.04448805
18	0xbd74797e	-0.059686176
19	0x3cf14e00	0.029456139
20	0x3d88610c	0.06659135
21	0xbdd2ca83	-0.10292532
22	0x3c6a3eb7	0.014297179
23	0xbcb0899d	-0.021549994
24	0x3ce8c381	0.028413536
25	0xbd3feb0d	-0.04685502
26	0x3dccdf84	0.1000357
27	0xbdce56a9	-0.10075123
28	0x3c887fcc	0.0166625
29	0x3d707135	0.058701713
30	0xbddd38d5	-0.108018555
31	0x3d554f5d	0.05207764

bottle_neck.0.conv_block.1.weight f4 [32, 32, 3, 3]
0	0xbd5f8f12	-0.0545798
1	0x3ce64d8b	0.028113147
2	0xbd5ae14f	-0.053437527
3	0x3d82afa2	0.063811556
4	0x3c0cb4dc	0.008588042
5	0x3d85af24	0.06527546
6	0xbd2178ef	-0.039421972
7	0xbd9a970a	-0.0754834
8	0x3d24e587	0.040257957
9	0xbd29b0f5	-0.041428525
10	0xbdd152d1	-0.10220874
11	0xbce9e3bc	-0.028550975
12	0xbd8d40ce	-0.06897126
13	0x3d7c1d99	0.061551664
14	0x3e15b4ae	0.14619705
15	0x3b498d70	0.003075447
16	0xbacd205f	-0.0015649906
17	0x3c51146c	0.012761217
18	0x3d2ecbf2	0.042674966
19	0x3d148a0f	0.036264475
20	0x39fd1c11	0.00048276832
21	0xbd9006dd	-0.07032559
22	0xbd9e124d	-0.07718334
23	0xbe09fdb8	-0.13475692
24	0x3d8904fe	0.06690405
25	0x3d9a5dc6	0.07537417
26	0x3d8b3567	0.06797295
27	0x3d5a3004	0.053268448
28	0x3d4beb20	0.04978478
29	0x3c29201b	0.010322596
30	0xbd943851	-0.07237304
31	0xbdadeb35	-0.08492128
32	0xbe114761	-0.14187385
33	0xbd7097af	-0.058738407
34	0xbcbfcf60	-0.023414314
35	0xbc83c3df	-0.01608461
36	0xbc943f82	-0.01809669
37	0xbc408c18	-0.011752151
38	0x3d09bb23	0.033625733
39	0xbdf9909c	-0.12185785
40	0xbe0d24a9	-0.13783516
41	0xbe1b3c8e	-0.15159819
42	0xbd03acfb	-0.03214739
43	0x3c9d32e2	0.019189302
44	0xbd914c76	-0.07094662
45	0xbce13828	-0.027492598
46	0xbd386320	-0.045016408
47	0xbd4c7cb8	-0.04992363
48	0x3e060b62	0.1309028
49	0x3e0bc4f1	0.13649346
50	0x3dba2a58	0.09090108
51	0x3d826276	0.06366436
52	0xbc072b51	-0.0082500735
53	0x3c07f774	0.0082987435
54	0x3bc9f68e	0.006163425
55	0x3b587f96	0.0033035032
56	0x3d4f8f3d	0.050673712
57	0xbe0de3c2	-0.13856414
58	0xbdb9452d	-0.09046397
59	0xbdd7d85c	-0.10539314
60	0x3c37fd32	0.0112298
61	0x3d6fcb2e	0.058543377
62	0xbe0310a7	-0.12799321
63	0xbd27832c	-0.04089658
64	0xbc0e023c	-0.008667525
65	0x3d7b98cf	0.061425027
66	0xbd2b91f2	-0.04188723
67	0x3b2e2228	0.0026570652
68	0x3e0b2541	0.1358843
69	0x3dd8685c	0.1056678
70	0x3bc33bb8	0.0059580468
71	0x3e03b569	0.12862171
72	0x3c15618e	0.009117497
73	0x3c54bcb7	0.012984446
74	0x3d3c7f6e	0.046019964
75	0x3d30ea2b	0.04319207
76	0xbe0a1f03	-0.13488393
77	0x3dab9022	0.083771005
78	0x3c9a6b33	0.018849945
79	0xbdde9469	-0.10868151
80	0xbdf1017b	-0.117678605
81	0x3d700f71	0.058608476
82	0x3cf3b6ff	0.029750345
83	0x3ddcacbc	0.10775134
84	0x3d8f5f95	0.07000653
85	0xbcc8d979	-0.024517762
86	0x3e050eaf	0.12993883
87	0xbd69eda9	-0.057111416
88	0xbe039f25	-0.12853678
89	0xbd5a557b	-0.053304177
90	0x3ce9c4bf	0.028536199
91	0x3e059b64	0.13047558
92	0xbe10d4ad	-0.1414363
93	0x3cc9e226	0.024643969
94	0x3d9490ee	0.07254206
95	0x3db0c71e	0.086317286
96	0x3d1770ed	0.03697293
97	0x3e172b81	0.14762689
98	0x3db3d546	0.08780913
99	0xbd2db200	-0.042406082
100	0xbd0137b5	-0.031547267
101	0xbd99a78b	-0.075026594
102	0x3cf40ee7	0.029792262
103	0x3e5a456f	0.2131555
104	0x3e1bb69c	0.15206379
105	0x3d63d49a	0.055622675
106	0x3d1cd456	0.038288437
107	0x3dfb5a8e	0.12273131
108	0x3c6d00a0	0.014465481
109	0xbd1a0700	-0.037604332
110	0x3d265e1c	0.040617093
111	0xbd34733e	-0.044055216
112	0xbdb4a81e	-0.08821128
113	0xbd810ed9	-0.0630166
114	0x3d90ef22	0.07076861
115	0xbc98b638	-0.018641576
116	0x3d323d61	0.043515567
117	0xbdd9826e	-0.106205806
118	0xbd3fbea2	-0.04681266
119	0xbd731a5e	-0.059351318
120	0x3ddc051e	0.107431635
121	0x3e118c75	0.14213736
122	0xbbd7aa96	-0.0065816147
123	0xbcdd8237	-0.02703963
124	0x3d4f9b0d	0.050684977
125	0x3d917cc0	0.07103872
126	0x3c952aec	0.018208943
127	0xbda22613	-0.07917418
128	0x3ca2a942	0.019856099
129	0xbe29d27d	-0.16584201
130	0x3d3fc1cb	0.046815675
131	0x3cea22ec	0.028581105
132	0x3df8062f	0.121105544
133	0x3d6b5969	0.057458315
134	0x3dd0bec3	0.10192635
135	0x3ce29ef1	0.02766368
136	0x3c71943d	0.014744815
137	0x3baa4329	0.0051959944
138	0x3dd3806a	0.103272274
139	0x3d2c9fae	0.04214447
140	0x3d000337	0.031253066
141	0xbc724ccb	-0.014788817
142	0xbe083886	-0.13302812
143	0xbca5dc20	-0.020246565
144	0x3cb82f84	0.022483595
145	0xbd83d969	-0.06437952
146	0xbdaa67c1	-0.08320571
147	0xbda4f13d	-0.08053825
148	0xbc9f1231	-0.019417854
149	0x3cf42e62	0.029807273
150	0x3b4fa2f0	0.0031682812
151	0xbc61973d	-0.013768968
152	0x3e022b29	0.12711777
153	0x3cbb5153	0.022865927
154	0x3d611e94	0.054960802
155	0x3d896dea	0.067104176
156	0xbd8fe9e4	-0.07027033
157	0xbdb6b6f2	-0.08921613
158	0xbdacebde	-0.084434256
159	0xbda42931	-0.08015669
160	0xbdd6ec66	-0.10494308
161	0xbdb4edaf	-0.08834397
162	0xbb2ae2b9	-0.0026075079
163	0xbbda70ed	-0.006666294
164	0xbe532492	-0.20619419
165	0x3da37b1d	0.07982466
166	0x3e00cb3d	0.12577529
167	0x3e0e35c7	0.13887702
168	0x3d958e56	0.07302539
169	0x3db5b195	0.08871762
170	0x3d616667	0.0550293
171	0x3d525cbe	0.051357977
172	0xbc4c0441	-0.012452186
173	0x3c2f0330	0.010681912
174	0x3c1a29d3	0.009409386
175	0xbe2d6fa6	-0.16937122
176	0x3cf2bf18	0.029632136
177	0x3de18971	0.11012543
178	0xbd64fb41	-0.055903677
179	0xbbac3a48	-0.005255971
180	0x3c3ccda5	0.011523639
181	0xbd8c7ed6	-0.068601295
182	0x3d2f72e0	0.042834163
183	0xbd935a31	-0.07194937
184	0x3d554282	0.05206538
185	0x3c80104b	0.01563277
186	0x3d0dc70c	0.034613654
187	0x3db89704	0.09013179
188	0x3e1be20e	0.15222952
189	0xbc008fb7	-0.007846764
190	0xbaf2c4ad	-0.0018521749
191	0x3d41b6af	0.04729336
192	0xbdf17101	-0.11789132
193	0xbe5e4b61	-0.21708442
194	0xbc915f25	-0.017745564
195	0xbc6545a9	-0.013993659
196	0xbd45d84d	-0.048301984
197	0xbde555f2	-0.111980334
198	0xbd64d79e	-0.05586969
199	0xbbb253c2	-0.0054421136
200	0xbb8bbd49	-0.004264508
201	0x3e212698	0.15737379
202	0xbcb0e062	-0.021591369
203	0xbd9fb66c	-0.07798466
204	0xba700339	-0.00091557537
205	0x3b4c918d	0.0031214685
206	0x3dff0b2d	0.124533035
207	0x3dbe404a	0.09289606
208	0x3bfeb007	0.007772449
209	0xbcc7c4a8	-0.024385765
210	0xbe48287c	-0.19546694
211	0xbd8a4789	-0.067519255
212	0xbca97ca2	-0.020689312
213	0x3daa4a3d	0.08314941
214	0x3e018898	0.12649763
215	0xbd804033	-0.06262245
216	0xbd10dc71	-0.03536648
217	0xbd078092	-0.0330816
218	0x3cb588f5	0.022160033
219	0xbd219d36	-0.03945657
220	0xbe1b01d5	-0.15137418
221	0xbe086d39	-0.13322915
222	0xbae21ffd	-0.0017251965
223	0xbd8092e9	-0.06278021
224	0xbdaccad7	-0.08437126
225	0x3daa9c57	0.08330601
226	0x3c0985af	0.008393689
227	0x3e1c215c	0.152471
228	0xbd14084b	-0.03614072
229	0xbdcf60c7	-0.10125881
230	0x3d054188	0.0325332
231	0xbde84d37	-0.113428526
232	0xbe043c7f	-0.12913702
233	0xbd920355	-0.07129542
234	0x3b951844	0.004550012
235	0x3d3beaab	0.045878094
236	0xbaa2ad3d	-0.0012411248
237	0x3db887eb	0.09010299
238	0x3cdf8299	0.027283954
239	0xbc5ef996	-0.013609311
240	0xbd4e39ee	-0.050348215
241	0xbcd3dfbc	-0.02586352
242	0xbd7dd4a7	-0.06197038
243	0x3dab0201	0.083499916
244	0x3d9fc893	0.07801928
245	0x3c964911	0.018345388
246	0x3e524cac	0.2053706
247	0x3bc2136d	0.005922726
248	0x3d50ee01	0.05100823
249	0x3dbb0444	0.09131673
250	0xbbea19ec	-0.0071442034
251	0xbaf034d7	-0.0018326294
252	0xbd191db0	-0.037381828
253	0xbe120485	-0.14259537
254	0x3cf35584	0.029703863
255	0x3d091d7a	0.033475377

bottle_neck.0.conv_block.2.weight f4 [32]
0	0x3f8daa85	1.1067663
1	0x3f8e54bf	1.1119612
2	0x3f7e6c30	0.9938383
3	0x3f6a480f	0.915162
4	0x3f6f0c48	0.93378115
5	0x3f79a466	0.9751648
6	0x3f827dd7	1.0194653
7	0x3f7e045a	0.9922539
8	0x3f78d0ad	0.97193414
9	0x3f8703fc	1.0548091
10	0x3f7b7016	0.98217905
11	0x3f79c824	0.97571015
12	0x3f552d9f	0.8327274
13	0x3f82f190	1.0229969
14	0x3f808ab4	1.0042329
15	0x3f84ae38	1.0365667
16	0x3f7c7c55	0.98627216
17	0x3f84a8b8	1.0363989
18	0x3f60d609	0.8782659
19	0x3f87cfa6	1.0610244
20	0x3f818d4d	1.0121247
21	0x3f877060	1.0581169
22	0x3f8186e8	1.0119295
23	0x3f84e215	1.0381495
24	0x3f8033ea	1.0015843
25	0x3f7ad8ce	0.9798707
26	0x3f66ee53	0.90207404
27	0x3f73b67b	0.9520032
28	0x3f847a0c	1.0349746
29	0x3f809d7b	1.0048059
30	0x3f74349f	0.95392793
31	0x3f6ea756	0.93224084

bottle_neck.0.conv_block.2.bias f4 [32]
0	0xbda1502d	-0.078766204
1	0xbd2da80a	-0.042396583
2	0xbe455766	-0.19271621
3	0xbdcd02cf	-0.10010301
4	0xbe37815e	-0.17920443
5	0xbe0b4d12	-0.13603619
6	0xbe665173	-0.22492008
7	0xbe464954	-0.1936391
8	0xbe541784	-0.20712095
9	0xbde25283	-0.11050894
10	0xbe58909e	-0.21148917
11	0xbe031973	-0.12802677
12	0xbe28c798	-0.16482389
13	0xbe02bf1b	-0.12768213
14	0xbe664810	-0.22488427
15	0xbe4f7d60	-0.2026267
16	0xbe30a173	-0.17249088
17	0xbdf89da5	-0.12139443
18	0xbe286826	-0.1644598
19	0xbe43ca00	-0.19120026
20	0xbe28a5da	-0.16469517
21	0xbe81b08c	-0.25330007
22	0xbe3cf6d8	-0.18453538
23	0xbe0b605d	-0.13610978
24	0xbe121a00	-0.1426773
25	0xbe2d5c2a	-0.16929689
26	0xbe791782	-0.24325374
27	0xbc60e3d2	-0.013726192
28	0xbdc4d498	-0.096108615
29	0xbe2c83a3	-0.1684709
30	0xbe131d47	-0.14366637
31	0xbe0c1999	-0.1368164

bottle_neck.0.conv_block.2.running_mean f4 [32]
0	0xbee4616f	-0.44605586
1	0x3ed97939	0.42475298
2	0xbf3b60d5	-0.7319463
3	0xbc85dbc7	-0.01634015
4	0xc00864e9	-2.131159
5	0xbed9b0f5	-0.4251782
6	0x3d623195	0.055223066
7	0x3ce0ac81	0.027426006
8	0xbf4bed0a	-0.7965857
9	0xbf0e9365	-0.55693656
10	0x3f104e3a	0.56369364
11	0xc027d005	-2.6220715
12	0xbf5ffb42	-0.87492764
13	0x3f898558	1.0743818
14	0xbf8c9508	-1.0982981
15	0x3f0ddd3e	0.55415714
16	0xbf21bcc0	-0.63178635
17	0x3d988d5b	0.074488364
18	0x3ddfacaa	0.10921605
19	0x3e446199	0.19177856
20	0xbe971feb	-0.2951654
21	0xbf1d3f27	-0.6142449
22	0x3f126efd	0.57200605
23	0x3f70b827	0.94030994
24	0xbe9924f3	-0.29911003
25	0xbee09df0	-0.43870497
26	0x3e57b24e	0.21064112
27	0xbfbf6ade	-1.4954488
28	0x3d22bc41	0.039730314
29	0xbf8c9ec5	-1.0985953
30	0x3ea1aa69	0.31575325
31	0xbf96df41	-1.1786882

bottle_neck.0.conv_block.2.running_var f4 [32]
0	0x40353bae	2.8317676
1	0x407540d0	3.8320808
2	0x40710ef5	3.766538
3	0x408b79af	4.358604
4	0x409345c8	4.602268
5	0x40491491	3.1418803
6	0x407ab2f3	3.9171722
7	0x406a6af3	3.6627777
8	0x4070cd93	3.7625473
9	0x405b0cb0	3.4226494
10	0x403657bd	2.8491051
11	0x40a2c51e	5.086562
12	0x40023558	2.0345058
13	0x408a3f2d	4.320212
14	0x40190e0a	2.3914819
15	0x405899a9	3.3843787
16	0x40474867	3.113794
17	0x4051410c	3.2695951
18	0x404d9b9c	3.2126226
19	0x40659855	3.5874226
20	0x4032fb51	2.7965891
21	0x404d53f9	3.2082503
22	0x404e405b	3.222678
23	0x4053e10a	3.3106103
24	0x4036125b	2.8448703
25	0x40370593	2.8597152
26	0x40253c34	2.5817995
27	0x405ea02c	3.478526
28	0x403f1fd8	2.9863186
29	0x40aa1540	5.315094
30	0x40590030	3.3906364
31	0x4024f029	2.5771582

bottle_neck.0.conv_block.5.weight f4 [32, 32, 3, 3]
0	0x3d23f737	0.040030684
1	0x3cc1f6d1	0.023677262
2	0xbc1ce5b7	-0.009576253
3	0x3d2be957	0.041970577
4	0x3dcccc90	0.09999955
5	0x3e082273	0.13294391
6	0xbd4cf5ed	-0.05003922
7	0xbd178132	-0.036988445
8	0x3cfd9f1a	0.030959655
9	0xbd098564	-0.033574477
10	0x3c9e321b	0.019311002
11	0xbd88588e	-0.066575155
12	0xbd715995	-0.058923323
13	0xbe0fb8dc	-0.14035362
14	0xbe4510a2	-0.19244626
15	0x3df48ef6	0.1194133
16	0x3da76473	0.08173456
17	0xbdf9318b	-0.12167653
18	0xbdbc303c	-0.091888875
19	0xbc9ec562	-0.019381229
20	0xbb2c0fbb	-0.0026254493
21	0x3d4d32ee	0.0500974
22	0xbcf0b5d7	-0.029383583
23	0xbc9d5185	-0.01920391
24	0xbdcd6be5	-0.10030345
25	0xbbc57e4d	-0.006027019
26	0xbd1093aa	-0.035297073
27	0x3c94bfd1	0.018157871
28	0xbd365b79	-0.04452083
29	0xbe126fde	-0.14300486
30	0xbd019c87	-0.031643417
31	0x3c04eecd	0.008113575
32	0x3daaf66e	0.08347784
33	0x3de6755c	0.11252853
34	0xbd3c7d6b	-0.046018045
35	0xbe0297d6	-0.12753233
36	0x3d9f7b75	0.077872194
37	0x3d2cc0be	0.042176
38	0x3d11eeaa	0.035628
39	0x3d03b161	0.032151584
40	0xbdf8679e	-0.121291384
41	0x3d3b1f6c	0.045684263
42	0x3db79a91	0.08965028
43	0xbcde08ca	-0.0271038
44	0xbd16f315	-0.036852915
45	0xbd49af07	-0.049239185
46	0xbd847c47	-0.064690165
47	0xbe174744	-0.1477328
48	0x3d83e87f	0.064408295
49	0x3ca263f0	0.019823045
50	0x3d59f503	0.053212177
51	0xbd2e6530	-0.04257697
52	0x3d758fe9	0.059951697
53	0xbd2642ea	-0.040591158
54	0xbbaf1971	-0.005343609
55	0xbe0371e9	-0.12836422
56	0xbe2b6fdb	-0.16741888
57	0xbd9bb377	-0.076025896
58	0x3c808e1a	0.01569276
59	0xbc6a78b3	-0.0143110035
60	0x39e4353a	0.00043527206
61	0x3d11c622	0.035589345
62	0xbda41e78	-0.08013624
63	0xbdf6bf7c	-0.120482415
64	0xbb89331c	-0.004187001
65	0xbcb0f49f	-0.02160102
66	0x3cf80175	0.030274132
67	0xbc460e7b	-0.012088413
68	0xbd9a91a6	-0.075473115
69	0xbdd953c2	-0.10611679
70	0xbe0484af	-0.1294124
71	0xba9d09fa	-0.0011981123
72	0x3cab9f10	0.02094987
73	0xbd994351	-0.07483543
74	0xbde2d1fb	-0.11075207
75	0xbe05f418	-0.13081396
76	0x3d666666	0.05625
77	0x3db57284	0.08859733
78	0xbd0a5b41	-0.033778433
79	0x3dc3b10c	0.095552534
80	0xbe0170be	-0.12640664
81	0xbd92e3ae	-0.07172333
82	0x3e20aa32	0.15689924
83	0x3d1d5429	0.03841034
84	0x3df87e21	0.12133432
85	0xbd61e741	-0.05515218
86	0xbd8fec93	-0.07027545
87	0xbbca58ef	-0.0061751525
88	0x3dcd7143	0.100313686
89	0xbdeb9017	-0.11502092
90	0xbe563d1c	-0.20921749
91	0x3ccbba4b	0.024869105
92	0xbd0f1b1a	-0.034937955
93	0xbd649b61	-0.055812243
94	0xbc7892d8	-0.015171729
95	0xbdda2338	-0.10651249
96	0x3cd5fbbf	0.026121018
97	0x3db5cb34	0.088766485
98	0xbd98644e	-0.074410066
99	0x3e02eac2	0.12784865
100	0x3dac16de	0.08402799
101	0x3bf32b3c	0.0074209254
102	0x3cab019a	0.020874787
103	0x3cfe2aff	0.031026362
104	0x3d1566c2	0.03647495
105	0xbda1fc7a	-0.07909484
106	0x3d184d2c	0.03718297
107	0x3da9a7db	0.08283969
108	0xbd1159d5	-0.03548606
109	0x3d3a6528	0.045506626
110	0x3d35c8bb	0.044380885
111	0x3d2ac8ff	0.04169559
112	0x3a85407f	0.0010166316
113	0x3b72b4c2	0.003703401
114	0xbd138349	-0.036013875
115	0x3dde48ee	0.10853754
116	0xbe0b9a15	-0.13632996
117	0xbd9d10e7	-0.076692395
118	0xbba8965e	-0.0051448783
119	0xbd606fb9	-0.054794047
120	0x3d58c358	0.05292067
121	0xbb961b4d	-0.004580891
122	0xbd2740e8	-0.040833384
123	0xba132a3d	-0.0005613899
124	0x3da2007e	0.0791025
125	0x3cae6bd9	0.02129166
126	0x3c902eb6	0.017600399
127	0xbd7dcc94	-0.06196268
128	0xbcef8ae3	-0.029241031
129	0x3c5244ff	0.012833833
130	0xbe2e7a9e	-0.17038962
131	0xbe4936e0	-0.1964984
132	0x3c80a815	0.015705148
133	0x3dd709a3	0.10499885
134	0x3caac785	0.020847091
135	0xbb73460d	-0.003712061
136	0x3c9cfe0b	0.019164106
137	0xbd93c00f	-0.07214367
138	0xbdee7b25	-0.11644582
139	0xbdf22e4b	-0.11825236
140	0xbe033bba	-0.12815753
141	0x3cf1c5cc	0.029513262
142	0x3dc256ae	0.09489189
143	0x3da5bd2e	0.08092724
144	0xbd7b3d95	-0.061338026
145	0xbda0cd11	-0.07851613
146	0xbc181afe	-0.009283779
147	0xbcc4eb8f	-0.024038104
148	0x3d2236e1	0.039603118
149	0xbccf2337	-0.025285346
150	0x3d92998f	0.07158195
151	0xbd824d71	-0.06362427
152	0x3db6d5c8	0.08927494
153	0x3db7d9aa	0.08977063
154	0xbd40d046	-0.047073625
155	0xbdcf177e	-0.10111903
156	0x3cead772	0.028667185
157	0xbe46408a	-0.19360557
158	0xbe222839	-0.15835656
159	0xbdb1e1d8	-0.086856544
160	0x3e5f84ce	0.21828005
161	0xbb734066	-0.0037117242
162	0x3cbc4725	0.022983143
163	0xbd3edcc0	-0.046597242
164	0xbba8edad	-0.0051552863
165	0xbd2c86f9	-0.042120907
166	0xbcd9d9a4	-0.026593037
167	0xbd82ab9b	-0.063803874
168	0x3dc192a1	0.09451795
169	0x3d9d0881	0.076676376
170	0xbadfcd62	-0.0017074759
171	0xbcc5f5b7	-0.024165018
172	0xbb5e4ab3	-0.0033919036
173	0xbdb992ea	-0.09061225
174	0xbd1a4b9c	-0.037669763
175	0xbe3f55b4	-0.18685037
176	0xbe22e375	-0.1590708
177	0x3dd03026	0.101654336
178	0x3e16f0fd	0.14740367
179	0x3e0ac17c	0.13550371
180	0x3dab6674	0.08369151
181	0x3ca4f9b4	0.020138599
182	0xbd75353b	-0.059865218
183	0xbde45a1c	-0.111499995
184	0x3c05602c	0.008140605
185	0x3a68f13f	0.0008886046
186	0x3d7d9cfc	0.06191729
187	0x3d18dee2	0.037321933
188	0x3e010a79	0.12601651
189	0xbd5e2802	-0.054237373
190	0x3da564ce	0.080758676
191	0x3d03137c	0.032001004
192	0x3d771ffc	0.060333237
193	0x3c6351fb	0.013874526
194	0xbd1a30a5	-0.037644047
195	0xbc39e3c7	-0.01134581
196	0xbc99eac3	-0.0187887
197	0xbc97fbb9	-0.018552648
198	0xbda62631	-0.08112753
199	0xbdbf8116	-0.09350793
200	0x3d244203	0.040102016
201	0xbda36f51	-0.07980216
202	0xbd91e941	-0.07124568
203	0x3d8b4b73	0.068015
204	0x3e0dc86b	0.13845985
205	0xbcd66c5e	-0.02617472
206	0x3d40f29d	0.047106374
207	0x3dab0812	0.08351149
208	0xbd5deadf	-0.05417907
209	0xbcbe599b	-0.023236087
210	0xbd39c81d	-0.04535686
211	0xbe0c04d7	-0.13673721
212	0xbe2e2d07	-0.17009364
213	0x3e1262e8	0.14295542
214	0x3c4deccb	0.012568663
215	0xbdfcede7	-0.12350064
216	0x3d6fd24d	0.058550168
217	0x3dd5a64d	0.1043211
218	0xbde73513	-0.1128942
219	0xbdb5ed98	-0.08883208
220	0xbd229156	-0.039689384
221	0xbd8a71c7	-0.067599826
222	0x3d98af04	0.074552566
223	0x3bec9d9e	0.007220938
224	0x3d4c2557	0.049840298
225	0x3cee6987	0.029103054
226	0x3b1db7c9	0.0024065843
227	0xbd6e92ee	-0.05824559
228	0x3d24e516	0.040257536
229	0xbd29197c	-0.04128407
230	0xbd9ce549	-0.0766092
231	0xbd64b53a	-0.055836894
232	0xbc455cd5	-0.012046059
233	0x3d5a57ae	0.053306274
234	0x3c870a9a	0.016484547
235	0xbc242955	-0.01001962
236	0x3d88ff1d	0.06689284
237	0x3d5ad88e	0.05342918
238	0x3d3269af	0.04355782
239	0x3dbccc40	0.09218645
240	0xbc15c9b9	-0.009142333
241	0x3bf51792	0.0074796164
242	0xbe208692	-0.15676335
243	0x3c346c61	0.011012168
244	0xbd180833	-0.037117194
245	0x3d58bb62	0.052913077
246	0xbc11ca0f	-0.008898272
247	0x3dd3d85c	0.10344002
248	0x3dc5ab1b	0.096517764
249	0x3d499e2c	0.04922311
250	0x3c7a3bfe	0.015273092
251	0xbd17e7cf	-0.037086304
252	0x3d720aa2	0.05909217
253	0x3d6f69da	0.058450557
254	0xbd885030	-0.066559196
255	0xbd7e934a	-0.062152185

bottle_neck.0.conv_block.6.weight f4 [32]
0	0x3f65e701	0.8980561
1	0x3f7678c5	0.9627803
2	0x3f4c08b8	0.79700804
3	0x3f7c6e83	0.9860613
4	0x3f55fae7	0.8358597
5	0x3f6e4f3c	0.9308965
6	0x3f71c20f	0.94436735
7	0x3f6afa0f	0.9178781
8	0x3f8232a4	1.0171704
9	0x3f83ddaf	1.0302027
10	0x3fa1b22b	1.2632498
11	0x3f82a708	1.0207224
12	0x3f79c5d8	0.9756751
13	0x3f7a5c15	0.97796756
14	0x3f636285	0.88822204
15	0x3f85a8f4	1.0442185
16	0x3f666c8c	0.9000938
17	0x3f89b6ca	1.0758908
18	0x3f6d188d	0.92615587
19	0x3f81a9ac	1.0129905
20	0x3f8886e5	1.0666167
21	0x3f5e31f7	0.8679499
22	0x3f8174be	1.0113752
23	0x3f75179b	0.95739144
24	0x3f8b1233	1.0864929
25	0x3f8c3d6c	1.0956244
26	0x3f8bd238	1.0923529
27	0x3f7a6205	0.97805816
28	0x3f65eaad	0.8981121
29	0x3f8dae25	1.106877
30	0x3f73febf	0.95310587
31	0x3f823f22	1.0175517

bottle_neck.0.conv_block.6.bias f4 [32]
0	0xbd77c134	-0.060486987
1	0x3d65b8d8	0.056084484
2	0xbc215ff4	-0.009849537
3	0xbd3a82fd	-0.045535076
4	0x3968ce73	0.00022202152
5	0xbd90c243	-0.070683025
6	0xbdd35051	-0.103180535
7	0xbcaabb15	-0.02084116
8	0xbdaa3401	-0.083107
9	0xbbb1b1eb	-0.005422821
10	0x3c7eb4fe	0.015546082
11	0x3ca05d54	0.019575752
12	0xbd9b58e2	-0.075853124
13	0xbd3636e6	-0.04448595
14	0xbde29f0d	-0.11065493
15	0xbdd6f0be	-0.10495137
16	0x3c3999e4	0.011328194
17	0xbd39e037	-0.045379844
18	0x3d609285	0.054827232
19	0xbd95cedc	-0.07314846
20	0xbd908b29	-0.07057793
21	0xbd34900d	-0.04408269
22	0x3dd19629	0.10233719
23	0xbcc04ca6	-0.023474049
24	0x3d754040	0.059875727
25	0xbca227da	-0.019794393
26	0xbd6d2426	-0.057895802
27	0xbcce7ec8	-0.025206938
28	0xbdac7fdf	-0.08422827
29	0xbdf6dcb6	-0.12053816
30	0xbda8e478	-0.08246702
31	0xbd9b2e8b	-0.07577237

bottle_neck.0.conv_block.6.running_mean f4 [32]
0	0xbec3808c	-0.3818401
1	0x3d2455bd	0.04012083
2	0xbfa6b0d5	-1.3022715
3	0xbe860207	-0.26173422
4	0x3e68b836	0.22726521
5	0x3e15a844	0.1461497
6	0x3fa175b7	1.2614049
7	0x3e5a8b7d	0.21342273
8	0x3e11f101	0.14252092
9	0x3fd28245	1.6446005
10	0xbf7e3a31	-0.99307543
11	0xbe519530	-0.20467067
12	0xbecd8853	-0.4014307
13	0x3f0dc7a1	0.55382735
14	0xbf0274d3	-0.5095951
15	0xbe68a3b0	-0.22718692
16	0x3e963497	0.29336998
17	0x3fa2c6d8	1.2716932
18	0x3e123b5c	0.14280456
19	0x3f20fe6b	0.6288821
20	0xbf2c23f9	-0.6724239
21	0x3e6c7ea6	0.23095188
22	0xbf3b262d	-0.73105127
23	0x3eac650a	0.33670837
24	0x3e799be4	0.24375874
25	0xbd42cb98	-0.047557443
26	0xbf6a661a	-0.91562045
27	0xbdbae0f6	-0.09124939
28	0x3dec41eb	0.1153601
29	0xbf15371f	-0.58287233
30	0x3f2b21f5	0.6684869
31	0xbe029e4e	-0.12755701

bottle_neck.0.conv_block.6.running_var f4 [32]
0	0x3fc5b73f	1.5446547
1	0x401ab448	2.4172535
2	0x4000d9ab	2.0132854
3	0x3fecf334	1.851172
4	0x3fc6ad8f	1.5521716
5	0x3f8ac07c	1.0839992
6	0x3f8cd9b8	1.1003942
7	0x3f7be5e5	0.98397666
8	0x3faf3d43	1.369057
9	0x3fb025ec	1.3761573
10	0x3f9b3279	1.2124778
11	0x3faeba24	1.3650556
12	0x3f95e9c3	1.1711963
13	0x400a3d83	2.1600044
14	0x4017e50e	2.3733554
15	0x3fe7bf5c	1.8105273
16	0x3fb71750	1.430399
17	0x3fc89785	1.567124
18	0x3f48ab99	0.7838684
19	0x3fe4ab12	1.7864707
20	0x3f8e5137	1.1118535
21	0x3fa8c6f4	1.3185716
22	0x3fb3f7fd	1.4060055
23	0x3f8c2ec0	1.0951767
24	0x3fa35156	1.2759197
25	0x3fa65f84	1.2997899
26	0x3fd2a9cb	1.6458067
27	0x3fdbb662	1.7165034
28	0x40088ce1	2.1335986
29	0x3f81f9b7	1.0154332
30	0x3fd433e4	1.6578336
31	0x3fcd43c4	1.6036305

bottle_neck.1.conv_block.1.weight f4 [32, 32, 3, 3]
0	0xbcb7ad3e	-0.022421475
1	0x3e018a25	0.12650354
2	0xbc04384e	-0.008070065
3	0xbdc05f4a	-0.09393175
4	0x3d6f41d8	0.058412403
5	0xbb5a637c	-0.0033323457
6	0x3cf29ef5	0.029616812
7	0x3e1ce821	0.15322925
8	0x3dde8de4	0.10866907
9	0x3da62273	0.081120394
10	0x3c85403d	0.016265983
11	0x3d49ad45	0.04923751
12	0xbd41d3d9	-0.047321174
13	0x3cdb090d	0.026737714
14	0xbd248c6d	-0.040172983
15	0x3d47dd01	0.04879475
16	0x3d2410cc	0.04005508
17	0xbbf6e25d	-0.007534309
18	0xbda73477	-0.08164304
19	0xbdfc015a	-0.12304945
20	0x3b157788	0.0022806842
21	0x3e0edee9	0.13952221
22	0x3d07c2ca	0.03314475
23	0x3e2cdcc3	0.16881089
24	0xbd8105e8	-0.06299955
25	0x3da61d62	0.08111073
26	0xbc4ca839	-0.012491279
27	0xbde630cd	-0.11239777
28	0x3d28333c	0.041064486
29	0x3dbe8502	0.09302713
30	0xbcac74b0	-0.021051735
31	0x3d9f3211	0.07773221
32	0xbd70cd14	-0.058789328
33	0xbd85b712	-0.065290585
34	0xbd893167	-0.06698876
35	0x3c25cdb6	0.010119846
36	0x3cfd882a	0.030948717
37	0xbd3f2e6a	-0.046675123
38	0xbe0a6c33	-0.13517837
39	0x3e095b76	0.13413796
40	0x3dfa3c67	0.12218552
41	0x3dfc052e	0.123056754
42	0xbd039569	-0.03212491
43	0x3dd845f7	0.1056022
44	0xbe121849	-0.14267077
45	0x3d120265	0.035646815
46	0xbe208aec	-0.15677994
47	0xbdc78571	-0.09742249
48	0xba8940f3	-0.0010471627
49	0xbda7f6c2	-0.08201362
50	0x3ddb6874	0.10713282
51	0xbe213387	-0.15742312
52	0x3cd01dc1	0.025404813
53	0xbdcb1c01	-0.09917451
54	0x3c049485	0.00809205
55	0x3c33a653	0.010964948
56	0xbd3e1e36	-0.04641553
57	0xbdb47d33	-0.08812942
58	0x3d436b2c	0.04770963
59	0xbdb96b4a	-0.09053667
60	0x3e16d10a	0.1472818
61	0x3ca6d497	0.020365043
62	0xbcf686e8	-0.030093625
63	0x3b88679f	0.004162743
64	0x3dd98180	0.10620403
65	0x3dbf5ad8	0.09343499
66	0xbe2a3f48	-0.16625702
67	0xbc4d3e6f	-0.012527092
68	0xbe343afb	-0.17600624
69	0xbda010ee	-0.07815729
70	0x3da725f1	0.081615336
71	0x3d445a50	0.04793769
72	0xbda0622c	-0.07831225
73	0x3db5c338	0.08875126
74	0xbe2fdec0	-0.17174816
75	0x3d6ec70c	0.058295295
76	0x3e01fb64	0.12693554
77	0x3c6d2399	0.014473819
78	0x3d882e45	0.0664945
79	0xbcb261e3	-0.021775192
80	0xbd671b8c	-0.056422755
81	0xbd515927	-0.051110413
82	0x3d6655db	0.056234222
83	0x3d8e7270	0.06955421
84	0xbdbe0915	-0.09279076
85	0x3d9464ad	0.07245765
86	0xbd83a9a4	-0.06428841
87	0xbcd200d3	-0.025635159
88	0xbd950cdb	-0.072778426
89	0x3e20219f	0.15637825
90	0x3caaa84f	0.020832209
91	0x3e0acb38	0.13554084
92	0x3d6a5ec0	0.057219267
93	0x3d96ef18	0.07369822
94	0xbe0a3e2c	-0.13500279
95	0x3d1b89a5	0.037973065
96	0x3d8a622a	0.067570046
97	0x3e1f5397	0.1555923
98	0x3e22a41a	0.15882912
99	0x3d5f24d4	0.05447848
100	0x3d6dfcdc	0.058102474
101	0x3db36789	0.08759982
102	0xbd1e6fb7	-0.03868076
103	0xbc4a55c5	-0.012349551
104	0xbcf951aa	-0.030434448
105	0xbe12dcb6	-0.14342007
106	0x3c4e342c	0.012585681
107	0x3d3fd3bf	0.046832796
108	0xbd12ca04	-0.03583719
109	0xbd815f75	-0.06317035
110	0x3c9d8ad3	0.019231236
111	0xbb745bbf	-0.003728613
112	0xbd25c535	-0.040471274
113	0x3d24201f	0.040069696
114	0xbd824e4d	-0.06362591
115	0xbc015349	-0.007893392
116	0xbc0d6903	-0.008630994
117	0xbe014f9b	-0.12628023
118	0xbd045311	-0.03230578
119	0xbd88bcd5	-0.06676642
120	0xbb5d0f8c	-0.003373119
121	0x3d8d4a87	0.068989806
122	0xbdded062	-0.108795896
123	0x3daf7eee	0.08569132
124	0x3cfe00b7	0.0310062
125	0x3e01fac7	0.1269332
126	0xbcbe3e96	-0.023223203
127	0x3d5e179c	0.054221734
128	0x3ce7871c	0.028262667
129	0x3d8e6919	0.069536395
130	0xbd80ea49	-0.06294686
131	0xbd645c9a	-0.055752374
132	0x3d9c3e3f	0.0762906
133	0xbc9c517c	-0.019081824
134	0x3db5d245	0.08877996
135	0x3e06f47b	0.131792
136	0x3e094925	0.13406809
137	0x3cd2a23b	0.025712123
138	0xbd157d72	-0.036496587
139	0xbcca6879	-0.02470802
140	0xbe0ffed7	-0.14062057
141	0x3d9b499c	0.07582399
142	0x3d741eab	0.05959956
143	0xbdb69bea	-0.08916457
144	0xbdb51805	-0.08842472
145	0xbcbb494f	-0.022862105
146	0x3d29ea92	0.04148347
147	0xbd7d8a35	-0.061899383
148	0x3bbfd03d	0.0058536814
149	0xbe48c633	-0.19606857
150	0x3aea8883	0.0017893467
151	0xbd35ea0f	-0.04441267
152	0x3e3da297	0.18519054
153	0xbd0fdf79	-0.03512523
154	0x3dbfe356	0.09369533
155	0xbca7a27d	-0.020463223
156	0x3d96bd13	0.07360282
157	0x3ddbb20d	0.1072732
158	0xbd8a2548	-0.06745392
159	0x3de22a9a	0.11043282
160	0xbdda2a8e	-0.10652648
161	0x3de56be7	0.11202221
162	0x3c80030e	0.015626457
163	0xbb43ac7c	-0.0029857447
164	0x3de0f54e	0.10984288
165	0x3d7f9452	0.06239731
166	0xbd3b1e29	-0.04568306
167	0x3cc95b2b	0.024579605
168	0x3c1ffae7	0.00976441
169	0xbd89ba11	-0.067249425
170	0xbcb13748	-0.021632805
171	0xbdbefea5	-0.09325913
172	0xbd239ab2	-0.03994245
173	0x3d774c7f	0.060375687
174	0x3d2bc210	0.04193312
175	0x3c355250	0.011066988
176	0x3df1c5ef	0.11805331
177	0xbc2a0c09	-0.010378846
178	0xbad4c049	-0.0016231622
179	0xbb80fb89	-0.0039362353
180	0xbe3f7caf	-0.18699907
181	0xbd4a1779	-0.04933879
182	0x3e0bec9c	0.13664478
183	0x3dc5c2c6	0.09656291
184	0xbce9ee43	-0.028555995
185	0xbd80cb1d	-0.06288741
186	0xbe456f09	-0.19280638
187	0xbd24478e	-0.040107302
188	0x3d355ad2	0.044276066
189	0xbdacb6ff	-0.08433341
190	0xbd38c1b3	-0.0451066
191	0xbca73801	-0.020412447
192	0x3df73055	0.120697655
193	0x3dcab50b	0.098978125
194	0x3d966ee2	0.07345368
195	0xbd20b647	-0.039236333
196	0x3caacecd	0.020850563
197	0x3c80026e	0.015626159
198	0xbe068c22	-0.13139394
199	0xbe354183	-0.17700772
200	0x3b7c7db5	0.0038527076
201	0x3e4693c2	0.19392303
202	0x3d59178c	0.05300097
203	0x3df94556	0.12171428
204	0xbdb7cbe3	-0.08974435
205	0xbdba985c	-0.091110915
206	0xbd754466	-0.059879683
207	0xbcd4a46e	-0.025957312
208	0x3d237e4b	0.039915364
209	0x3d859459	0.06522436
210	0xbe0589b4	-0.13040811
211	0xbe357f3c	-0.17724317
212	0xbc8a97e7	-0.016918136
213	0xbc417107	-0.011806733
214	0x3d33662d	0.043798614
215	0xbdc53403	-0.09629061
216	0xbda7b18b	-0.081881605
217	0xbd3c7f54	-0.046019867
218	0xbd84f965	-0.06492881
219	0x3ddd4035	0.10803262
220	0x3df8d6f7	0.12150376
221	0x3d5339b6	0.05156871
222	0x3e18225b	0.14856856
223	0x3d0c8638	0.03430769
224	0x3dd4384a	0.10362299
225	0x3d9511c9	0.07278783
226	0x3deb6a41	0.11494876
227	0xbd082c52	-0.033245392
228	0xbcc295fc	-0.023753159
229	0x3dd99567	0.10624199
230	0xbd5bfd46	-0.053708337
231	0xbb45570f	-0.0030111705
232	0xbd9363cd	-0.0719677
233	0x3d0a4bf2	0.033763833
234	0x3d387940	0.045037508
235	0xbd979afb	-0.07402607
236	0xbd44ea72	-0.048075147
237	0x3e4355e9	0.19075741
238	0x3cc3b291	0.023888858
239	0x3d291423	0.04127897
240	0xbc77420d	-0.015091431
241	0xbba0af1c	-0.004903687
242	0x3ddcc747	0.10780197
243	0xbc039046	-0.008030003
244	0x3d64c246	0.055849336
245	0xbd210f52	-0.03932125
246	0x3e143615	0.14473756
247	0xbdb4080c	-0.08790597
248	0x3e2991bd	0.16559501
249	0x3c38cf2f	0.011279865
250	0xbdcc612a	-0.0997947
251	0xbd1b763e	-0.03795456
252	0xbe022165	-0.12708052
253	0xbe227a62	-0.15866998
254	0xbe18ccef	-0.14921926
255	0x3cbb2538	0.022844896

bottle_neck.1.conv_block.2.weight f4 [32]
0	0x3f6fff0a	0.93748534
1	0x3f7179d8	0.94326544
2	0x3f826063	1.0185665
3	0x3f6f350c	0.9344032
4	0x3f572c0c	0.84051585
5	0x3f844f89	1.0336772
6	0x3f80caaa	1.0061848
7	0x3f637d32	0.8886291
8	0x3f89f7c9	1.0778743
9	0x3f6a2066	0.91455686
10	0x3f715a65	0.94278556
11	0x3f6541c8	0.895535
12	0x3f6ecafc	0.9327848
13	0x3f76cc15	0.96405154
14	0x3f831b27	1.0242661
15	0x3f828af6	1.0198658
16	0x3f79c6bd	0.97568876
17	0x3f7b8955	0.9825643
18	0x3f86e46a	1.0538456
19	0x3f91f619	1.1403228
20	0x3f6ae898	0.9176116
21	0x3f88f6cf	1.070032
22	0x3f8cf4fe	1.1012266
23	0x3f6fb173	0.9363014
24	0x3f714444	0.9424479
25	0x3f653e96	0.89548624
26	0x3f6afe00	0.91793823
27	0x3f7fd006	0.99926794
28	0x3f631da9	0.8871713
29	0x3f8b7ff2	1.0898421
30	0x3f80b6cf	1.0055789
31	0x3f78e823	0.9722921

bottle_neck.1.conv_block.2.bias f4 [32]
0	0xbe779a94	-0.2418006
1	0xbe9dff46	-0.3085882
2	0xbd6c8ff0	-0.057754457
3	0xbe3c82c5	-0.1840926
4	0xbea98387	-0.3310816
5	0xbdfc7a4d	-0.123280145
6	0xbec2a64e	-0.38017505
7	0xbe897ea7	-0.2685444
8	0xbe51088d	-0.20413418
9	0xbe871561	-0.26383498
10	0xbdf4c6d6	-0.119519874
11	0xbe8f9d45	-0.28049675
12	0xbe718f79	-0.23589887
13	0xbe984674	-0.2974125
14	0xbe4a506d	-0.19757243
15	0xbe06ea5e	-0.13175341
16	0xbe727290	-0.23676515
17	0xbe653c8d	-0.2238638
18	0xbdc16424	-0.094429284
19	0xbe8baebb	-0.27281746
20	0xbe7cdd2e	-0.24693748
21	0xbe2a270c	-0.16616458
22	0xbe8d5277	-0.27601978
23	0xbe41393d	-0.18869491
24	0xbe90bde0	-0.28269863
25	0xbe9c58c1	-0.30536464
26	0xbe4d5d7d	-0.20055194
27	0xbe872d11	-0.2640157
28	0xbe4191f7	-0.18903337
29	0xbe9659ee	-0.29365486
30	0xbdf47df0	-0.11938083
31	0xbe590781	-0.21194269

bottle_neck.1.conv_block.2.running_mean f4 [32]
0	0x3f88dac2	1.069176
1	0x3dc1f682	0.09470846
2	0x3f1b8719	0.6075302
3	0xbf14d2c0	-0.5813408
4	0x3ee01c7d	0.43771735
5	0x3f0fae01	0.56124884
6	0x3ebb3533	0.36564025
7	0x3f3757d3	0.71618384
8	0x3f21d5e3	0.6321699
9	0xbe2f1a99	-0.1709999
10	0xbf679f2d	-0.9047726
11	0xbf12e41f	-0.57379335
12	0xbf223760	-0.63365746
13	0x3f0d954e	0.55305946
14	0x3f5749da	0.84097064
15	0xbed3e104	-0.4138261
16	0x3fbf3fa4	1.4941297
17	0x3d4b5ebf	0.049650904
18	0x3d756873	0.059914064
19	0x3fbb854e	1.4650056
20	0x3d607c36	0.054805957
21	0x400c1c78	2.1892376
22	0x3f01f778	0.5076823
23	0x3d2ea841	0.04264093
24	0x3f87e6bf	1.0617293
25	0x3f722979	0.9459453
26	0x3dcb66ef	0.099317424
27	0xbec43c5f	-0.3832731
28	0xbf57c791	-0.8428889
29	0xbe13df0a	-0.14440551
30	0x3f0749fe	0.5284728
31	0xbf40fa92	-0.7538234

bottle_neck.1.conv_block.2.running_var f4 [32]
0	0x413ea22f	11.914596
1	0x41546f08	13.277107
2	0x418d9bfd	17.701166
3	0x415db1c3	13.855899
4	0x418ca030	17.578217
5	0x41902f95	18.023233
6	0x4186afde	16.835873
7	0x41bb1574	23.385475
8	0x4185e02b	16.734457
9	0x41998387	19.189222
10	0x4198a52d	19.080652
11	0x418a48b6	17.285503
12	0x41265e95	10.398091
13	0x416b9098	14.722801
14	0x41812609	16.143572
15	0x41873648	16.901505
16	0x41835625	16.417063
17	0x41823358	16.27507
18	0x41a4dc9a	20.607716
19	0x413e5383	11.895389
20	0x418812fd	17.009272
21	0x41d19caa	26.201496
22	0x417cd8a9	15.802896
23	0x41b2a4dd	22.3305
24	0x418a27fc	17.269524
25	0x418d4e66	17.66328
26	0x4187198f	16.88748
27	0x419982f6	19.188946
28	0x4188075f	17.0036
29	0x41478a23	12.471225
30	0x41c63c87	24.779554
31	0x413e827e	11.906858
