models/netG_epoch_60.pth (torch_old, 358159 bytes, 49 tensors)

encoder.0.weight f4 [8, 1, 3, 3]
0	0xbe4825d2	-0.19545677
1	0x3d6534e3	0.05595864
2	0x3e080ccf	0.13286136
3	0xbe255bf9	-0.16148366
4	0xbe5be939	-0.21475686
5	0xbd983809	-0.07432563
6	0x3d9c15cf	0.07621347
7	0x3d29f3ea	0.04149238
8	0xbe3b5082	-0.1829243
9	0x3d43cb87	0.04780152
10	0x3dcccfe6	0.10000591
11	0x3d39bb9f	0.045344945
12	0xbe60e172	-0.21961
13	0xbe4a5192	-0.19757679
14	0xbe996073	-0.29956397
15	0xbe1db947	-0.15402709
16	0x3d5cd104	0.05391027
17	0x3c9900d2	0.018677149
18	0x3d264d3f	0.04060101
19	0xbcda4470	-0.026643962
20	0xbe3b9894	-0.18319923
21	0xbca013dd	-0.019540722
22	0xbe291d30	-0.1651504
23	0xbe57a9e2	-0.21060899
24	0xbdbc1e81	-0.09185506
25	0xbe9c358e	-0.3050961
26	0xbdc9b250	-0.098484635
27	0xbe0214be	-0.12703225
28	0xbe4e6e08	-0.20159161
29	0xbe11efec	-0.14251679
30	0x3d6267e8	0.055274874
31	0xbcd17379	-0.025567757
32	0xbde47a6f	-0.11156165
33	0x3e3308bb	0.17483799
34	0x3dcdce8c	0.10049161
35	0xbdeb89f1	-0.115009196
36	0x3df6ae63	0.120449804
37	0x3d953c77	0.072869234
38	0xbd8b07ad	-0.067885734
39	0x3d877591	0.06614221
40	0xbdc5b3fb	-0.09653469
41	0xbe818fb5	-0.25304952
42	0xbe794350	-0.24342084
43	0xbe3c3011	-0.18377711
44	0x3c9317af	0.01795563
45	0x3c1afacb	0.009459208
46	0xbd0b1ab0	-0.033960998
47	0xbdfe1d5b	-0.12407943
48	0xbd460f1f	-0.048354264
49	0x3df309c1	0.11867095
50	0x3e122880	0.14273262
51	0xbd399bf8	-0.04531476
52	0x3ea334dd	0.3187627
53	0x3e82adc6	0.25523204
54	0xbe66b909	-0.22531523
55	0x3d077798	0.033073038
56	0x3d94b219	0.07260532
57	0xbe8bb02d	-0.2728285
58	0xbe07de05	-0.13268287
59	0xbdc4b880	-0.09605503
60	0xbcfe3b6f	-0.0310342
61	0x3cb65fab	0.022262415
62	0xbe5df24f	-0.21674465
63	0x3cd30bad	0.025762403
64	0x3d186896	0.037209116
65	0xbcb17107	-0.021660341
66	0xbc088c25	-0.008334194
67	0x3dc78d5a	0.097437575
68	0x3e1fb916	0.15597948
69	0x3d222faa	0.039596237
70	0x3e9ee531	0.31034234
71	0x3e832690	0.25615358

encoder.0.bias f4 [8]
0	0xbcb5a953	-0.022175467
1	0xbeb8a6a4	-0.36064637
2	0x3e2601e3	0.16211657
3	0xbda96b9f	-0.0827248
4	0xbe578f62	-0.2105079
5	0xbdbdd0d6	-0.09268348
6	0x3e31d3a7	0.17365895
7	0xbe9dae75	-0.30797163

encoder.3.weight f4 [16, 8, 3, 3]
0	0xbe252fd5	-0.16131528
1	0xbe22dffe	-0.15905759
2	0xbe3dfe35	-0.18554004
3	0xbe7b6e05	-0.24553688
4	0xbe82001c	-0.25390708
5	0xbd9566eb	-0.07295021
6	0xbde78b3e	-0.11305855
7	0xbe75518f	-0.23956893
8	0xbd64d2dc	-0.055865154
9	0xbe0a02e6	-0.13477668
10	0xbea4cc97	-0.3218734
11	0xbe8534fd	-0.2601699
12	0xbdc1e527	-0.094675355
13	0xbe94963d	-0.29020873
14	0xbe5bf2af	-0.21479295
15	0x3d20203a	0.039093234
16	0xbdd5e67f	-0.10444354
17	0x3b9c2e92	0.004766294
18	0xbde9f5f0	-0.11423862
19	0xbdde1ab9	-0.10844941
20	0xbd8793e8	-0.06620008
21	0xbe248b39	-0.16068734
22	0xbea184b7	-0.31546566
23	0xbd7936a5	-0.06084313
24	0xbdb051c2	-0.08609344
25	0xbe382348	-0.17982209
26	0xbdd5785e	-0.10423349
27	0x3cfcf37c	0.030877821
28	0x3d035a85	0.032068748
29	0xbc9555b8	-0.01822935
30	0xbd95f8f8	-0.07322878
31	0xbccbc8ee	-0.024876084
32	0xbd9b6aff	-0.07588767
33	0xbdb2d348	-0.08731705
34	0xbd926029	-0.07147247
35	0xbdf4ceb0	-0.11953485
36	0xbe54d1b5	-0.20783122
37	0xbe61fe2d	-0.22069617
38	0xbb9cb671	-0.004782491
39	0xbdc323ee	-0.095283374
40	0xbe039a09	-0.12851728
41	0xbdc93861	-0.098252065
42	0x3d2d05bd	0.0422418
43	0xbd62a9c4	-0.055337682
44	0xbd2a4fb4	-0.041579917
45	0x3e2029e1	0.15640976
46	0x3e05db8d	0.13072033
47	0x3d3096ec	0.04311268
48	0x3dd22a2f	0.10261952
49	0x3e0aa9d9	0.13541354
50	0x3d5e2405	0.05423357
51	0xbc848398	-0.01617603
52	0x3d2a2b27	0.04154506
53	0x3db4f29d	0.08835337
54	0xbe32f78e	-0.17477247
55	0xbe1228af	-0.14273332
56	0xbe3190e8	-0.17340434
57	0xbe5ff42a	-0.21870485
58	0xbe93feec	-0.28905427
59	0xbe4bf25e	-0.19916674
60	0xbe419752	-0.1890538
61	0xbe8963be	-0.2683391
62	0xbda82eb6	-0.082120344
63	0x3e3aa9bd	0.18228813
64	0x3e05e1cd	0.13074417
65	0xbc97d54a	-0.018534321
66	0x3e0957b9	0.1341237
67	0x3e2f7d53	0.17137651
68	0x3d2e8cd7	0.042614784
69	0x3d9b3be2	0.07579781
70	0x3df98108	0.12182814
71	0x3cacc2b6	0.02108894
72	0x3cd22656	0.025653046
73	0x3e1f48cd	0.15555115
74	0xbbe0cd45	-0.0068604075
75	0xbd1bd2b9	-0.038042758
76	0x3da679e4	0.081287175
77	0xbd5223eb	-0.051303785
78	0x3e311661	0.17293693
79	0x3e4eba4a	0.20188251
80	0x3e6f1633	0.23348312
81	0xbb62a28f	-0.0034581756
82	0xbe0284c8	-0.12745965
83	0xbe8483bb	-0.25881752
84	0x3d82b5e6	0.063823506
85	0xbdc8796f	-0.097887866
86	0xbe30d06a	-0.17267004
87	0x3def320e	0.11679469
88	0x3dc15c27	0.09441405
89	0x3d60abdf	0.05485141
90	0xbd3e67cc	-0.046485707
91	0xbe4a4fe0	-0.19757032
92	0xbe9ed9df	-0.31025597
93	0xbd565f7a	-0.052337147
94	0xbe0a4ac3	-0.13505082
95	0xbec46502	-0.38358313
96	0x3d12268f	0.035681304
97	0xbd16f48a	-0.036854304
98	0xbe84368d	-0.2582287
99	0x3aada1d5	0.0013247082
100	0x3d74a980	0.05973196
101	0x3dd365c4	0.10322145
102	0x3e12ee08	0.14348614
103	0x3e571a66	0.21006164
104	0x3d52cce0	0.051464915
105	0x3cbf169b	0.023326209
106	0x3d1acc19	0.0377923
107	0xbda1c5f0	-0.07899082
108	0x3d38f804	0.0451584
109	0xbe3c88b8	-0.18411529
110	0xbebeffb1	-0.37304452
111	0x3db58253	0.08862748
112	0xbcd5654a	-0.026049275
113	0xbe4998f7	-0.19687258
114	0x3e024588	0.12721837
115	0x3da4b9ab	0.08043226
116	0xbdf7b0d1	-0.12094272
117	0xbc1c17a6	-0.009527123
118	0x3da0753e	0.07834862
119	0x3e20d92d	0.15707846
120	0xbcd77208	-0.026299492
121	0x3be50a28	0.006989736
122	0x3d1d4185	0.038392562
123	0xbe8e9bff	-0.2785339
124	0xbe5e46c5	-0.21706684
125	0xbe0854c1	-0.13313581
126	0xbd97a208	-0.07403952
127	0xbd8daeef	-0.069181316
128	0xbdce9d76	-0.10088627
129	0xbd7d6b29	-0.061869774
130	0xbd645ad9	-0.0557507
131	0xbe64fb47	-0.2236148
132	0x3e1c082f	0.15237497
133	0x3df5ed89	0.12008197
134	0x3d004de0	0.031324267
135	0x3d45b207	0.048265483
136	0x3d48bf05	0.049010295
137	0x3da11956	0.078661606
138	0xbd6eb297	-0.058275785
139	0xbd6cf131	-0.057847206
140	0x3ca01dbc	0.019545428
141	0xbe60b16d	-0.21942683
142	0xbe554506	-0.20827112
143	0xbe215353	-0.15754442
144	0xbdbeb90c	-0.09312639
145	0xbdb839be	-0.089953884
146	0xbd8e7bf9	-0.0695724
147	0xbe0fcf35	-0.14043887
148	0xbe206873	-0.15664844
149	0xbd89446d	-0.06702504
150	0xbe5624f5	-0.20912535
151	0xbea5de1f	-0.32396027
152	0xbd95e680	-0.07319355
153	0xbdb9f401	-0.09079743
154	0xbe3101f0	-0.17285895
155	0xbe2e2fb2	-0.17010382
156	0xbcad4d5e	-0.021155056
157	0xbe89fff9	-0.26953104
158	0xbe1221e6	-0.14270744
159	0xbd9729ea	-0.07381041
160	0xbe6558a4	-0.22397095
161	0x3d128c75	0.03577848
162	0x3c8cdaf0	0.017194241
163	0x3debd520	0.1151526
164	0x3de62ae4	0.112386495
165	0xbc37ea25	-0.011225258
166	0xbe519eea	-0.20470777
167	0xbd72e8dc	-0.059304103
168	0xbd8dc764	-0.06922796
169	0xbe3127b7	-0.17300306
170	0xbd59e2fd	-0.05319499
171	0x3dab2754	0.083571106
172	0x3dd4f3c7	0.10398059
173	0x3a750562	0.00093468104
174	0x3d81ef30	0.063444495
175	0x3dbede71	0.09319771
176	0x3d6c934d	0.057757664
177	0x3c800e43	0.0156318
178	0x3c470656	0.012147507
179	0xbd76bcd1	-0.060238663
180	0xbde311e2	-0.11087395
181	0xbd8d1adb	-0.06889888
182	0xbd1f72fe	-0.038928024
183	0xbd7e70c1	-0.06211925
184	0xbeb7e50c	-0.35916936
185	0xbdef1a74	-0.116749674
186	0xbe069163	-0.13141398
187	0xbdc7f8ed	-0.09764276
188	0xbc99c5e5	-0.018771121
189	0x3a6d7eb3	0.0009059712
190	0x3d812bb5	0.063071646
191	0xbcd53bed	-0.026029551
192	0x3e80ec37	0.25180218
193	0x3eb0775b	0.3446606
194	0x3d96d95a	0.07365675
195	0x3dab6e62	0.08370663
196	0x3df7d8f5	0.12101928
197	0x3d18d606	0.037313484
198	0xba630996	-0.0008660791
199	0xbb9961a4	-0.004680829
200	0x3d114840	0.035469294
201	0xbdcdebdb	-0.100547515
202	0xbe5d78ca	-0.21628109
203	0xbd63369d	-0.055472005
204	0xbe130207	-0.14356242
205	0xbe7e5f14	-0.24840957
206	0xbdc39a9b	-0.09550973
207	0x3d372a73	0.044718217
208	0x3d0aba36	0.03386899
209	0xbc20d184	-0.009815577
210	0x3e6d13d3	0.23152094
211	0x3ec4af1e	0.38414854
212	0x3dd2c089	0.102906294
213	0x3dede5c1	0.11616088
214	0x3e177d45	0.1479388
215	0x3d3cb5b2	0.046071716
216	0x3e4854a8	0.19563544
217	0x3c87ea32	0.016591165
218	0xbd3f1fe9	-0.04666129
219	0x3e8b7d89	0.27244213
220	0x3e989909	0.29804257
221	0x3e8b96a5	0.2726337
222	0x3d5d9fd5	0.054107506
223	0x3c8092cd	0.015695
224	0x3eb21f3b	0.34789452
225	0x3dfa5efe	0.122251496
226	0xbcfa4c9c	-0.030554108
227	0xbe1250a5	-0.14288576
228	0x3ea81078	0.32825065
229	0x3da4969d	0.0803654
230	0x3d170905	0.036873836
231	0x3d6717bd	0.056419123
232	0xbbfb2f0e	-0.0076655215
233	0x3dbeffad	0.0932611
234	0x3d86fb85	0.06590942
235	0xbdc50124	-0.09619358
236	0xbe50bb44	-0.20383936
237	0x3db5fa04	0.08885577
238	0xbd8b358a	-0.06797321
239	0xbd4de135	-0.050263602
240	0xbdd5b205	-0.10434345
241	0xbe107509	-0.14107145
242	0x3d03400e	0.03204351
243	0xbda8db97	-0.082450084
244	0xbd7a8262	-0.0611595
245	0xbd9c0d6b	-0.07619747
246	0xbd816b9a	-0.063193515
247	0xbcf96e91	-0.03044823
248	0xbdb80e7f	-0.0898714
249	0x3dcca95b	0.099932395
250	0x3dd95d46	0.106134936
251	0x3e488a83	0.19584088
252	0x3e14b51c	0.14522213
253	0xbe2c12c7	-0.16804038
254	0xbe3855fb	-0.18001549
255	0x3ce1eaed	0.027577842

encoder.3.bias f4 [16]
0	0x3bcf0810	0.0063181
1	0x3d93a2d6	0.07208793
2	0x3b1c4860	0.002384685
3	0x3d0b50bf	0.034012552
4	0xbd33227b	-0.043734055
5	0xbd160117	-0.036622133
6	0x3b757c21	0.003745802
7	0x3e52f74d	0.2060215
8	0x3dc6b657	0.09702747
9	0x3dd10420	0.10205865
10	0xbca04350	-0.019563347
11	0xbe8f0b66	-0.27938384
12	0x3dc615e2	0.096721426
13	0xbd5ffe8b	-0.05468611
14	0x3e2f474c	0.17117041
15	0x3dcb6f24	0.09933308

encoder.6.weight f4 [32, 16, 3, 3]
0	0xbdf85e03	-0.12127306
1	0xbddb675d	-0.10713074
2	0xbdaac621	-0.08338571
3	0xbe13a634	-0.1441887
4	0xbe2eb710	-0.1706202
5	0xbd97ece4	-0.0741823
6	0xbd9b55d4	-0.0758473
7	0xbd14b30c	-0.036303565
8	0x3de2eb98	0.11080092
9	0xbc37e3ab	-0.011223714
10	0x3c72304d	0.014782024
11	0xbdc53d96	-0.09630887
12	0xbd74d933	-0.05977745
13	0xbe046509	-0.12929167
14	0xbce66cfa	-0.028128136
15	0xbd0464b6	-0.032322608
16	0xbe2d23c6	-0.16908178
17	0xbe906048	-0.28198457
18	0xbdda00dd	-0.10644696
19	0xbdaf1be3	-0.08550241
20	0xbd84ba88	-0.064808905
21	0xbdc409e5	-0.095722
22	0xbe3f2620	-0.18666887
23	0xbd4ec1f9	-0.050477955
24	0xbdaeb1fb	-0.08530041
25	0x3d4148f5	0.047188718
26	0x3e3e202a	0.18566957
27	0x3e40474a	0.18777195
28	0x3dddbedb	0.108274184
29	0x3cd42ca7	0.025900198
30	0x3e2fdf7c	0.17175096
31	0x3d8e7399	0.06955642
32	0x3e26845c	0.16261429
33	0xbc0d4504	-0.008622412
34	0xbeb0a5cc	-0.34501493
35	0xbdd407b5	-0.103530325
36	0x3db21765	0.086958684
37	0x3cae7a68	0.021298602
38	0xbe08af4a	-0.13348117
39	0x3bb8a02f	0.0056343297
40	0xbdfd40d3	-0.1236588
41	0xbdf2cb98	-0.11855239
42	0x3c2eee70	0.010676965
43	0x3df29887	0.118454985
44	0x3ebd884e	0.37018055
45	0x3db9a866	0.090653226
46	0xbe042f78	-0.12908733
47	0x3d7d9b20	0.061915517
48	0xbd00515d	-0.031327594
49	0xbc9a18e3	-0.018810695
50	0xbbc1c8b4	-0.0059138183
51	0x3db38adc	0.0876672
52	0x3ea64c78	0.32480216
53	0x3ea7f8e4	0.32807076
54	0xbe23a5c5	-0.15981205
55	0xbda88184	-0.08227828
56	0xbe1e10fd	-0.15436168
57	0x3e1c7b86	0.15281495
58	0xbd8f2c60	-0.06990886
59	0xbdb38549	-0.087656565
60	0x3d87076f	0.06593215
61	0xbe194dbc	-0.1497106
62	0xbe802dca	-0.25034934
63	0xbd98df4a	-0.07464464
64	0xbdbc06fe	-0.09181021
65	0xbc76a1f6	-0.015053263
66	0xbd90379f	-0.07041859
67	0xbe337cdd	-0.175281
68	0xbd088b6a	-0.03333608
69	0xbdefb9ab	-0.11705335
70	0xbd056091	-0.032562796
71	0x3e0e1430	0.13874888
72	0xbba5d0c7	-0.0050602886
73	0xbdc1c175	-0.09460727
74	0xbe1b373f	-0.15157793
75	0xba920d38	-0.0011142856
76	0xbdcd6138	-0.10028309
77	0x3ba957d6	0.0051679416
78	0x3cc193b3	0.023629999
79	0x3e224e54	0.15850192
80	0x3d5736b5	0.052542407
81	0xbdc6573a	-0.09684606
82	0xbde39e2e	-0.11114155
83	0xbd8fc8b2	-0.070207015
84	0xbd8cfe2d	-0.06884418
85	0xbdda68a8	-0.10664493
86	0xbc42c489	-0.011887678
87	0xbd781f22	-0.060576566
88	0x3db8aeb9	0.09017701
89	0x3e49dafb	0.1971244
90	0xbe1ef4d0	-0.15523076
91	0xbd6f84fc	-0.058476433
92	0xbd6ddc2b	-0.058071297
93	0xbe024fd9	-0.12725772
94	0xbe250a95	-0.16117318
95	0xbd37710c	-0.044785544
96	0xbd42f15f	-0.04759347
97	0x3c4213b0	0.011845514
98	0x3e275cd9	0.16344012
99	0xbe255c41	-0.16148473
100	0xbda1d3d3	-0.079017304
101	0xbe03bb54	-0.12864429
102	0x3dd22de9	0.10262663
103	0xbc7c3140	-0.0153926015
104	0x3d6fa893	0.058510374
105	0x3cff05ac	0.031130634
106	0xbba8d698	-0.0051525347
107	0xbe4792f4	-0.19489652
108	0xbd74a931	-0.059731666
109	0xbdae6be8	-0.08516675
110	0xbde08525	-0.10962895
111	0xbbc44eda	-0.005990845
112	0xbe446d51	-0.19182326
113	0x3c2e2956	0.010629972
114	0xbd962c8a	-0.07332714
115	0xbba796b2	-0.0051144
116	0xbbe245b4	-0.006905282
117	0x3e7f0a47	0.24906264
118	0xbe0a827e	-0.13526341
119	0xbc2cfddf	-0.010558574
120	0xbbdce5c2	-0.0067412565
121	0x3de3e483	0.111275695
122	0xbdd9e51d	-0.10639403
123	0x3e9042c3	0.28175935
124	0x3e9fe6ca	0.31230766
125	0x3dfa4d50	0.122217774
126	0x3e73f6fe	0.23824689
127	0x3dd389fe	0.10329054
128	0x3c789e80	0.015174508
129	0x3de25d12	0.11052908
130	0x3e8aec5b	0.2713345
131	0x3e9941f9	0.29933146
132	0xbe47c67b	-0.19509308
133	0xbcb0ee21	-0.021597924
134	0x3e11483a	0.14187708
135	0xbe05e71c	-0.13076442
136	0xbd8d70fa	-0.06906314
137	0xbd91ea16	-0.071247265
138	0xbd4937f2	-0.04912562
139	0xbe2b451b	-0.1672558
140	0x3ae853a4	0.0017725122
141	0xbd326a7f	-0.043558594
142	0x3cca1f73	0.0246732
143	0x3e04ce80	0.12969398
144	0xbd4f8f19	-0.050673578
145	0x3d7dd059	0.061966274
146	0x3e1256fe	0.14290997
147	0xbbda72b0	-0.006666504
148	0xbd9e9c51	-0.07744659
149	0xbd023252	-0.03178627
150	0xbe1b9f2b	-0.15197437
151	0xbe15ca78	-0.14628017
152	0xbe696722	-0.22793248
153	0xbe41241d	-0.18861432
154	0xbc8609d8	-0.016362116
155	0xbe69b7f1	-0.22824074
156	0x3c92585b	0.017864397
157	0x3e615dee	0.22008488
158	0x3e7446c4	0.2385512
159	0x3deadfc1	0.11468459
160	0xbda1407e	-0.07873629
161	0xbe953bf9	-0.29147318
162	0x3b8d26c1	0.0043075983
163	0x3d764398	0.060123056
164	0x3e131615	0.14363892
165	0xbd4169a6	-0.047219895
166	0xbcf2bb2b	-0.029630264
167	0xbdbfd5a8	-0.093669236
168	0xbe2ae865	-0.16690214
169	0xbe48249a	-0.19545212
170	0xbd8fc922	-0.07020785
171	0xbc2511e7	-0.010075069
172	0xbcc8778f	-0.024471072
173	0x3d7d7b48	0.06188515
174	0x3d788b77	0.06067988
175	0x3e16176a	0.1465737
176	0x3d185b06	0.03719618
177	0x3dd34143	0.10315182
178	0x3d7b76a2	0.061392434
179	0x3ea5fbea	0.32418758
180	0x3e4deb7a	0.20109358
181	0xbd4b5ef6	-0.04965111
182	0xbc62f82c	-0.013853114
183	0xbe40f86e	-0.18844768
184	0xbe3f1414	-0.18660003
185	0xbeb9148a	-0.36148483
186	0x3d31ff70	0.043456495
187	0x3d881dcc	0.06646308
188	0x3d90ccd1	0.07070316
189	0x3dcbb7df	0.0994718
190	0xbd051646	-0.032491945
191	0x3bf6f776	0.007536824
192	0xbe0ab8ec	-0.13547105
193	0xbdcaead5	-0.09908072
194	0xbe863f81	-0.26220325
195	0x3ba4bc04	0.005027296
196	0x3db17ee0	0.086667776
197	0x3cf489b1	0.029850813
198	0xbe0eced4	-0.13946086
199	0xbd5f1bd4	-0.0544699
200	0xbe37fdc6	-0.179679
201	0x3e0996e2	0.13436463
202	0x3e45f771	0.19332673
203	0x3e5dfaa0	0.21677637
204	0x3d09afc4	0.03361489
205	0xbb7208a2	-0.0036931415
206	0x3c80f3ec	0.015741311
207	0xba1d7d53	-0.00060077495
208	0x3de6e97c	0.11275002
209	0x3d775b73	0.060389947
210	0x3d045584	0.032308117
211	0xbd909957	-0.07060497
212	0xbc9613af	-0.018319933
213	0xbe4f3bb0	-0.20237613
214	0xbe5438b3	-0.20724754
215	0xbe283bdd	-0.16429086
216	0x3d6841cb	0.05670337
217	0x3e3f7b29	0.18699326
218	0x3d369dd8	0.044584125
219	0xbda5bf6a	-0.0809315
220	0xbe05fb4c	-0.13084143
221	0xbe6511c8	-0.22370064
222	0xbe59ee67	-0.2128235
223	0xbdbb518a	-0.09146412
224	0xbe452cfa	-0.19255438
225	0x3dabd6c8	0.08390576
226	0x3d876958	0.066118896
227	0x3dec221d	0.11529944
228	0xbd835a3e	-0.06413697
229	0xbded3ac9	-0.11583478
230	0xbdc1a7fd	-0.09455869
231	0xbe04c396	-0.12965235
232	0xbd0bd76a	-0.03414098
233	0xbd2536ea	-0.040335573
234	0x3d15e2ab	0.03659312
235	0x3d9d4285	0.07678703
236	0x3da9f0de	0.08297895
237	0xbd492ee5	-0.049116988
238	0xbe051db7	-0.12999617
239	0xbdc3421d	-0.095340945
240	0xbe16b626	-0.14717922
241	0xbdafc9bd	-0.085834004
242	0xbe2c706e	-0.16839764
243	0xbdd49368	-0.10379678
244	0xbe051efb	-0.130001
245	0x3c880a41	0.016606452
246	0x3cf531c2	0.029930953
247	0x3d8c95ae	0.06864487
248	0x3e589f3e	0.21154496
249	0xbacdfe2e	-0.001571601
250	0xbe05af7b	-0.13055222
251	0xbdb27d96	-0.0871536
252	0xbbd4af67	-0.006490636
253	0x3e1cd4e1	0.15315582
254	0x3c53f808	0.012937553
255	0x3cf4b5aa	0.02987178

encoder.6.bias f4 [32]
0	0x3d159e66	0.036528014
1	0x3c3f4306	0.0116736945
2	0xbdc68cfd	-0.0969486
3	0xbda74850	-0.081680894
4	0x3d5defec	0.054183885
5	0x3dcbe817	0.09956377
6	0x3d4bc423	0.049747597
7	0x3e67cdf9	0.22637166
8	0xbe974159	-0.29542044
9	0xbdff5e2f	-0.12469136
10	0x3d782842	0.060585268
11	0x3df3d529	0.119058914
12	0xbe09a7e1	-0.13442947
13	0x3da7f668	0.08201295
14	0xbe1d6965	-0.15372236
15	0xbdf7062d	-0.12061725
16	0x3e3d1055	0.18463261
17	0xbcfc138a	-0.030771036
18	0xbe4540e3	-0.19263034
19	0x3d5d03a1	0.05395854
20	0x3d8b4cbc	0.06801745
21	0xbdb6456a	-0.088999584
22	0x3cea9810	0.028636962
23	0xbdebe44e	-0.11518155
24	0x3b58a0b2	0.0033054766
25	0xbd85b8b4	-0.0652937
26	0x3dc00e57	0.09377735
27	0xbdbe2423	-0.09284236
28	0xbd3b8f87	-0.045791175
29	0x3e40d813	0.18832426
30	0xbd631362	-0.055438407
31	0x3ccc89ae	0.024967995

bottle_neck.0.conv_block.1.weight f4 [32, 32, 3, 3]
0	0xbe9ac5e2	-0.30229098
1	0xbe688f3e	-0.22710893
2	0xbe5af540	-0.21382618
3	0x3d39265b	0.045202594
4	0xbc1b78a5	-0.009489213
5	0x3d937695	0.07200352
6	0xbe055794	-0.1302169
7	0xbdeae669	-0.114697285
8	0x3df144d7	0.11780708
9	0xbe6b2f7d	-0.22967334
10	0xbe28ce4f	-0.1648495
11	0xbd1733ac	-0.036914513
12	0xbe6a8e8e	-0.22905943
13	0x3a10d5cd	0.0005525023
14	0x3e34700e	0.1762087
15	0xbdd15655	-0.10221545
16	0xbdecba59	-0.115589805
17	0xbcbfc22b	-0.023408016
18	0x3d220ae0	0.039561152
19	0x3dabd990	0.08391106
20	0xbd8b17d7	-0.067916565
21	0xbd1b0394	-0.03784521
22	0xbd17f79f	-0.037101384
23	0x3dba080f	0.09083568
24	0x3d9ec3b0	0.07752168
25	0x3e3d9f40	0.1851778
26	0x3d8bd430	0.06827581
27	0x3d9937dc	0.074813575
28	0x3d50ca61	0.050974254
29	0x3d2649d5	0.040597755
30	0xbd0dfa06	-0.03466227
31	0xbd4202ba	-0.04736588
32	0xbe80c3c0	-0.25149345
33	0xbde8fe2b	-0.11376604
34	0xbdfc5cd9	-0.12322397
35	0xbda29d09	-0.07940108
36	0xbd3567ef	-0.044288572
37	0xbd0beeb0	-0.034163177
38	0x3d6bc224	0.057558194
39	0xbe7f9daf	-0.24962495
40	0xbe8c6a30	-0.27424765
41	0xbe92d7da	-0.28680307
42	0xbd2358f3	-0.03987975
43	0x3da7f045	0.08200125
44	0xbd3a2b30	-0.045451343
45	0xbb667170	-0.003516283
46	0x3cda7c25	0.026670525
47	0xbdeeb9a7	-0.11656504
48	0x3e4bc826	0.1990057
49	0x3e482afc	0.19547647
50	0x3e57475c	0.21023315
51	0x3dea3f92	0.11437906
52	0x3c8575a6	0.01629145
53	0xbd2ab5b7	-0.041677203
54	0x3c5bcaf2	0.013415085
55	0xbd8e938b	-0.06961735
56	0x3df987f1	0.12184132
57	0xbe3d9004	-0.18511969
58	0xbdf14a03	-0.11781695
59	0xbe8d714a	-0.27625495
60	0xbda193fe	-0.078895554
61	0x3cf50d26	0.029913496
62	0xbe5b900d	-0.2144167
63	0xbd57c1b9	-0.052674983
64	0xbda01601	-0.07816697
65	0x3d810284	0.06299308
66	0xbda1e650	-0.07905257
67	0xbc997d30	-0.018736452
68	0x3e1355fa	0.14388266
69	0x3dc023a1	0.09381796
70	0xbd4464a1	-0.04794753
71	0x3e3a2479	0.18177976
72	0x3df08df4	0.117458254
73	0x3de5a785	0.112135924
74	0x3de84d1f	0.11342835
75	0x3e04b522	0.12959722
76	0xbe1518db	-0.14560263
77	0x3e89b7e4	0.2689811
78	0x3e12dc7e	0.14341924
79	0xbe73a8e1	-0.23794891
80	0xbe5a9ac8	-0.21348107
81	0x3d7a733a	0.061145045
82	0x3de70266	0.11279754
83	0x3e5fa4fe	0.21840283
84	0x3c62dd1d	0.013846663
85	0xbceede10	-0.029158622
86	0x3e35033b	0.17677014
87	0xbd71766a	-0.05895082
88	0xbe048744	-0.12942225
89	0xbde5794b	-0.112047754
90	0xbd18ed8a	-0.03733591
91	0x3e81ede4	0.2537681
92	0xbe4c11c0	-0.19928646
93	0xbca9fc6b	-0.020750245
94	0x3d5754c8	0.052571088
95	0x3d65c18a	0.056092776
96	0x3dd971d3	0.10617413
97	0x3e6bab84	0.23014647
98	0x3e4a8453	0.1977704
99	0xbe166e97	-0.14690624
100	0xbe015727	-0.12630902
101	0xbdf4fa10	-0.11961758
102	0xbcd5b5af	-0.02608761
103	0x3e49bbea	0.1970059
104	0x3e5d6276	0.21619591
105	0x3d756ee0	0.05992019
106	0x3c586319	0.0132072205
107	0x3e870f03	0.2637864
108	0x3e0c8bd0	0.13725209
109	0xbd859332	-0.06522216
110	0x3d09d658	0.03365168
111	0xbd92919b	-0.07156678
112	0xbe2a477e	-0.16628835
113	0xbd1efde2	-0.03881634
114	0xbc8cad91	-0.017172607
115	0xbc875ffd	-0.016525263
116	0x3aaa9844	0.0013015349
117	0xbe3082ca	-0.17237392
118	0xbdf1a3c2	-0.117988124
119	0xbdc37e58	-0.095455825
120	0x3ded4ded	0.11587129
121	0x3e82b298	0.2552688
122	0x3d661f6c	0.05618231
123	0xbccaa394	-0.024736203
124	0x3deec3f1	0.116584666
125	0x3e0a6b94	0.135176
126	0xbd2b4cdd	-0.04182135
127	0xbe0a39e2	-0.13498643
128	0x3cf98fc0	0.030464053
129	0xbeb28124	-0.3486415
130	0xbc996e3a	-0.018729318
131	0xbdd13566	-0.10215263
132	0x3df1e89c	0.11811945
133	0x3de593c5	0.112098254
134	0x3cee173c	0.029063813
135	0xbd66ed24	-0.0563785
136	0xbdd81360	-0.105505705
137	0x3b91f187	0.004453841
138	0x3de564ba	0.11200853
139	0x3d4d1112	0.050065108
140	0x3db67082	0.08908178
141	0xbca53bb7	-0.020170076
142	0xbe084243	-0.13306527
143	0xbbf695e6	-0.0075251935
144	0xbd63fd39	-0.055661414
145	0xbd49a815	-0.04923256
146	0xbe29274e	-0.165189
147	0xbe5c714a	-0.21527591
148	0xbc4d9d10	-0.012549654
149	0x3e1a27f0	0.15054297
150	0x3d15e561	0.036595706
151	0x3e31363a	0.17305842
152	0x3e831e3f	0.25609013
153	0x3d92a327	0.07160025
154	0x3dbf8dc7	0.09353214
155	0x3e768070	0.24072433
156	0xbdc1fb45	-0.09471754
157	0xbdcd1b34	-0.10014954
158	0xbe5ebde6	-0.21752128
159	0xbe216155	-0.15759785
160	0xbdae5e0a	-0.0851403
161	0xbd92d9a9	-0.07170422
162	0xbd683e06	-0.056699775
163	0xbd19ca62	-0.037546523
164	0xbeb1d0fc	-0.34729755
165	0x3d5060b0	0.05087346
166	0x3e3aa42a	0.18226686
167	0x3e76c08a	0.24096885
168	0x3e11f04a	0.14251819
169	0x3da98f46	0.0827928
170	0x3e618d87	0.22026645
171	0x3ccb8fd3	0.024848854
172	0xb6c53391	-5.8770606e-06
173	0x3c3d8857	0.0115681505
174	0x3d712c80	0.05888033
175	0xbe617214	-0.22016174
176	0x3e0794e0	0.13240385
177	0x3e1470ad	0.14496107
178	0xbda8cb56	-0.08241908
179	0xbd673ab8	-0.056452483
180	0x3d1882ad	0.037233997
181	0x3d38bedd	0.045103896
182	0x3e12822b	0.14307468
183	0xbe52b197	-0.20575558
184	0xbd9a978e	-0.07548438
185	0xbe0e1b9f	-0.13877724
186	0x3caf3e40	0.021391988
187	0x3e879ce9	0.264869
188	0x3e845fe7	0.25854418
189	0x3dffb20d	0.12485132
190	0x3dc25e32	0.094906226
191	0x3dffc5b2	0.12488879
192	0xbe3cf46b	-0.18452613
193	0xbefb1cf7	-0.49045536
194	0x3d3c8a3f	0.04603028
195	0xbc4e095d	-0.012575475
196	0x3e0862c6	0.13318929
197	0xbdbcf80d	-0.092269994
198	0xbcb1ad1c	-0.02168899
199	0x3d55ffbd	0.052245844
200	0x3d97fadd	0.07420895
201	0x3e54a7df	0.20767163
202	0x3c661504	0.014043096
203	0xbe48246b	-0.19545142
204	0xbd5b37ef	-0.05352014
205	0x3cf2f496	0.029657643
206	0x3e3a1c1b	0.18174784
207	0x3e5b53ae	0.2141864
208	0x3d1bcf86	0.038039707
209	0xbd71b873	-0.059013795
210	0xbeae15fb	-0.34001145
211	0xbe26061b	-0.16213267
212	0xbd53c5dc	-0.051702365
213	0x3df94c93	0.121728085
214	0x3e4f446c	0.20240945
215	0xbd3a7018	-0.045517057
216	0xbae2042e	-0.0017243677
217	0xbd4fe1fc	-0.050752625
218	0xbc85a89b	-0.016315749
219	0xbd5486af	-0.051886257
220	0xbe889400	-0.26675415
221	0xbe232325	-0.15931375
222	0x3dd5e12c	0.10443339
223	0xbdafe6c9	-0.08588941
224	0xbd9dbdb6	-0.077022
225	0x3debe9d6	0.1151921
226	0xbc8d2f67	-0.017234517
227	0x3e9978bb	0.29974923
228	0xbcd889a0	-0.026432812
229	0xbe024c2b	-0.12724368
230	0x3d3fff0c	0.04687409
231	0xbe60f689	-0.21969046
232	0xbe3b3bb3	-0.18284492
233	0xbce51310	-0.027963191
234	0xbd4fcbf4	-0.050731614
235	0xbd1b75e1	-0.037954215
236	0x3dbfb577	0.093607835
237	0x3e534889	0.20633139
238	0x3d06801f	0.03283703
239	0x3b1ea8eb	0.002420957
240	0xbd922bbb	-0.07137247
241	0xbdd5ad2b	-0.1043342
242	0xbd543577	-0.0518088
243	0x3e479ba1	0.19492961
244	0x3e3a9756	0.18221793
245	0x3d918b60	0.07106662
246	0x3e89bb2f	0.26900622
247	0x3c3f695d	0.011682835
248	0x3d6f0910	0.058358252
249	0x3e15ddc0	0.14635372
250	0xbd31ba58	-0.043390602
251	0xbc4b6dee	-0.012416346
252	0x3ccadb78	0.024762854
253	0xbe22b14d	-0.15887947
254	0xbbae3d85	-0.0053173923
255	0xbc518c75	-0.012789835

bottle_neck.0.conv_block.2.weight f4 [32]
0	0x3f9277b6	1.1442783
1	0x3f96c0a3	1.1777538
2	0x3f623213	0.8835766
3	0x3f74a212	0.955598
4	0x3f77c225	0.96780616
5	0x3f783a3f	0.96963876
6	0x3f7667f3	0.96252364
7	0x3f7574d0	0.95881367
8	0x3f75c29a	0.96000063
9	0x3f7fb259	0.9988151
10	0x3f76aaea	0.96354544
11	0x3f67a074	0.9047921
12	0x3f5fb2f0	0.8738241
13	0x3f78aeed	0.97141916
14	0x3f79ab9f	0.975275
15	0x3f88aeeb	1.0678381
16	0x3f7576f8	0.95884657
17	0x3f84e8f2	1.0383589
18	0x3f4fbd5d	0.8114832
19	0x3f8482c8	1.0352411
20	0x3f81ada5	1.0131117
21	0x3f896b5e	1.0735891
22	0x3f875182	1.0571749
23	0x3f869ea8	1.0517168
24	0x3f848feb	1.035642
25	0x3f7dd325	0.99150306
26	0x3f582a32	0.84439385
27	0x3f6719f3	0.9027397
28	0x3f861596	1.0475338
29	0x3f8452dd	1.0337788
30	0x3f84771d	1.034885
31	0x3f639dbd	0.88912565

bottle_neck.0.conv_block.2.bias f4 [32]
0	0xbdef6654	-0.116894394
1	0xbe1cef6b	-0.15325706
2	0xbec722bb	-0.38893685
3	0xbe766c62	-0.24064782
4	0xbe512304	-0.20423514
5	0xbeaa9e2b	-0.33323798
6	0xbeaa3cf3	-0.33249626
7	0xbec5223b	-0.38502678
8	0xbe872c0a	-0.26400787
9	0xbe66eb9f	-0.2255082
10	0xbebab74d	-0.36467972
11	0xbe09febd	-0.13476081
12	0xbeb0d708	-0.34539056
13	0xbe86bbcd	-0.26315156
14	0xbe8e3014	-0.27771056
15	0xbebc2a09	-0.3675082
16	0xbe9d060d	-0.3066868
17	0xbe71f376	-0.23628029
18	0xbe6ca78d	-0.2311079
19	0xbeb0dc8d	-0.34543267
20	0xbe8b3dcb	-0.27195582
21	0xbea2414e	-0.3169045
22	0xbe968ee1	-0.29405883
23	0xbe501df3	-0.20323925
24	0xbe74f8be	-0.23923013
25	0xbeabed3b	-0.3357943
26	0xbeb9b02f	-0.3626723
27	0xbd825071	-0.06362999
28	0xbe528fa9	-0.20562615
29	0xbe642ba6	-0.22282276
30	0xbe16ae11	-0.14714839
31	0xbec432b3	-0.3831993

bottle_neck.0.conv_block.2.running_mean f4 [32]
0	0xbf95ccb8	-1.17031
1	0x3db00598	0.08594817
2	0xbf4f4ab2	-0.8097335
3	0x3f6832b9	0.90702397
4	0xc03acb24	-2.9186487
5	0xbebacc6e	-0.36484092
6	0xbf85acf7	-1.044341
7	0x3f63748e	0.88849723
8	0xbeedf12d	-0.46473065
9	0xbe4eb4b2	-0.20186117
10	0x3fb37e99	1.402301
11	0xc076acb4	-3.854291
12	0x3e310977	0.17288767
13	0x4028c6b4	2.6371279
14	0xbf448d78	-0.76778364
15	0xbe815f7d	-0.25268164
16	0xbf0d2699	-0.5513702
17	0xbee12e37	-0.43980572
18	0xbd7dbf38	-0.06194994
19	0x3e426456	0.18983588
20	0xbf5e64a7	-0.86872333
21	0xbfe6ce76	-1.8031757
22	0x3eae2e28	0.3401959
23	0x3f8fe73d	1.1242443
24	0xbe6ad236	-0.22931752
25	0xbf0782ee	-0.5293416
26	0xbbb4bde0	-0.005515799
27	0xbf874755	-1.0568644
28	0xbd03719f	-0.03209078
29	0xbfb3ba12	-1.4041159
30	0x3e9658ae	0.29364532
31	0xbfed055a	-1.8517258

bottle_neck.0.conv_block.2.running_var f4 [32]
0	0x40e0a354	7.0199375
1	0x41266c74	10.401478
2	0x40ec679e	7.3876486
3	0x41432b3a	12.198053
4	0x411daa5b	9.854091
5	0x4104b6a0	8.294586
6	0x411bd2e3	9.738986
7	0x41225b20	10.147247
8	0x40f3e3f0	7.6215744
9	0x40e34e91	7.1033406
10	0x41368b1f	11.408965
11	0x413fc184	11.984745
12	0x40b44466	5.6333494
13	0x41187e44	9.530827
14	0x40cbdc57	6.370647
15	0x413970d1	11.590043
16	0x40d0a22e	6.5197973
17	0x4106f9dc	8.436001
18	0x411652db	9.395228
19	0x41093a52	8.576738
20	0x4109d19c	8.613674
21	0x40be868a	5.953923
22	0x40e7834e	7.2347784
23	0x412f2fd5	10.949178
24	0x40d017c0	6.502899
25	0x40eabba6	7.3354063
26	0x40c25b52	6.0736475
27	0x4123499f	10.205474
28	0x40d247d3	6.5712676
29	0x413fbc45	11.983464
30	0x4104f390	8.3094635
31	0x4115380f	9.326186

bottle_neck.0.conv_block.5.weight f4 [32, 32, 3, 3]
0	0x3d97e531	0.07416762
1	0x3d5b1279	0.053484414
2	0xbd94d66a	-0.07267459
3	0x3e1a3803	0.1506043
4	0x3e69be0f	0.22826408
5	0x3e3b73dd	0.18305917
6	0xbcfc5ebb	-0.03080689
7	0x3d8c8f3a	0.06863256
8	0x3d97f20a	0.07419212
9	0x3bffc319	0.00780524
10	0xbde72ad9	-0.112874694
11	0xbe218a3e	-0.15775391
12	0xbd7411b7	-0.059587207
13	0xbe8e9f6c	-0.27856004
14	0xbe634c80	-0.22197151
15	0x3e43de41	0.19127752
16	0x3dcb8683	0.099377654
17	0xbe5e10fd	-0.21686168
18	0xbd550979	-0.052010987
19	0x3c704820	0.014665633
20	0xbd111ec0	-0.035429716
21	0x3e4766cc	0.19472808
22	0x3aac98a8	0.0013168054
23	0x3b6bc988	0.0035978276
24	0xbe4bc6b0	-0.19900012
25	0x3cd2e159	0.02574222
26	0xbe2e6b68	-0.1703316
27	0xbcbf9957	-0.023388548
28	0xbe50bcc6	-0.20384511
29	0xbe99970a	-0.29998046
30	0xbdd1cfea	-0.102447346
31	0x3cc1afc5	0.023643384
32	0x3e065114	0.13116866
33	0x3e5c0e63	0.21489863
34	0xbdd1aada	-0.102376655
35	0xbe8b73e2	-0.2723685
36	0x3d65a783	0.056067955
37	0x3d3444fa	0.044011094
38	0x3d6cbca5	0.057797093
39	0x3dedacee	0.11605249
40	0xbdddccd0	-0.108300805
41	0x3dea7024	0.114471704
42	0x3db863b9	0.090033956
43	0x3d5b83e4	0.053592578
44	0xbbd6c091	-0.0065537174
45	0x3d46e44d	0.04855757
46	0x3d4a8a2c	0.049448177
47	0xbe8ead63	-0.2786666
48	0x3e1d7ab6	0.15378842
49	0x3d952614	0.072826535
50	0x3d91d838	0.071213186
51	0x3cd59a86	0.02607466
52	0x3e56033c	0.20899671
53	0xbcc3f622	-0.023921076
54	0xbd228f3d	-0.039687384
55	0xbdda32b8	-0.10654205
56	0xbea55daa	-0.32298023
57	0xbe1a9b41	-0.15098287
58	0xbda2efa6	-0.079558656
59	0xbdaa0dfd	-0.08303449
60	0x3e152b45	0.14567287
61	0x3e191ffc	0.14953607
62	0xbe364b79	-0.17802228
63	0xbe0295de	-0.12752482
64	0xbbd212af	-0.0064109187
65	0x3cd70dd5	0.026251713
66	0x3d2f7078	0.042831868
67	0xbd69fa54	-0.057123497
68	0xbdd65d77	-0.10467046
69	0xbe2f5e2d	-0.17125769
70	0xbdda10ea	-0.10647757
71	0x3d7973e1	0.060901526
72	0xbd3e9c4e	-0.046535783
73	0xbd577f7f	-0.052611824
74	0xbcf79d14	-0.030226268
75	0xbe0fc8cb	-0.1404144
76	0x3e0e4b34	0.13895875
77	0xbc86dde5	-0.01646323
78	0xbda5b098	-0.08090323
79	0x3dde2c97	0.108483486
80	0xbd82b4dc	-0.063821524
81	0xbdd9b15a	-0.1062953
82	0x3e53101e	0.20611617
83	0xbc62d23b	-0.013844068
84	0x3e476173	0.19470768
85	0xbd436031	-0.047699157
86	0xbe552fc3	-0.20819001
87	0xbd0ba2a0	-0.03409064
88	0x3e3c5446	0.18391523
89	0xbe2b5100	-0.16730118
90	0xbe8bf139	-0.27332476
91	0xbd663db2	-0.05621118
92	0xbe282f85	-0.16424377
93	0x3cba9bea	0.022779424
94	0x3c9e12ec	0.019296132
95	0xbe16241a	-0.14662209
96	0xbde2f6d5	-0.11082236
97	0x3b5feedd	0.0034169473
98	0xbe4f3e9e	-0.2023873
99	0x3dd19f6c	0.102354854
100	0x3d353281	0.044237617
101	0x3d607fb7	0.0548093
102	0x3de9776b	0.1139973
103	0x3dcf7944	0.101305515
104	0x3e1931fd	0.14960475
105	0xbe5d60ba	-0.2161893
106	0x3d8063d9	0.062690444
107	0x3d4e74ae	0.050404243
108	0xbd94e4a0	-0.07270169
109	0xbe035da6	-0.12828693
110	0x3bbcea1d	0.005765213
111	0x3d62a277	0.05533072
112	0x3d6b9cb9	0.05752251
113	0x3d9e7008	0.07736212
114	0x3d8b6f4e	0.06808339
115	0x3dd5981d	0.10429404
116	0xbe81189b	-0.25214085
117	0x3cc2ac6b	0.023763856
118	0x3e3b0040	0.18261814
119	0xbe16df48	-0.14733613
120	0x3d75dbed	0.06002419
121	0xbbd3f5b6	-0.0064685
122	0xbc7512d5	-0.014958103
123	0x3dbb426c	0.09143528
124	0x3e653062	0.22381738
125	0x3c849c13	0.016187703
126	0x3d8e33fb	0.06943508
127	0xbdb28a3b	-0.087177716
128	0xb8b3e8ca	-8.5787455e-05
129	0xbdacac22	-0.08431269
130	0xbe9b3d55	-0.3032023
131	0xbd91a5c4	-0.071116954
132	0x3e28e244	0.16492563
133	0x3e9d376f	0.30706355
134	0x3cbf83d9	0.0233783
135	0xbe2edb69	-0.17075886
136	0xbd86bc57	-0.06578892
137	0xbe3596d0	-0.17733312
138	0xbe3eb088	-0.18622029
139	0xbe2f02cc	-0.1709091
140	0xbdf912fd	-0.12161825
141	0x3d538408	0.051639587
142	0x3db5fc14	0.08885971
143	0x3c8a16ba	0.01685654
144	0xbcee5015	-0.02909092
145	0xbdb7dbfb	-0.08977505
146	0x3e088e31	0.13335492
147	0x3e2f5ca1	0.17125179
148	0x3e0de0f6	0.13855347
149	0xbdf878ca	-0.12132414
150	0x3dc7b5a6	0.097514436
151	0xbdf6e51d	-0.12055419
152	0x3e2ad81e	0.16684005
153	0x3e5ba704	0.2145043
154	0xbbbc4755	-0.005745808
155	0xbe2b528a	-0.16730705
156	0xbd16834f	-0.03674632
157	0xbecfe1b6	-0.4060189
158	0xbde7a366	-0.11310463
159	0x3c9ac6a2	0.018893544
160	0x3e7481c6	0.2387763
161	0x3ca34ce8	0.019934133
162	0x3e65adbe	0.22429559
163	0xbdbaa4fe	-0.09113501
164	0x3dd0ff6c	0.10204968
165	0x3d4adba5	0.049525876
166	0x3c69f3ea	0.014279345
167	0xbde2c40a	-0.11072548
168	0x3e86bfc1	0.26318172
169	0x3e55b483	0.20869641
170	0x3d9bebcb	0.07613333
171	0xbda3252f	-0.079660766
172	0x3c2ae387	0.010430223
173	0xbe7f4228	-0.2492758
174	0x3d1f69cd	0.03891926
175	0xbe90b7d9	-0.28265265
176	0xbdcd60a9	-0.10028202
177	0x3d793c70	0.060848653
178	0x3d8eb9e4	0.069690496
179	0x3e14ba43	0.14524178
180	0x3d3181c7	0.043336656
181	0xbdbb4de8	-0.09145719
182	0xbda0e4e4	-0.078561574
183	0xbe3306c2	-0.17483047
184	0xbb81a040	-0.003955871
185	0xbb7e322e	-0.0038787234
186	0x3e1f92ab	0.15583293
187	0x3db52264	0.0884445
188	0x3df1b88d	0.118027784
189	0xbdf9859f	-0.12183689
190	0x3dc58733	0.09644928
191	0xbb766f6c	-0.0037603034
192	0x3daef425	0.085426606
193	0x3db9360c	0.09043512
194	0xbe270cd2	-0.16313484
195	0x3d304903	0.04303838
196	0x3e35d05a	0.17755261
197	0xbd36fecb	-0.044676583
198	0xbe469a58	-0.19394815
199	0xbe600f2a	-0.21880785
200	0x3dda04e3	0.10645463
201	0xbd1ad1bb	-0.03779767
202	0xbddbedf9	-0.10738749
203	0x3debf18e	0.11520682
204	0x3e5a4b7a	0.21317855
205	0x3cabb071	0.020958157
206	0xbb6fc787	-0.0036587433
207	0x3e26b4ed	0.16279955
208	0xbd67150b	-0.056416553
209	0xbdee4bd6	-0.11635558
210	0xbd8c4698	-0.06849402
211	0xbe971011	-0.29504445
212	0xbe925c62	-0.28586107
213	0x3e241fd3	0.16027765
214	0x3c837bdb	0.01605027
215	0xbda5a071	-0.080872424
216	0x3b8fcace	0.00438819
217	0x3e76858a	0.24074379
218	0xbd0da714	-0.034583166
219	0xbdb05cb7	-0.08611434
220	0xbe2f81dc	-0.17139381
221	0xbdb0dbbc	-0.08635661
222	0x3d69d504	0.057087913
223	0x3e4c6da1	0.19963695
224	0x3e896220	0.26832676
225	0x3e35deb6	0.17760739
226	0x3bf9c97c	0.0076228958
227	0xbdf8f8a5	-0.121568
228	0x3e5fc006	0.21850595
229	0xbd9e2645	-0.07722143
230	0xbca4402e	-0.020050135
231	0xbd9e80cd	-0.077394105
232	0xbce2f4b1	-0.027704569
233	0x3c8f028e	0.017457273
234	0xbdf4616f	-0.119326465
235	0xbd30c70f	-0.043158587
236	0x3e1f4b4e	0.1555607
237	0x3dc94c91	0.09829057
238	0x3bfa68f2	0.007641905
239	0x3e1a2848	0.15054429
240	0xbc31326f	-0.010815247
241	0x3bd7fb49	0.006591235
242	0xbe68a338	-0.22718513
243	0x3d47c251	0.0487693
244	0xbb8713bf	-0.004122227
245	0x3d78f685	0.060781974
246	0xbdff4d9d	-0.124659754
247	0x3e14e7a8	0.14541495
248	0x3df23a4b	0.11827525
249	0x3e176312	0.14783886
250	0x3d3b2411	0.045688692
251	0xba673a72	-0.000882066
252	0x3d582ec3	0.05277897
253	0x3c9f53a9	0.019449072
254	0xbd280b87	-0.04102662
255	0xbc50b2db	-0.012737955

bottle_neck.0.conv_block.6.weight f4 [32]
0	0x3f6368d6	0.8883184
1	0x3f5ec6c4	0.8702204
2	0x3f358635	0.7090791
3	0x3f71bb36	0.94426286
4	0x3f3e67c1	0.74377066
5	0x3f6753bd	0.9036215
6	0x3f5af971	0.8553687
7	0x3f5d4ce4	0.8644545
8	0x3f7c1e50	0.98483753
9	0x3f80ae3b	1.0053171
10	0x3fa21e42	1.2665484
11	0x3f8281cd	1.0195862
12	0x3f6da03a	0.9282261
13	0x3f468b24	0.7755606
14	0x3f50f7c0	0.81628036
15	0x3f873d3b	1.0565561
16	0x3f66e3bc	0.90191245
17	0x3f81e2ba	1.0147316
18	0x3f54e86f	0.83167166
19	0x3f6db717	0.928575
20	0x3f865ba6	1.0496719
21	0x3f4566cd	0.77109987
22	0x3f6ee5de	0.933195
23	0x3f611bcc	0.8793304
24	0x3f83662a	1.0265553
25	0x3f847600	1.0348511
26	0x3f822c90	1.0169849
27	0x3f6c8aa7	0.92399067
28	0x3f4f1397	0.80889267
29	0x3f899404	1.0748296
30	0x3f5bf675	0.8592294
31	0x3f709565	0.9397796

bottle_neck.0.conv_block.6.bias f4 [32]
0	0xbddab420	-0.10678887
1	0xbc9be0f0	-0.019028157
2	0x3c7b4dba	0.015338356
3	0xbbe1ce65	-0.006891059
4	0x3b2ab106	0.0026045456
5	0xbdbe9469	-0.09305651
6	0xbd92b2b5	-0.07162992
7	0xbc7e60f5	-0.015526046
8	0xbceedd32	-0.029158209
9	0x3d2f01cf	0.042726334
10	0x3dc8d842	0.09806873
11	0xbd2792e2	-0.040911563
12	0x3cb987c1	0.02264774
13	0xbd9539a8	-0.07286388
14	0xbe17966f	-0.1480348
15	0xbda95bb3	-0.08269443
16	0xbd095d3f	-0.033536192
17	0xbc990ef9	-0.018683897
18	0x3c28f625	0.010312592
19	0xbd3e695b	-0.046487194
20	0xbd01a229	-0.03164879
21	0xbd5a9971	-0.05336899
22	0x3db684d0	0.08912051
23	0x3d11d55c	0.035603866
24	0xbcff226b	-0.031144341
25	0x3d7fba03	0.062433254
26	0xbd2c9710	-0.042136252
27	0x3cc344d8	0.023836538
28	0xbcfc5d75	-0.030806283
29	0xbd531f39	-0.051543448
30	0xbde20b30	-0.1103729
31	0xbd61d1b6	-0.055131637

bottle_neck.0.conv_block.6.running_mean f4 [32]
0	0x3e8a67ed	0.27032414
1	0x3dad1e54	0.0845305
2	0xbfcea2de	-1.6143453
3	0x3c56a160	0.013099998
4	0x3f0b6b3a	0.5446049
5	0x3e30e21b	0.17273752
6	0x3fc63c43	1.548714
7	0x3c9543f5	0.018220881
8	0x3f57aad3	0.8424503
9	0x400832a6	2.1280913
10	0xbfbaccc9	-1.4593745
11	0xbecd0119	-0.400399
12	0xbfa1ae2b	-1.2631277
13	0x3f9f82e6	1.2461822
14	0xbf008110	-0.50196934
15	0xbf6a4c7d	-0.9152296
16	0xbdd859b5	-0.10563985
17	0x3ffd5460	1.9791374
18	0xbe90c946	-0.2827856
19	0x3faa09db	1.3284258
20	0xbdacd3f2	-0.08438863
21	0x3f1ecdce	0.62032783
22	0xbf9978f9	-1.1990043
23	0x3eb63111	0.3558431
24	0x3eacac38	0.33725142
25	0x3ee8d51a	0.45475084
26	0xbfb1535c	-1.3853564
27	0xbf127dbd	-0.5722311
28	0x3f048643	0.5176737
29	0xbe923e72	-0.28563267
30	0x3f83d437	1.0299138
31	0xbf29c131	-0.6631041

bottle_neck.0.conv_block.6.running_var f4 [32]
0	0x404c6dd2	3.194203
1	0x409334ca	4.600194
2	0x40507fcd	3.2578003
3	0x4047dc82	3.1228337
4	0x404dfcaf	3.2185476
5	0x402a3cea	2.659968
6	0x404ca342	3.1974645
7	0x401645cd	2.3480103
8	0x40410ce9	3.016413
9	0x404c9bdb	3.1970127
10	0x4027cdb6	2.6219306
11	0x401c41c2	2.4415135
12	0x40315d9c	2.7713385
13	0x407acd39	3.9187758
14	0x4074e643	3.826554
15	0x40331934	2.7984133
16	0x40784bd2	3.8796277
17	0x404ef613	3.2337692
18	0x4003e390	2.0607643
19	0x404fd1e0	3.2471848
20	0x401aaf58	2.4169521
21	0x4032a9b3	2.7916076
22	0x40246e7f	2.5692441
23	0x40461a3d	3.0953515
24	0x40338c2d	2.8054307
25	0x404f2890	3.2368507
26	0x402616d6	2.5951438
27	0x404429fa	3.065062
28	0x4067c799	3.6215575
29	0x3fe50d4f	1.7894686
30	0x4029c622	2.652718
31	0x40502c95	3.252721

bottle_neck.1.conv_block.1.weight f4 [32, 32, 3, 3]
0	0xbdbc4834	-0.09193459
1	0x3e92f412	0.28701836
2	0x3c120bde	0.008913962
3	0xbe258533	-0.16164093
4	0x3c134a4a	0.00898988
5	0xbd98938e	-0.07450019
6	0xbd0ef364	-0.034900084
7	0x3dca5569	0.09879572
8	0xbd819dbe	-0.06328915
9	0xbcc4f0fa	-0.024040688
10	0xbdf53329	-0.11972649
11	0xbd1a32f5	-0.037646253
12	0xbda857f6	-0.08219902
13	0x3d58be20	0.052915692
14	0x3d79de1d	0.06100284
15	0x3d01f46a	0.031727232
16	0x3d028210	0.03186232
17	0xbdac18ff	-0.08403205
18	0xbcfb0c11	-0.030645402
19	0xbd25b924	-0.040459767
20	0x3d74d464	0.059772864
21	0x3e658fb7	0.22418104
22	0x3e11d512	0.14241436
23	0x3e5ec3bd	0.21754356
24	0xbd89dd40	-0.06731653
25	0x3dbebcd0	0.09313357
26	0x3df9b3a3	0.12192466
27	0xbe6368e5	-0.22207983
28	0x3ac8860c	0.0015298738
29	0x3e3f736b	0.18696372
30	0x3d9de532	0.07709731
31	0x3e01104c	0.12603873
32	0x3c8c7b00	0.017148495
33	0xbdc3f530	-0.0956825
34	0xbde975ff	-0.11399459
35	0xbdcc64af	-0.09980141
36	0x3c849341	0.016183497
37	0xbe8518ad	-0.2599539
38	0xbeb0a522	-0.34500986
39	0x3dfec400	0.12439728
40	0x3e07b2c0	0.13251781
41	0x3e3a91ef	0.18219732
42	0xba837a52	-0.0010030961
43	0x3dc089a5	0.094012536
44	0xbe58c86a	-0.21170202
45	0x3dac08ef	0.084001414
46	0xbe5aabd2	-0.21354607
47	0xbe5833c4	-0.21113497
48	0xbd867312	-0.06564917
49	0x3da5d0dc	0.080964774
50	0x3d86f014	0.0658876
51	0xbe690ed1	-0.22759558
52	0x3cc3d585	0.023905525
53	0xbcc23e60	-0.023711383
54	0xbd503b4c	-0.0508378
55	0x3c029d71	0.007972107
56	0xbe3b9753	-0.18319444
57	0x3d2742ed	0.04083531
58	0x3e3d1b9e	0.18467566
59	0xbc928660	-0.01788634
60	0x3e165f36	0.14684758
61	0x3e452125	0.19250925
62	0xbe477e2b	-0.19481723
63	0xbc1a4984	-0.009416942
64	0x3da71953	0.08159127
65	0x3bfe8950	0.007767834
66	0xbe89cac5	-0.26912513
67	0x3da02fbd	0.07821605
68	0xbea04d1c	-0.3130883
69	0xbdea6d16	-0.11446588
70	0x3d8aaf85	0.06771759
71	0x3dcd62d3	0.10028615
72	0xbda2f2e3	-0.07956483
73	0x3dd72b2c	0.10506281
74	0xbe519a03	-0.20468907
75	0x3e726a05	0.23673256
76	0x3e91aa31	0.28450158
77	0xbd5dc619	-0.054144
78	0x3e27c9d3	0.16385584
79	0xbdf1e919	-0.11812038
80	0x3d0bb951	0.03411228
81	0xbda1e2d6	-0.07904594
82	0x3db5eb90	0.088828206
83	0x3e4d4d5f	0.20049046
84	0x3cb49f77	0.022048695
85	0x3e8522ec	0.26003206
86	0xbce608a8	-0.0280803
87	0xbe0f535f	-0.13996647
88	0xbe362784	-0.17788512
89	0x3e7d234c	0.24720496
90	0x3d584190	0.0527969
91	0x3e46fac9	0.19431604
92	0x3e105aba	0.1409711
93	0x3e071cdb	0.13194601
94	0xbe017ae2	-0.12644532
95	0xbcafa5b4	-0.021441318
96	0x3e1e72b9	0.1547345
97	0x3e884823	0.26617536
98	0x3ea2de53	0.31810245
99	0xbc873947	-0.016506804
100	0xbd94fea7	-0.072751336
101	0x3d2ce509	0.042210612
102	0xbe1ad643	-0.15120797
103	0xbe169fc0	-0.14709377
104	0x3d0e7d46	0.03478744
105	0xbe7e2ce3	-0.2482181
106	0xbd91993e	-0.07109307
107	0xbd94a18f	-0.07257377
108	0x3d953ec5	0.07287363
109	0x3c96af0a	0.018394012
110	0x3dfb444a	0.122688845
111	0x3dc9fc59	0.098625846
112	0x3d8d13dc	0.068885535
113	0x3e2a3e15	0.16625245
114	0xbcf4e949	-0.029896395
115	0x3e11e3e4	0.1424709
116	0x3d00809f	0.031372663
117	0xbdb5ae19	-0.08871097
118	0x3c31dd99	0.010856056
119	0xbc0684e9	-0.008210399
120	0xbd1d86c2	-0.038458593
121	0x3da077f7	0.078353815
122	0xbe827de3	-0.2548667
123	0x3db96122	0.0905173
124	0xbb583f9c	-0.0032996899
125	0x3e366de1	0.17815353
126	0xbdf194ef	-0.11795985
127	0x3d856f5b	0.0651538
128	0x3c57cc21	0.013171227
129	0xbdabee62	-0.08395077
130	0xbd1244d3	-0.035710167
131	0xbd8a780f	-0.067611806
132	0xbd6f6979	-0.058450196
133	0xbcd52571	-0.02601883
134	0x3e1312f6	0.14362702
135	0x3e1a8250	0.15088773
136	0x3e5144bb	0.20436375
137	0xbbdbe2fa	-0.0067104073
138	0xbb411b09	-0.0029465577
139	0xbe6f7486	-0.23384294
140	0xbe65772f	-0.22408746
141	0x3cdf559e	0.027262505
142	0x3d48e2a6	0.049044274
143	0xbe78f58c	-0.24312419
144	0xbe3bfa4b	-0.18357198
145	0xbcd2c9cd	-0.025730992
146	0x3e5bf803	0.21481328
147	0xbe90be87	-0.2827036
148	0xbd9888fa	-0.07448001
149	0xbe4ce580	-0.20009422
150	0xbe22d0a4	-0.15899903
151	0xbe90c0d4	-0.28272116
152	0x3ebde6e9	0.37090233
153	0xbd3273eb	-0.04356758
154	0x3dc325ef	0.0952872
155	0x3e01148e	0.12605497
156	0x3e661b5c	0.22471374
157	0x3d1cb9bc	0.038263068
158	0xbd3a0bbf	-0.04542136
159	0x3e8ee583	0.2790948
160	0xbe20c2b8	-0.1569928
161	0x3da9e0bb	0.08294817
162	0xbccdf4a6	-0.025141072
163	0xbe019056	-0.12652716
164	0x3e26374b	0.1623203
165	0x3d92e5d9	0.07172746
166	0xbe3c2f9d	-0.18377538
167	0x3d1a0a16	0.037607275
168	0xbdc03cee	-0.093866214
169	0xbe1fd6d1	-0.1560929
170	0x3c09cbd9	0.0084104175
171	0xbdf1fcfb	-0.1181583
172	0xbdb633a2	-0.08896567
173	0x3dcdc8be	0.10048054
174	0x3d4962e8	0.04916659
175	0x3dd954e5	0.106118955
176	0x3e3515e2	0.17684129
177	0xbe095474	-0.13411123
178	0xbe083038	-0.13299644
179	0x3c405559	0.0117390985
180	0xbe2c7994	-0.16843253
181	0xbdb1ffa4	-0.08691338
182	0x3ea392ed	0.31948033
183	0x3da1fba0	0.07909322
184	0xbdc549d6	-0.09633224
185	0xbe11523f	-0.1419153
186	0xbe9c16b3	-0.30486068
187	0x3cf28fa2	0.029609505
188	0x3d8f5177	0.0699796
189	0x3a99573a	0.0011698969
190	0xbe12194a	-0.1426746
191	0x3d8edad8	0.06975335
192	0x3e85e620	0.26152134
193	0x3df2a64e	0.11848126
194	0x3da4edc0	0.0805316
195	0x3d97e2f6	0.07416336
196	0x3d08a2ce	0.033358388
197	0x3e188d7f	0.14897726
198	0xbe46d0a6	-0.1941553
199	0xbe35da58	-0.17759073
200	0x3c4a772f	0.012357517
201	0x3e1fd3c6	0.15608129
202	0x3da72562	0.08161427
203	0x3de41001	0.11135865
204	0xbd17b866	-0.03704109
205	0xbcbeeea6	-0.023307156
206	0xbd28e273	-0.041231584
207	0x3ce71898	0.02820997
208	0x3d8ec088	0.06970316
209	0x3dd3b5b0	0.103373885
210	0xbe29f234	-0.165963
211	0xbe2163ac	-0.15760678
212	0x3d3ac876	0.04560133
213	0xbd0aebfc	-0.03391646
214	0x3da8b35d	0.08237336
215	0xbdd3889c	-0.103287905
216	0xbd5cd00d	-0.05390935
217	0x3ab51000	0.0013813972
218	0x3d45de53	0.048307728
219	0x3d9ad0be	0.07559346
220	0x3e9b647a	0.30350095
221	0x3d2a4106	0.041565917
222	0x3e9a54a2	0.30142695
223	0x3d9de0bb	0.077088796
224	0x3e45c33c	0.19312757
225	0x3e335c52	0.17515686
226	0x3e4b248e	0.19838163
227	0x3c83262c	0.016009413
228	0x3dfc0dac	0.12307295
229	0x3e00a4d4	0.12562877
230	0xbde3edb5	-0.111293234
231	0x3e34a146	0.17639646
232	0xbc9aff9a	-0.018920708
233	0x3d36c8e1	0.044625167
234	0x3db78a51	0.08961929
235	0xbd92925d	-0.07156823
236	0xbe3fb071	-0.18719651
237	0x3e8ed53f	0.2789707
238	0x3d0298b6	0.031883918
239	0xbdfa46d7	-0.12220543
240	0x3d3b57d5	0.04573806
241	0xbd8ab3c2	-0.06772567
242	0x3de6f3fe	0.112770066
243	0xbc2d3430	-0.0105715245
244	0x3d01e88b	0.03171591
245	0xbd5ae860	-0.053444266
246	0x3e52478b	0.20535104
247	0xbde7952f	-0.113077514
248	0x3dc0e3c2	0.09418441
249	0x3c854464	0.016267963
250	0xbdbf8c9f	-0.09352993
251	0x3ca3100d	0.019905115
252	0x3c8e3015	0.017356912
253	0xbdc906a0	-0.09815717
254	0xbd155a4c	-0.036463067
255	0xbd6f8686	-0.0584779

bottle_neck.1.conv_block.2.weight f4 [32]
0	0x3f617286	0.88065374
1	0x3f78b9d9	0.9715858
2	0x3f83d069	1.0297977
3	0x3f6614a2	0.89875233
4	0x3f4b6745	0.7945445
5	0x3f82d5e9	1.022153
6	0x3f87f627	1.0621995
7	0x3f58ca49	0.8468366
8	0x3f8e6474	1.1124406
9	0x3f64cf01	0.8937836
10	0x3f4ef579	0.8084331
11	0x3f665d05	0.89985687
12	0x3f52f383	0.8240282
13	0x3f7bc3f1	0.9834586
14	0x3f70bc18	0.9403701
15	0x3f746464	0.95465684
16	0x3f82aa2b	1.0208181
17	0x3f6966d1	0.9117251
18	0x3f7398a8	0.9515481
19	0x3f8b3b85	1.0877539
20	0x3f6396f0	0.8890219
21	0x3f83ada6	1.0287368
22	0x3f8f70a9	1.1206256
23	0x3f598a29	0.8497644
24	0x3f8382a3	1.0274242
25	0x3f60f17b	0.8786847
26	0x3f4fa99e	0.8111819
27	0x3f83782a	1.0271046
28	0x3f66ea3b	0.9020116
29	0x3f8b74f6	1.0895069
30	0x3f67ce87	0.9054951
31	0x3f6da00a	0.92822325

bottle_neck.1.conv_block.2.bias f4 [32]
0	0xbeb37c62	-0.35055834
1	0xbee8fe9b	-0.4550675
2	0xbe391de2	-0.18077806
3	0xbed7fac1	-0.42183498
4	0xbf1ba2e9	-0.60795456
5	0xbe605ae1	-0.21909668
6	0xbecc9375	-0.3995625
7	0xbedf811c	-0.4365319
8	0xbec6a71d	-0.38799372
9	0xbeb66c99	-0.35629728
10	0xbe8586e6	-0.26079482
11	0xbedec658	-0.435107
12	0xbef43293	-0.47694835
13	0xbee2b039	-0.44275072
14	0xbe562a5e	-0.209146
15	0xbe319629	-0.17342438
16	0xbeb19d38	-0.3469026
17	0xbef429f1	-0.4768825
18	0xbe9eb27b	-0.30995545
19	0xbeb51714	-0.3536917
20	0xbeb35710	-0.3502736
21	0xbe7de6d4	-0.24795085
22	0xbefbf99b	-0.4921387
23	0xbe398af4	-0.18119413
24	0xbea05a8d	-0.31319085
25	0xbede9c91	-0.43478826
26	0xbec0e0cf	-0.37671515
27	0xbf034619	-0.51278836
28	0xbebf8c4f	-0.37411734
29	0xbf0e65c1	-0.55624014
30	0xbe371c69	-0.17881931
31	0xbedbdb08	-0.42940545

bottle_neck.1.conv_block.2.running_mean f4 [32]
0	0x403c1de2	2.939324
1	0xbed7ff85	-0.42187133
2	0x3f02dca0	0.511179
3	0xbf1423a8	-0.5786691
4	0xbf0a233a	-0.5396
5	0x3fd5f332	1.6714842
6	0x3d4a129e	0.04933416
7	0x401454cd	2.3176758
8	0x3f363fef	0.71191305
9	0xbedcb8cf	-0.43109748
10	0xbfeeb6bd	-1.8649517
11	0xbfd2e999	-1.6477538
12	0x3ec8575f	0.3912916
13	0x3ebdab24	0.37044632
14	0x3f7d4fd4	0.98949933
15	0xbf57d9e2	-0.8431684
16	0x401e4f53	2.4735916
17	0x3ee7637a	0.45193082
18	0x3e0c60be	0.13708779
19	0x4029ca8c	2.6529875
20	0x3d1cdef6	0.03829857
21	0x4065b2cb	3.5890377
22	0x3f061b81	0.5238572
23	0xbdb03cc6	-0.086053416
24	0x3f37d64c	0.71811366
25	0x40158cb8	2.3367138
26	0xbdac764a	-0.08420999
27	0xbfdad0ca	-1.7094967
28	0xbf48a9ad	-0.78383905
29	0xbf22e647	-0.63632625
30	0x3f417a50	0.7557726
31	0xbf9df8ad	-1.2341515

bottle_neck.1.conv_block.2.running_var f4 [32]
0	0x41dc61ad	27.547693
1	0x41e2edcf	28.366117
2	0x42365b04	45.588882
3	0x41faa19a	31.328907
4	0x42293c24	42.30873
5	0x41eea17d	29.828852
6	0x4219501f	38.328243
7	0x421d22cf	39.283993
8	0x421744a7	37.817043
9	0x423a5188	46.57962
10	0x421ff43e	39.988518
11	0x42090072	34.250435
12	0x41de3abc	27.778679
13	0x41ffec13	31.99027
14	0x4222e701	40.72559
15	0x42076226	33.845848
16	0x42177a68	37.869537
17	0x41f18bcf	30.193266
18	0x4237f268	45.986725
19	0x4207ff18	33.999115
20	0x42158e45	37.388935
21	0x42530517	52.75497
22	0x41e3482d	28.410242
23	0x4231fbcc	44.495895
24	0x420b6975	34.852985
25	0x42249561	41.145878
26	0x420f6d29	35.8566
27	0x420d8c03	35.38673
28	0x423a52b6	46.580772
29	0x41e92ee6	29.1479
30	0x4246dbd0	49.71466
31	0x41c42df9	24.522448
