models/netG_epoch_40.pth (torch_old, 358159 bytes, 49 tensors)

encoder.0.weight f4 [8, 1, 3, 3]
000000 7c 2a 2a be 92 f0 4a 3d ff 73 01 3e 50 3b 0e be
       -0.16617769 0.049545832 0.12641905 -0.13889813
000010 d4 28 63 be ea 6b 84 bd 8f 25 b4 3d 5e 62 4d 3d
       -0.22183543 -0.064658955 0.08796226 0.05014264
000020 58 10 12 be 90 11 71 3d 89 2c b1 3d cc c6 0a 3d
       -0.14264047 0.05885464 0.086510725 0.033880994
000030 a7 ba 22 be 9b dd 2a be 64 7e a1 be cd 64 ea bd
       -0.15891515 -0.16686098 -0.3154174 -0.114450075
000040 cc b9 5e 3d 77 2f fa 3c a9 1b 7b 3c 10 8d 8c bd
       0.05437641 0.030540211 0.015326419 -0.06862843
000050 69 47 34 be 5c ce 0e bc 9e 8e 01 be 21 ec 26 be
       -0.17605366 -0.008716192 -0.1265206 -0.16301014
000060 ea 40 6f bd fd 72 82 be f7 39 74 bd 02 60 f9 bd
       -0.058411516 -0.25478354 -0.059625592 -0.12176515
000070 4c 05 39 be 04 24 16 be dd c5 a2 3c a4 29 19 bd
       -0.18068427 -0.14662176 0.01986974 -0.037393227
000080 69 45 ea bd c2 53 09 3e d1 ca b3 3d 8c 9b ae bd
       -0.1143902 0.13410857 0.087789185 -0.08525762
000090 07 88 de 3d 82 ed 60 3d fc c7 5d bd e9 57 66 3d
       0.10865789 0.054914005 -0.054145798 0.05623618
0000a0 54 2c d4 bd 23 e1 64 be ea c1 5f be 50 f4 18 be
       -0.103600174 -0.22351508 -0.21851316 -0.14936948
0000b0 09 3e 32 3d f1 26 a3 39 f3 a6 00 bd 94 33 df bd
       0.043516193 0.00031118796 -0.031409215 -0.108985096
0000c0 a6 92 ec bc 5c 9d de 3d be 8b 15 3e f5 5a bc bb
       -0.028878521 0.10869858 0.14604089 -0.0057481476
0000d0 70 f1 84 3e b6 52 5e 3e c4 95 3f be c3 10 fe 3c
       0.25965452 0.21711239 -0.18709475 0.031013852
0000e0 b7 fd 70 3d a7 3a 4b be 08 19 ea bd bb a8 ef bd
       0.05883571 -0.19846593 -0.114305556 -0.11702105
0000f0 13 43 3d bd 36 ea cd bc 57 6c 45 be 31 36 73 3c
       -0.046206545 -0.025136095 -0.1927961 0.014844463
000100 11 5b 13 3d 5e a4 8b bc b3 d3 7f 3b bc 92 a3 3d
       0.03597552 -0.01704615 0.0039036095 0.07986972
000110 8f 85 16 3e 05 8e 75 3d 4d ba 84 3e 24 8c 5c 3e
       0.14699386 0.059949894 0.25923386 0.21537834

encoder.0.bias f4 [8]
000000 a1 77 dd 3c 52 4f a6 be 92 33 19 3e d9 0c fc bc
       0.027034583 -0.32482392 0.14961079 -0.030767845
000010 72 5b 47 be 9b 23 c9 bd 46 d1 19 3e d9 b3 79 be
       -0.19468477 -0.09821244 0.15021238 -0.24385013

encoder.3.weight f4 [16, 8, 3, 3]
000000 7d 69 2f be 73 58 1a be 94 fb 42 be ae 4c 6f be
       -0.17130084 -0.15072803 -0.19041282 -0.23369095
000010 6f 2a 44 be df 42 8d bd 21 d8 5a bd bf b7 45 be
       -0.19156812 -0.0689752 -0.053428773 -0.19308375
000020 f4 6c a1 bd d6 01 0b be 94 69 8c be a7 65 87 be
       -0.07882109 -0.13574919 -0.274243 -0.26444742
000030 d3 14 cf bd d2 17 24 be 72 47 34 be ed 16 74 3d
       -0.10111394 -0.16024712 -0.17605379 0.059592176
000040 9a 8b 59 bd 4e a3 38 3c f7 83 cd bd 39 48 d7 bd
       -0.05311165 0.011269404 -0.10034936 -0.10511822
000050 17 b2 c0 bd 6b c8 25 be d5 ff a2 be c1 31 a3 bd
       -0.09408968 -0.16189735 -0.3183581 -0.07968474
000060 77 5b 9f bd b8 92 29 be b6 24 b8 bd bb c0 be bb
       -0.077811174 -0.16559875 -0.08991377 -0.005821315
000070 8a b1 f8 bb 1e cf 3e bd 1e 97 8f bd 6d 15 34 bd
       -0.0075895237 -0.04658424 -0.07011245 -0.043965746
000080 06 ce e8 bd ce b1 cf bd 96 15 2c bd 8b 03 ed bd
       -0.11367421 -0.101413354 -0.042012773 -0.115729414
000090 7b 3d 24 be e8 25 59 be 63 04 2f bd d0 9f e4 bd
       -0.16039078 -0.21205866 -0.042728793 -0.11163294
0000a0 58 a8 01 be 15 97 84 bd 85 78 36 3d 62 8a 7f bd
       -0.12661874 -0.06474129 0.04454853 -0.06238783
0000b0 e8 4f 00 bd ea da 02 3e b7 b0 1f 3e 2c eb 88 3d
       -0.031326205 0.12778822 0.15594755 0.066854805
0000c0 63 05 86 3d 13 0d 89 3d d5 91 4d 3d ee d8 a9 bc
       0.06543996 0.06691947 0.050187904 -0.020733323
0000d0 29 1e 9d bb 7b 73 89 3d 05 be 46 be 93 0f ed bd
       -0.004794855 0.06711479 -0.19408424 -0.11575236
0000e0 0e 98 2f be fc 01 47 be 10 2e 7d be 9e e5 38 be
       -0.17147848 -0.1943435 -0.24724603 -0.18056342
0000f0 6b 16 10 be 79 65 5a be 6f 6c f5 bd cd 9e 0c 3e
       -0.14071052 -0.21327771 -0.11983573 0.13732453
000100 a9 c0 0b 3e c3 9a 64 3b 25 a5 d0 3d 19 b1 cb 3d
       0.13647713 0.0034882284 0.10187749 0.09945888
000110 15 ae 1f 3d e8 bd 6e 3d de aa 99 3d a5 d5 92 3b
       0.038984377 0.058286577 0.075032935 0.004481035
000120 bd c7 ce 3d ab e8 0e 3e b0 a0 05 bb cb 24 2b bb
       0.10096691 0.13955943 -0.0020389967 -0.002611446
000130 4b d7 8e 3d d6 9d cd bc 4c af 2b 3e d6 c5 2c 3e
       0.069746576 -0.025099676 0.16766089 0.16872343
000140 0e 7b 2e 3e a5 a6 ff 3c fe 95 df bd c6 7b 8e be
       0.17039129 0.031207392 -0.109172806 -0.27828807
000150 4f 73 ab 3d b6 67 5c bd 76 58 1e be 8e 75 0b 3e
       0.08371603 -0.053809844 -0.15463433 0.13619062
000160 6f 34 d5 3d 05 3a 9a 3d eb 5d f6 ba 08 94 14 be
       0.104103915 0.075305976 -0.00187963 -0.14509594
000170 d2 b3 97 be 9a c7 0d bc b6 88 f2 bd ed da a7 be
       -0.2962938 -0.008653546 -0.11842482 -0.32784215
000180 26 9d 8a 3d 88 8d 88 bc c5 5f 57 be 57 01 1e 3d
       0.06768255 -0.01666905 -0.21032627 0.038575497
000190 8a 29 9c 3d af ad de 3d 8a d0 e0 3d aa 2b 10 3e
       0.076251104 0.10872971 0.10977276 0.14079157
0001a0 1e 1f 68 3c 0c 6a 86 3c 0c 35 d3 3b e2 53 e7 bd
       0.014167575 0.016407989 0.0064455327 -0.11295296
0001b0 07 40 3b 3d 3d 05 55 be 9c 0c bb be cb c0 63 3d
       0.045715358 -0.2080278 -0.36533058 0.055603784
0001c0 67 94 0a bd 26 1f 38 be 7d 58 02 3e 85 fc 9e 3d
       -0.033832934 -0.17980632 0.12729068 0.07763008
0001d0 ed 65 a1 bd f3 e3 1a bc 4d 41 ba 3d 22 3c 29 3e
       -0.07880769 -0.009453761 0.090944864 0.16526845
0001e0 13 d5 47 bc 7f 7b 6c 3c d2 86 92 3c 51 41 36 be
       -0.012196797 0.014433741 0.017886553 -0.17798354
0001f0 4e 0f 3e be ae 6e 0a be e9 6d af 3b 90 45 1b bd
       -0.18560526 -0.13518783 0.0053536785 -0.037908137
000200 a8 8f 94 bd 72 6c 83 bc 7d e0 40 bd a3 47 42 be
       -0.07253963 -0.016042922 -0.04708909 -0.1897264
000210 18 bd 29 3e 64 00 fd 3d b1 29 95 3c b5 2c c1 3c
       0.1657604 0.1235359 0.018208357 0.023580888
000220 86 0a 58 3d dc bb cc 3d 96 c5 7a bd c5 ba 58 bd
       0.05274441 0.09996769 -0.06122359 -0.052912492
000230 ef 21 66 3c b5 06 1f be cc f1 21 be 2a c8 15 be
       0.014046176 -0.15529902 -0.15814894 -0.14627138
000240 1d 17 d1 bd 7b f8 d8 bd 4c fa a8 bd 0d 22 20 be
       -0.10209487 -0.10594269 -0.08250865 -0.1563799
000250 a4 69 fd bd d8 10 b4 bd 37 92 27 be b9 ef 99 be
       -0.12373665 -0.08792275 -0.1636437 -0.30065706
000260 7a 0a 81 bd 5b ea 96 bd d5 e6 13 be 5b d1 23 be
       -0.06300826 -0.073689185 -0.14443524 -0.15997832
000270 82 6c 26 bc d0 ce 52 be c7 d7 24 be 3a 91 72 bd
       -0.010157706 -0.20586705 -0.16097938 -0.05922053
000280 2d 57 1e be e8 fc dd 3b 16 6b fe 3c d4 eb f1 3d
       -0.15462942 0.0067745335 0.031056922 0.11812559
000290 fc 3c b0 3d 55 e8 2b bb 22 b0 31 be 72 f3 b0 bd
       0.08605382 -0.002623101 -0.17352346 -0.086401835
0002a0 fa 72 5d bd 4e aa 25 be 58 80 98 bd 0d 63 6f 3d
       -0.05406473 -0.16178247 -0.07446355 0.05844407
0002b0 36 71 a9 3d 50 a1 a3 bc bc a9 24 3d 1b ef 89 3d
       0.082735464 -0.01997438 0.040200934 0.06735059
0002c0 91 a9 c7 3c a7 9d 1e bd 7a bd 05 bb 28 74 74 bd
       0.024372848 -0.038724568 -0.0020407126 -0.059681088
0002d0 aa 4d 72 bd a5 c5 57 bd bf 55 46 bd 03 63 98 bd
       -0.059156097 -0.052678723 -0.048421618 -0.0744076
0002e0 70 0e b5 be 77 93 07 be 15 8c 9b bd 49 fd da bd
       -0.35362577 -0.13239847 -0.07595078 -0.106928416
0002f0 d3 58 0e bd 6a f9 35 3c 81 19 b0 3d ca 32 cc 3b
       -0.034752678 0.011106828 0.085986145 0.0062316405
000300 20 c2 57 3e bb ea 7b 3e 75 2a 9c 3d 74 31 a9 3d
       0.21070147 0.24601261 0.076252855 0.082613856
000310 65 33 ae 3d e3 ba 13 3d ec 7a 8c bc c7 39 ca 3b
       0.085058965 0.0360669 -0.017148457 0.0061714384
000320 52 e2 d3 3c 04 ca 89 bd 1c 6c 40 be 9b 5d 6a bd
       0.025864754 -0.067279845 -0.1879124 -0.057218175
000330 d9 bf d2 bd 79 74 49 be 95 ae c6 bd e4 ee 0b 3d
       -0.10290498 -0.19673337 -0.09701268 0.03416337
000340 dc 08 33 3d 8b 87 02 3c 97 12 60 3e 71 79 a7 3e
       0.04370962 0.007966886 0.21882091 0.3270984
000350 1d ee e5 3d fb bf cc 3d b3 11 e2 3d f5 5e 2e 3d
       0.11227057 0.09997555 0.11038532 0.042571027
000360 e8 1c 20 3e 5d b2 81 3a 66 27 6b bd e9 de 3d 3e
       0.15636027 0.0009895075 -0.05741062 0.18542065
000370 32 b4 88 3e 8a 1e 71 3e 4e 83 16 3d 3e a0 c7 3c
       0.26699978 0.23546806 0.036746316 0.024368402
000380 79 fc a3 3e b6 19 b8 3d e2 22 1b bd 53 37 1d be
       0.3202856 0.08989279 -0.037875064 -0.15353136
000390 73 b4 91 3e 8c 5b 33 3d 30 3c 01 3d c5 a4 18 3d
       0.28457984 0.043788478 0.03155154 0.03726651
0003a0 6e 31 e5 bb da 6d 06 3e 64 eb 86 3d c5 b7 a8 bd
       -0.006994418 0.13127843 0.06587866 -0.08238176
0003b0 33 6e 29 be 5f 9a d9 3d c6 3a 54 bd 33 6b 8d bc
       -0.16545944 0.10625147 -0.051813863 -0.01726303
0003c0 12 6a 00 be d2 c4 24 be 1b 2e 33 3d d9 80 a8 bd
       -0.12540463 -0.16090706 0.04374514 -0.08227701
0003d0 3b cf cf bd 65 1c 82 bd 83 6c aa bd 4a fd 95 bd
       -0.10146948 -0.06353072 -0.08321478 -0.07323702
0003e0 13 8f cd bd c5 9b 9d 3d 07 af b0 3d ac 00 20 3e
       -0.10037055 0.07695726 0.08627134 0.15625256
0003f0 4c 5a 19 3e 89 c6 16 be 65 07 1a be 6d f9 fb 3c
       0.14975852 -0.14724173 -0.15041883 0.030758584

encoder.3.bias f4 [16]
000000 db b3 2b bd 5e 25 a2 3d 07 21 d4 3c 3c 44 24 3d
       -0.04191957 0.079172835 0.025894655 0.040104136
000010 68 40 91 3c 0a f0 3f be 00 2a 09 3d 5f d9 3c 3e
       0.017730907 -0.18743911 0.03348732 0.18442295
000020 a9 2b bc 3d 9b 48 ac 3d a1 0d b8 3c eb c0 64 be
       0.09188015 0.08412286 0.022467436 -0.22339217
000030 8e 14 37 3d 09 1c d7 bd 2a ee 04 3e b1 14 b3 3d
       0.044697337 -0.10503394 0.12981477 0.08744181

encoder.6.weight f4 [32, 16, 3, 3]
000000 c6 ee 55 bd e4 c0 84 bd f2 32 d2 bd 38 6f 08 be
       -0.052229665 -0.064821035 -0.10263623 -0.13323677
000010 9d 36 07 be dc 3b 28 bd f1 6e 94 bd 0e 29 06 bd
       -0.13204427 -0.04107271 -0.07247723 -0.032753997
000020 fb 5e ba 3d 31 fb 4a 3c 26 6a 02 3d a5 02 6f bd
       0.09100147 0.01238899 0.031839512 -0.05835213
000030 1c f0 82 bd 7b 83 a6 bd e6 8b c2 bc 0d 80 b9 bd
       -0.063934535 -0.08130547 -0.02374835 -0.09057627
000040 eb 12 25 be ed e1 5c be 0d 57 88 bd cc 83 45 bd
       -0.16120498 -0.21570559 -0.066572286 -0.048221394
000050 bf 27 b0 bd 32 a5 c1 bd fb f3 27 be 59 44 e5 bb
       -0.08601331 -0.09455337 -0.16401665 -0.006996673
000060 f4 9a 9e bd 95 83 67 3d 59 21 0b 3e 7d 68 03 3e
       -0.07744399 0.05652197 0.1358694 0.12832828
000070 05 c5 c1 3d 67 4a 10 3d 1f 75 28 3e e4 31 48 3d
       0.094614066 0.035227206 0.16450928 0.048875704
000080 a2 85 0c 3e a8 5a 1e bd bb cb 93 be fe 34 42 be
       0.13722852 -0.038660675 -0.28866372 -0.18965527
000090 9d d8 e0 3c 87 4b 33 3d 8f 4c 9e bd c4 5e 38 bd
       0.02744704 0.0437732 -0.07729446 -0.04501225
0000a0 23 19 1a be ff bf 1f be 9f 6a c1 3d 32 9e ea 3d
       -0.15048651 -0.15600584 0.094441645 0.114559546
0000b0 03 4e a7 3e ac 1d ce 3c db 8c e8 bd 18 14 83 3d
       0.32676706 0.025160633 -0.11354991 0.06400317
0000c0 57 88 56 bd 91 1e 06 bd fa fc 25 3d 0f f3 66 3d
       -0.052376118 -0.032743994 0.04052446 0.056384142
0000d0 db 95 ac 3e 1f 7f 7c 3e a2 b3 f4 bd e8 d1 8a bd
       0.3370808 0.24657868 -0.11948325 -0.06778318
0000e0 dd 6a f0 bd c5 bc 68 3e 00 1b 48 3c 95 3d 9f bd
       -0.117391326 0.2272826 0.012213469 -0.07775418
0000f0 79 99 10 bd e1 1f 17 be b9 58 7b be 40 83 d9 bc
       -0.035302613 -0.14758255 -0.24545564 -0.026551843
000100 98 0f 6e bd 0a 83 12 bd af f2 5a bd 50 cd 0f be
       -0.05812034 -0.0357695 -0.053454097 -0.14043164
000110 ed d5 1b 3c 91 19 ec bd b7 6a 21 bd 57 b5 da 3d
       0.009511453 -0.11528314 -0.03940841 0.10679119
000120 4f 74 5c bc 2a 6d c8 bd 60 7e 29 be eb fd 17 3c
       -0.0134554645 -0.097864464 -0.16552114 0.009276847
000130 ae f0 97 bd 05 7f 37 3d f8 b4 28 3d 3b e7 23 3e
       -0.07418953 0.04479887 0.04118821 0.16006176
000140 24 bd 88 3d bd 88 90 bd c3 5d 8f bd 47 39 c9 bd
       0.06676701 -0.07057331 -0.070003055 -0.09825378
000150 44 9c ad bd 87 4f c1 bd b5 a1 c1 3c 92 8b 1e bd
       -0.08477071 -0.09438997 0.023636678 -0.038707323
000160 cf 8e 00 3e 3a 71 2d 3e d5 e4 b0 bd d8 ed 0f bd
       0.12554477 0.16937724 -0.08637396 -0.035138935
000170 82 05 9c bd 0b 24 eb bd c8 d2 01 be 0f dd 62 39
       -0.07618238 -0.11481484 -0.12678063 0.0002163539
000180 6f a2 26 bd fd c5 af 3c 48 24 0b 3e da fb e1 bd
       -0.040682252 0.021456713 0.13588059 -0.11034365
000190 0f 13 3f bd 5d 8a 92 bd da b8 f4 3d 97 27 b4 3b
       -0.046649035 -0.07155297 0.1194932 0.0054978835
0001a0 f9 78 4d 3d 5b e9 54 bd 8a 4c 0c bd 6f 7b cb bd
       0.050164197 -0.051980358 -0.03425268 -0.099356525
0001b0 19 49 98 bc f9 ff a6 bd b5 1b e0 bd 46 76 55 bc
       -0.018589543 -0.08154292 -0.10942785 -0.013028687
0001c0 77 17 1f be 37 3c 5f 3d fe 41 db bd 03 5b 9f bc
       -0.15536295 0.054500785 -0.107059464 -0.019452577
0001d0 5e 5e 10 3c c1 20 20 3e c1 47 1e be d3 a5 0f bd
       0.008811561 0.15637495 -0.1545706 -0.03507025
0001e0 0f a7 be bc 2c 34 dc 3d b0 f8 dc bd 24 44 76 3e
       -0.02327302 0.107521385 -0.10789621 0.24049431
0001f0 51 c1 95 3e 4a cb 18 3e f9 a3 34 3e 39 e6 cc 3d
       0.2924905 0.14921299 0.17640676 0.10004849
000200 e2 dd 1f 3d f0 cd 43 3d db 9a 4f 3e 59 c5 5b 3e
       0.039029963 0.04780382 0.20273916 0.21462001
000210 e4 71 01 be c4 f1 91 bd 50 38 1d 3e f6 5e 86 bd
       -0.12641102 -0.07126191 0.15353513 -0.06561081
000220 b2 37 96 bd 12 af a8 bd 24 b4 13 bd f9 19 05 be
       -0.07334842 -0.08236517 -0.036060467 -0.12998189
000230 07 ce 49 3d f4 07 50 bd 8d 6d 94 3c 47 2a e2 3d
       0.04926875 -0.050788835 0.018118644 0.1104322
000240 29 38 fd bc be 04 60 3d 09 ea c5 3d 29 4c 19 3a
       -0.030910568 0.054692023 0.09663779 0.00058478356
000250 15 cd 8f bd 26 4f 78 bd 7b 2d 00 be 8a 0b 0d be
       -0.07021538 -0.060622357 -0.1251735 -0.13773933
000260 b0 d1 4f be 54 39 fc bd 47 67 2b bd ab 2a 3e be
       -0.20294833 -0.12315622 -0.04184654 -0.18570964
000270 8e 3a eb 3c c7 c5 2a 3e 63 4e 4a 3e af bf d1 3d
       0.028714444 0.16677009 0.19756465 0.10241639
000280 96 34 60 bd ce 32 8b be ec 38 d6 3c 45 3a 9a 3d
       -0.05473765 -0.27187198 0.02615019 0.07530645
000290 96 0a ce 3d a3 5d 27 bd 0f ab 0d bd 95 52 fd bd
       0.10060613 -0.040860783 -0.034586962 -0.12369267
0002a0 60 08 d3 bd ca dc 47 be 71 37 b3 bd 11 01 1d bd
       -0.10304332 -0.19517818 -0.08750809 -0.038331095
0002b0 1d 41 b5 3c a1 bb 2e 3d 74 35 66 3c 93 1f 09 3e
       0.022125775 0.042659406 0.01405083 0.13390951
0002c0 f9 27 3d 3d ea 38 f0 3d 51 9e 4e 3d db 59 9f 3e
       0.0461807 0.117296055 0.05044395 0.31123242
0002d0 aa 8f 4c 3e bd f3 4b bc 52 32 19 3b 2c 65 01 be
       0.19976678 -0.012448248 0.002337594 -0.1263625
0002e0 05 ea df bd b4 44 96 be a4 38 1e 3d 59 fd a6 3d
       -0.109333076 -0.2934929 0.038628235 0.08153791
0002f0 4b cd 4d 3d 22 99 f7 3d 6c a4 d1 3c a8 a3 c0 3b
       0.05024461 0.12089755 0.025591098 0.0058788843
000300 05 3b 01 be 2f 56 82 bd 94 ca 63 be 9d 1f ee 3c
       -0.1262017 -0.063640945 -0.22245246 0.029067809
000310 4f f3 97 3d b3 9a f7 3c bb ad f3 bd 7e 77 3e bd
       0.07419454 0.030225134 -0.11898371 -0.046500675
000320 bf 13 14 be 6d 5d de 3d 75 80 20 3e c1 d5 42 3e
       -0.14460658 0.10857663 0.15674002 0.19026853
000330 eb f5 1e 3d 5c 25 5d bc 7d 24 32 bb d0 3b f1 3c
       0.038808744 -0.013497677 -0.0027182393 0.029447466
000340 50 b6 e7 3d 02 fb ad 3c b6 47 09 3d 08 34 85 bd
       0.1131407 0.021237854 0.033515655 -0.06504065
000350 cc 98 44 bd f0 b8 18 be bb 45 25 be 6e 1d 19 be
       -0.04799728 -0.14914298 -0.16139881 -0.14952633
000360 08 e5 3c 3d e2 43 13 3e 9e 9c 3c bc 24 87 91 bd
       0.04611686 0.14381364 -0.01151195 -0.07105854
000370 8c c4 45 be 45 73 4d be 10 3b 21 be 98 d8 f5 bd
       -0.19313258 -0.20063503 -0.15745187 -0.120042026
000380 de be 20 be b8 7c bd 3d 9b 10 65 3d 7c 91 80 3d
       -0.1569781 0.09252304 0.05592404 0.06277749
000390 d1 62 56 bd a2 74 e3 bd 81 ae e6 bd da 2e e3 bd
       -0.052340332 -0.1110623 -0.11263753 -0.110929206
0003a0 17 cc aa bd ad d9 85 bd 2f 76 6a 3d 54 a0 8f 3d
       -0.08339708 -0.06535659 0.057241615 0.07013002
0003b0 85 15 04 3d e3 e1 2d bd 14 b2 03 be 2d 61 dc bd
       0.032247085 -0.04245175 -0.128609 -0.10760722
0003c0 99 52 e1 bd 15 62 d8 bd ed 1a 0b be 02 c6 90 bd
       -0.110020824 -0.10565583 -0.1358449 -0.07069017
0003d0 3d c6 11 be 7b 28 11 3d 75 4f 6f 3d 98 85 c4 3d
       -0.14235778 0.035438996 0.058425386 0.095957935
0003e0 8c 58 39 3e 68 ef 79 3c 7a 16 cc bd be bb ff bd
       0.18100184 0.015254833 -0.099652246 -0.12486981
0003f0 b0 cd 64 3c c6 2e 14 3e 09 03 d8 bb b4 e9 d9 3c
       0.013965055 0.14470968 -0.0065921587 0.026600696

encoder.6.bias f4 [32]
000000 1f 05 dd 3c 4a 25 f8 3d ed eb 39 be b9 fb 9c 3c
       0.026979981 0.12116487 -0.18156405 0.019163
000010 05 6a e7 3c 45 ab f3 3c 17 69 bb 3d 41 f8 19 3e
       0.028248796 0.029744754 0.09150904 0.15036108
000020 49 17 66 be 2f 6e 88 3c 00 1c a2 3c 76 65 75 3c
       -0.2246982 0.016654102 0.019788742 0.014977803
000030 d8 89 c6 bd db 0c 2e 3e d5 39 93 bd a2 8c 10 be
       -0.0969426 0.16997091 -0.07188765 -0.14116147
000040 5f c6 fe 3d 3a f4 dc bb 83 db d5 bd 18 c9 ea 3c
       0.1244018 -0.0067429813 -0.10442259 0.028660342
000050 60 44 9c 3d 32 5e 0a be 6a 5c 57 3d 49 54 22 be
       0.07630229 -0.13512495 0.052578367 -0.15852465
000060 5d ca 64 3d 7c 6c dc bd d3 ee 5b 3e 89 5e 95 bd
       0.05585705 -0.10762879 0.21477823 -0.07293422
000070 2c 7c 8f bc 7b 9e 20 3e 2c ee 84 bc 03 0d 68 3d
       -0.017515264 0.15685456 -0.01622685 0.056653034

bottle_neck.0.conv_block.1.weight f4 [32, 32, 3, 3]
000000 3f c7 6c be d2 0e 0a be 72 c5 4e be 1f 06 6a 3d
       -0.23122881 -0.13482216 -0.20192507 0.057134744
000010 83 7d e2 3a ab f5 4b 3d ec 53 2d bd 1d 46 b6 bc
       0.0017279837 0.049794834 -0.042316362 -0.02225023
000020 f5 c1 0b 3e d0 f6 3a be 42 5c af bd 4d 43 ec 3b
       0.13648207 -0.18258214 -0.08562519 0.0072101713
000030 1d 41 48 be 9e 53 f3 bb aa ea 28 3e 9b f5 73 bd
       -0.19556089 -0.0074257394 0.16495767 -0.0595604
000040 7f bb 8b bd 91 5d a6 3c 49 e1 24 3d 26 94 ae 3c
       -0.068228714 0.020308288 0.04025391 0.021310877
000050 c9 4e 01 bd 1d c6 bc ba 1c 41 5b bd 25 c8 2d 3c
       -0.031569276 -0.0014402304 -0.05352889 0.0106068
000060 ae c3 f9 3d 40 d7 18 3e c4 8b 96 3d 7e af 8f 3d
       0.12195526 0.14925861 0.07350877 0.07015894
000070 b5 90 f6 3c aa 41 08 3d fa c4 2a bd 06 79 39 bd
       0.030098299 0.033265747 -0.041691758 -0.045281433
000080 9b f3 7b be 14 1c b4 bd 60 4f ae bd 28 be 93 ba
       -0.24604647 -0.08794418 -0.08511233 -0.0011271881
000090 12 dd 8f bd b7 83 67 bd 73 2f 81 3d 57 91 25 be
       -0.07024588 -0.056522097 0.06307878 -0.16168724
0000a0 85 28 87 be 16 7e 7c be 95 c9 5d 3a 73 1e 8c 3c
       -0.263981 -0.24657473 0.0008460519 0.017104363
0000b0 45 ad bd bd fa 08 93 bc 42 61 39 bc fd 2c 9f bd
       -0.09261564 -0.017948616 -0.011314692 -0.07772253
0000c0 7e 56 42 3e c6 93 3f 3e 94 a0 18 3e e7 7f 94 3d
       0.18978307 0.18708715 0.14905006 0.07250958
0000d0 12 b2 3e 3d ca 03 82 bd a8 17 d8 bc 37 07 0d bd
       0.04655654 -0.06348379 -0.026378468 -0.03443071
0000e0 cf be 30 3e ce 96 18 be 54 05 09 be e8 e2 54 be
       0.17260288 -0.14901277 -0.13380939 -0.20789683
0000f0 1e e5 89 bd 7b f2 41 3c d3 0e 0d be e7 c4 80 bd
       -0.06733154 0.011837597 -0.13775186 -0.06287556
000100 f1 f0 8b bd 00 52 7a 3d 36 b5 95 bd c4 9c 5a bc
       -0.06833065 0.061113358 -0.07309954 -0.01334304
000110 22 18 3d 3e 5f 2d c9 3d 4d 15 b1 bc 02 b3 3d 3e
       0.18466237 0.09823107 -0.021616602 0.18525317
000120 a7 63 d5 3c 79 40 ea 3d 9b 86 b1 3d b2 30 a8 3d
       0.026048495 0.114380784 0.08668252 0.08212413
000130 63 6c 4c be 38 5e 4f 3e 94 b6 a6 3d 58 63 45 be
       -0.19963221 0.20250785 0.08140293 -0.19276178
000140 12 00 41 be a7 25 43 3d 9c 5f be 3d 32 ae 35 3e
       -0.18847683 0.04764333 0.0929558 0.17742231
000150 e0 a7 88 39 15 5f d2 bd 6e 15 53 3e c4 89 2e bd
       0.00026065018 -0.10272042 0.20613644 -0.042611852
000160 c1 d9 fd bd bb d1 b5 bd 6b f2 86 3d 70 46 6d 3e
       -0.12395049 -0.088778935 0.06589206 0.23171401
000170 94 33 5d be 6b cf 85 bd 35 97 91 3d 6e 49 e2 3c
       -0.21601707 -0.065337025 0.071089186 0.027622905
000180 e9 ed de 3d d2 2d 48 3e 0e 82 61 3e 39 ed bd bd
       0.108852215 0.19548729 0.22022268 -0.09273762
000190 f6 2a 91 bd b1 8c 2d be 82 49 97 bc ce 5b 6b 3e
       -0.07088272 -0.16948201 -0.018467668 0.2298424
0001a0 e8 e5 6a 3e 1d f6 96 3d a7 29 d3 3b ae 8a 54 3e
       0.22939265 0.07371161 0.0064441743 0.20756027
0001b0 f5 3f a3 3d 81 c5 ba bd 7d c0 bf 3c 46 89 80 bd
       0.07971183 -0.09119702 0.023407215 -0.06276183
0001c0 ce 22 15 be fe c7 63 bd 77 5c 2a 3b 17 46 8b bd
       -0.14564058 -0.05561065 0.0025995055 -0.06800478
0001d0 d6 97 11 bb 93 3c 4d be 03 5e 22 be 48 f9 08 be
       -0.0022215745 -0.20042638 -0.15856175 -0.13376343
0001e0 bb 20 f8 3d 75 0b 67 3e ec 33 bd 3c 0e 50 3b bd
       0.12115618 0.22562964 0.023096047 -0.045730643
0001f0 dd 1e d1 3d ab 47 d4 3d 89 4f 07 3c 5a 92 a5 bd
       0.10210965 0.10365232 0.008258709 -0.08084555
000200 9f 9b 8b 3d ae 8d 9a be 09 fb 51 3b 46 9b 1f bd
       0.06816792 -0.30186218 0.0032040498 -0.03896644
000210 ae 45 0a 3e b2 8d 0d 3e 1f 5b 60 3d bc 29 e4 bc
       0.13503143 0.13823584 0.0547744 -0.027851932
000220 7a d7 2d bd ee 15 13 3c f7 ac d8 3d 85 8f d6 3c
       -0.042441823 0.008977396 0.105798654 0.026191482
000230 32 78 88 3d 59 e0 a2 bc 40 c8 b7 bd bc 62 71 bc
       0.066635504 -0.019882368 -0.089737415 -0.014733013
000240 70 2a 4c 3d 4a 42 ff 3c e4 f5 02 be ae 53 26 be
       0.04984516 0.031159539 -0.12789112 -0.16242859
000250 c3 24 06 3d c1 f3 08 3e bb cd 41 3c c0 35 07 3e
       0.032749902 0.13374235 0.011828835 0.13204098
000260 92 60 46 3e 50 82 88 3d 46 59 79 3d 9a a1 2e 3e
       0.19372776 0.0666548 0.060876153 0.17053834
000270 98 fb aa bd 0f fe 08 be 59 38 48 be fa e8 08 be
       -0.08348769 -0.13378166 -0.19552745 -0.13370124
000280 39 73 af bd 35 5e aa bd c9 d2 08 3d 1f ba 26 3d
       -0.08566899 -0.0831875 0.033404145 0.040704843
000290 4b 70 bd be 9b 55 8d 3d 94 2a 4e 3e f1 33 3e 3e
       -0.36999735 0.069010936 0.2013343 0.18574502
0002a0 48 7e ed 3d cd bd 8d 3d 05 38 1e 3e 13 a8 d1 bb
       0.11596352 0.06920967 0.15451057 -0.00639821
0002b0 ba c4 2e 3d 6b 65 06 3d 39 11 8e 3d 0e 19 21 be
       0.04266808 0.032811563 0.06936879 -0.15732214
0002c0 0a 48 e4 3d c8 55 1e 3e 9f df 90 bd 2e 86 3d bd
       0.11146553 0.1546241 -0.07073902 -0.04627054
0002d0 4f 31 3f 3d 18 f6 89 3d 7d 7f 26 3e 96 ba 18 be
       0.046677884 0.06736392 0.1625957 -0.14914927
0002e0 03 a7 80 bc 25 89 c7 bd 54 7d 37 3d 2d 1a 68 3e
       -0.015704637 -0.09742955 0.044797257 0.22666235
0002f0 0c 62 6d 3e 28 1a 2e 3d 8e dc 81 3d e4 7a e6 3d
       0.23181933 0.042505413 0.063408956 0.11253908
000300 e6 3d 12 be 7c 80 de be 37 73 78 3d 5a 92 8e 3c
       -0.14281425 -0.434574 0.060656752 0.01740377
000310 eb a7 c7 3c 58 29 2d be a3 86 ab bb a9 7d fb 3c
       0.024372062 -0.16910303 -0.005234556 0.030699568
000320 f3 ac dc bb ff 55 0e 3e 99 66 42 3d 7c 1d 53 be
       -0.0067344843 0.13899992 0.047461126 -0.20616716
000330 a6 5b 86 bd 63 62 b4 bb c2 11 21 3e cb 7d 1b 3e
       -0.06560449 -0.0055048927 0.1572943 0.15184705
000340 96 77 62 3c 7b 89 51 bd 72 7f 6d be 79 b3 46 be
       0.013822457 -0.051156502 -0.23193148 -0.19404401
000350 1b 6c 79 3c 6c 05 e3 3d a8 ea 32 3e 68 68 b6 bd
       0.015223528 0.110850185 0.17472327 -0.08906633
000360 32 7d 0b bc 36 bc c8 bd 94 7f 2c bd d8 4f 83 bc
       -0.008513736 -0.098015234 -0.042113855 -0.016029283
000370 a6 b1 7f be 56 b9 35 be ec aa 0f 3d e5 8f aa bd
       -0.24970111 -0.17746481 0.035075113 -0.08328227
000380 eb fc 1d be 4b e0 f2 3d 90 60 6b bb 43 2f 94 3e
       -0.15428512 0.11859187 -0.003591571 0.28942308
000390 03 98 b0 bc f5 13 2b be f9 12 ad 3d 27 fb 4f be
       -0.02155686 -0.16706832 0.08450884 -0.20310651
0003a0 50 ae 30 be 63 4a 90 bd 00 be 27 bd af 44 52 bd
       -0.17253995 -0.07045438 -0.040952682 -0.051335033
0003b0 67 29 b6 3d 6f 43 44 3e 00 a8 ac 3c c8 c7 10 bd
       0.088946156 0.19166349 0.021076202 -0.035346776
0003c0 0c 62 33 bd 97 fe c8 bd 22 53 a8 bc 88 c4 15 3e
       -0.043794677 -0.09814184 -0.020547453 0.14625752
0003d0 62 4f 2f 3e 64 b1 d2 3b aa 1f 45 3e f8 79 71 3b
       0.17120126 0.006429838 0.1925036 0.003684638
0003e0 13 0a 1e 3d 29 28 d8 3d d7 5e 49 bd 58 3e 3b 3c
       0.038583826 0.10554535 -0.049162712 0.011428438
0003f0 2f 85 b4 3a 0c f1 42 be 5e a8 82 bd 1b 73 d3 3c
       0.0013772602 -0.19037265 -0.0637977 0.025811723

bottle_neck.0.conv_block.2.weight f4 [32]
000000 08 62 92 3f 47 fe 92 3f fd 28 6d 3f d3 70 70 3f
       1.1436167 1.1483849 0.9264067 0.93922156
000010 d9 02 70 3f b0 8a 6b 3f 8e 79 73 3f 30 a5 76 3f
       0.93754345 0.92008495 0.9510735 0.96345806
000020 79 bf 73 3f f3 79 80 3f cc bb 77 3f 23 23 6e 3f
       0.9521404 1.0037216 0.9677093 0.93022364
000030 5d 27 5d 3f 77 05 7a 3f 83 16 75 3f cb 76 8c 3f
       0.8638819 0.9766459 0.95737475 1.0973753
000040 ea cf 75 3f 28 83 86 3f 6e 53 56 3f fe b3 85 3f
       0.96020377 1.0508776 0.83721054 1.0445554
000050 6c c9 7b 3f 38 de 87 3f fd e2 89 3f 8f a6 84 3f
       0.9835422 1.0614691 1.0772396 1.036333
000060 fc 56 86 3f 09 fc 80 3f ec 0c 5a 3f 59 42 6e 3f
       1.0495296 1.0076915 0.8517597 0.9306999
000070 32 68 84 3f c1 9e 84 3f 74 26 84 3f cc bd 70 3f
       1.0344298 1.0360948 1.0324235 0.9403961

bottle_neck.0.conv_block.2.bias f4 [32]
000000 29 da 97 bd 76 2f f2 bd 8b c6 99 be 4a 67 68 be
       -0.074146576 -0.11825459 -0.3003429 -0.22695652
000010 9a d8 52 be 61 dc 8b be da b1 9e be dd 9d b1 be
       -0.2059044 -0.27316573 -0.30995065 -0.34690753
000020 2f dd 87 be ed f9 41 be 4e 0f cf be 8e 5b 17 be
       -0.26535937 -0.18942995 -0.40441364 -0.14781019
000030 81 df 90 be 77 bb 69 be 8e 01 89 be 04 4c a8 be
       -0.2829552 -0.22825418 -0.26759 -0.32870495
000040 28 2f 90 be dc 4e 57 be 63 55 64 be df e1 99 be
       -0.28160977 -0.21026176 -0.22298197 -0.30055138
000050 dd 04 91 be bf c8 9e be 54 5e 46 be c5 98 38 be
       -0.28324023 -0.31012532 -0.19371921 -0.18027027
000060 28 cc 57 be 41 4c 97 be 0b 9b b4 be a5 13 cb bd
       -0.21073973 -0.29550365 -0.35274538 -0.09915856
000070 fe ff 3a be 3c 18 69 be ed 41 c6 bd 59 69 8d be
       -0.18261716 -0.22763151 -0.09680543 -0.27619436

bottle_neck.0.conv_block.2.running_mean f4 [32]
000000 39 4e a5 bf 0b e5 e0 3e 7c ad 4e bf 26 99 87 3f
       -1.2914497 0.43924746 -0.80733466 1.0593612
000010 e4 c7 1f c0 f6 1f 44 bf 67 9a 1f bf 06 73 25 3f
       -2.4965754 -0.7661127 -0.62344974 0.64628637
000020 f9 36 e3 be 5e 56 b4 be 61 7b 65 3f a2 2b 3e c0
       -0.44377878 -0.35222143 0.89641386 -2.9714131
000030 d4 9f e1 3e e3 2a f5 3f bd ef 00 bf 25 82 c1 3e
       0.44067252 1.9153713 -0.5036581 0.37794605
000040 7b d7 13 bf 4a cc 7c bf 2e 52 9b 3e fc 4a 1f 3e
       -0.5775067 -0.9874922 0.30336136 0.15555948
000050 eb 59 2b bf f4 18 ab bf d8 89 04 3e a2 e7 97 3f
       -0.6693408 -1.336699 0.12943208 1.1867564
000060 23 67 b0 be 50 38 bf be 28 ae a5 3e fa 28 51 bf
       -0.34453687 -0.3734765 0.32359433 -0.8170315
000070 85 7b 34 be 78 2c cc bf e3 73 d2 3e 07 0c b4 bf
       -0.17625244 -1.5951071 0.4110404 -1.406617

bottle_neck.0.conv_block.2.running_var f4 [32]
000000 0b 33 e2 40 40 67 fe 40 f8 95 dc 40 95 09 16 41
       7.068731 7.9501038 6.8933067 9.377339
000010 3c b9 08 41 07 bd c9 40 be 0e f8 40 99 f0 d5 40
       8.545223 6.3043246 7.7517996 6.68562
000020 c4 cb d7 40 e9 51 b8 40 66 d1 fe 40 f7 33 07 41
       6.7436237 5.759999 7.9630613 8.450187
000030 2c b4 a6 40 7b ac 00 41 54 33 9d 40 01 0e 17 41
       5.2094936 8.0421095 4.9125156 9.440919
000040 ad b1 a4 40 d0 cf fb 40 53 df da 40 6c 5e fd 40
       5.146689 7.8691177 6.8397613 7.917776
000050 25 d6 e9 40 b9 39 9c 40 a5 ca ac 40 8b 40 ee 40
       7.3073907 4.882046 5.399737 7.445379
000060 c3 71 9d 40 56 b6 d8 40 6f 43 99 40 7c 3a f1 40
       4.920137 6.772258 4.7894816 7.538389
000070 27 ed a8 40 4c 69 00 41 b9 21 dd 40 80 9f ec 40
       5.2789493 8.025707 6.9103665 7.39447

bottle_neck.0.conv_block.5.weight f4 [32, 32, 3, 3]
000000 9a be 95 3d e7 40 0d 3c 13 b0 36 bd fc 1f 13 3e
       0.07311745 0.008621431 -0.04460151 0.1436767
000010 da 79 27 3e 23 8e 60 3e e7 34 32 bd d4 b1 04 3d
       0.16355076 0.21929221 -0.043507483 0.032396153
000020 85 e4 cb 3d 10 a9 29 bd 00 40 7f bd d4 52 b2 bd
       0.09955696 -0.041420996 -0.062316895 -0.087072045
000030 bd 9e 91 3b 64 d9 2b be 23 4d 6c be fa 81 49 3e
       0.004443972 -0.16782147 -0.230763 0.19678488
000040 2b 27 bc 3d f0 5f 19 be 5b cc a2 bd 5e 4c 89 bc
       0.09187158 -0.14978004 -0.07949134 -0.016760048
000050 e0 b5 0a bb df 71 a1 3d c8 ec e2 bc b9 66 66 bd
       -0.0021165535 0.07883047 -0.027700797 -0.056250308
000060 69 bf 41 be bb 8e 8f bd e3 21 d8 bd 58 99 ac b8
       -0.18920673 -0.070096456 -0.105533384 -8.2301616e-05
000070 5e bd d8 bd b5 fd 95 be d8 08 89 bd cf 2a b5 bb
       -0.10582994 -0.29295126 -0.0669114 -0.005528785
000080 b6 13 a9 3d aa fb 22 3e f3 dc 11 bd 0d 80 6a be
       0.08255713 0.15916315 -0.035611104 -0.2290041
000090 37 f3 8e 3d 55 da 2f 3b bc 70 f3 3d fa 97 ff 3d
       0.06979983 0.0026833017 0.11886737 0.12480159
0000a0 ec b0 f0 bd b7 25 d8 3d 31 e1 9e 3d 5b bb db bb
       -0.11752495 0.105540685 0.077577956 -0.006705684
0000b0 61 42 18 3b 4a 47 af 3d 47 2e 69 bd bc 13 64 be
       0.0023232924 0.08558519 -0.0569289 -0.22273153
0000c0 b2 0f 03 3e af 08 28 3d 21 60 0a 3e d4 74 40 3c
       0.12798956 0.041023906 0.13513233 0.011746604
0000d0 d4 4a a9 3d 99 13 1b bd 62 18 17 bc d3 95 0a be
       0.082662255 -0.037860487 -0.009222122 -0.13533716
0000e0 3e 67 6d be 0f 1b 15 be 43 80 4e bd 29 69 a4 bd
       -0.23183915 -0.14561103 -0.05041529 -0.0802787
0000f0 c2 4f cd 3d dd 62 ef 3d a9 5a 9b bd e8 21 e3 bd
       0.10024978 0.116887785 -0.075856514 -0.110904515
000100 b5 43 16 bd 5e 33 7e bc c6 db f7 3c 25 ad 52 bd
       -0.036685664 -0.015515177 0.030256163 -0.051434655
000110 49 f5 d7 bd 50 f9 f4 bd 36 d9 23 be 95 bd 94 3b
       -0.10544831 -0.11961615 -0.16000828 0.0045392015
000120 27 dc 9b bd d3 60 a7 bd cd 6c 37 bd d4 96 00 be
       -0.0761035 -0.08172765 -0.044781495 -0.12557536
000130 18 ee 68 3d 93 41 9d bc 0b a9 ed bd ed 77 02 3e
       0.05686769 -0.019196307 -0.11604508 0.1274106
000140 42 db e3 bd 3b f4 97 bd 84 16 f9 3d 6a 29 82 3d
       -0.111258045 -0.0741963 0.12162498 0.06355555
000150 6d 9c 42 3e c0 d9 60 bd d8 de 01 be 47 61 8e bd
       0.19004984 -0.054895163 -0.12682664 -0.06952148
000160 08 13 3a 3e 49 83 e2 bd 7d f9 8c be ad 68 fc 3c
       0.18171322 -0.11060197 -0.27534094 0.030811632
000170 b5 22 e8 bd ce e1 45 3d 09 02 a0 bb ba a8 ef bd
       -0.11334745 0.048311047 -0.004883055 -0.11702104
000180 87 1f 00 be e3 a6 d2 3c 28 8e 2d be 2c a2 7a 3d
       -0.12512027 0.025714343 -0.1694876 0.061189815
000190 9c e9 7e 3d f3 fd d8 3b 48 b3 c7 3d 30 71 05 3e
       0.062234506 0.00662207 0.09750992 0.13031459
0001a0 5c c5 04 3e 91 b1 49 be 48 e7 e3 3c 4d 81 b8 3d
       0.12965912 -0.19696642 0.027820244 0.09009037
0001b0 da 22 2b bc 1a fd f2 bd c5 c7 9c 3c ab 0a a8 3c
       -0.010445321 -0.118646815 0.019138226 0.0205129
0001c0 f8 91 c9 3d cc df be 3d a9 71 02 bd fc 7e f8 3d
       0.098422945 0.093200296 -0.031846676 0.12133595
0001d0 9b d8 48 be 3b be 8e bb 62 72 1d 3e 11 0f 07 be
       -0.19613878 -0.0043561733 0.15375665 -0.13189341
0001e0 f5 7c 7e 3d 35 19 8c bc 0f 7a e7 bc bf 2e 3a 3c
       0.062130887 -0.017101863 -0.028256444 0.011363684
0001f0 30 70 f2 3d cd 2a e3 bc cf d8 07 3d 09 fb 00 be
       0.11837804 -0.02773037 0.03316575 -0.12595762
000200 f3 63 59 3c 04 14 41 bd 0a b9 7c be 82 c6 30 be
       0.013268459 -0.04713823 -0.24679962 -0.17263225
000210 2d 44 10 3e ff 44 9b 3e 65 ab 0f bb 8a e0 0f be
       0.14088507 0.30326077 -0.0021922227 -0.14050499
000220 da b5 b7 bd b5 e4 5c be cf b6 39 be c9 07 ed bd
       -0.08970232 -0.2157162 -0.18136142 -0.115737505
000230 45 d1 e3 bd 29 07 34 bb e4 18 8e 3d e2 4c a4 bc
       -0.11123899 -0.0027470088 0.06938341 -0.020056192
000240 b3 22 51 bd 7d 9e 0a bd 29 e4 1e 3e 25 f9 f3 3d
       -0.051058482 -0.033842552 0.15516724 0.11912755
000250 5e 26 fa 3d 3c f3 9c bd 35 78 e5 3d 1f 78 40 bd
       0.12214349 -0.07663581 0.11204568 -0.046989556
000260 ea f2 01 3e b0 51 66 3e a3 1e 4e bd 80 e5 1b be
       0.1269032 0.22492099 -0.050322186 -0.15224266
000270 ee 63 37 3d 82 b2 ab be 82 9e 97 bd 2b 81 2f bd
       0.044773035 -0.33534628 -0.0740328 -0.042847794
000280 4e 7f 6b 3e f5 c1 c7 3c 7d 7d da 3d 9d bb 05 bd
       0.22997782 0.024384478 0.10668466 -0.032649625
000290 ae d9 cb 3d 12 de 95 bc cb ce c3 bd 89 f4 eb bd
       0.099536285 -0.018294368 -0.09560927 -0.11521251
0002a0 c6 5b 42 3e af c7 75 3e 7d fd 50 3c 54 d6 58 bd
       0.18980321 0.24001954 0.012755749 -0.052938774
0002b0 fb 70 d2 bd 6a bc 42 be af ac 6b bb ef 97 8c be
       -0.102754556 -0.19017187 -0.0035961082 -0.27459666
0002c0 6a b9 08 be 7a 5d 95 3d 8a 4a dd 3d cf 3f 15 3e
       -0.1335198 0.0729322 0.10805233 0.14575122
0002d0 88 de d2 3d ae 43 f8 bc 57 bb 81 bd ea cf 30 be
       0.10296351 -0.03030571 -0.0633456 -0.17266813
0002e0 2b b1 fe bb 0f 8a a7 3c f7 22 18 3e c3 fe a4 3d
       -0.007772585 0.020451574 0.14857088 0.080564044
0002f0 87 69 13 3e d7 4d 99 bd 23 a4 e9 3d 3e 5d d5 bc
       0.14395724 -0.0748555 0.1140826 -0.026045438
000300 b3 e0 86 3d 33 98 e7 bb 2b e7 0f be 4b c1 94 3c
       0.06585827 -0.007067704 -0.14053027 0.018158576
000310 4c 42 fa 3d d4 47 8f bd 6f 5f 1d be c9 2c 27 be
       0.122196764 -0.06996122 -0.15368436 -0.16325678
000320 38 e6 d1 3d ca 01 05 be 68 39 ce bd cf a8 56 3d
       0.10248989 -0.12988964 -0.10069543 0.052407082
000330 9d fa 83 3e cb 7e 1d 3d 03 2b e0 3c 16 53 18 3e
       0.2577714 0.038450997 0.02736426 0.14875445
000340 d1 25 9a bd db 6e a9 bd 80 e0 02 bd 5a 62 89 be
       -0.07526744 -0.08273097 -0.03195238 -0.2683285
000350 d9 98 73 be a3 34 18 3e 0e e3 c9 bc 23 80 ef bd
       -0.23788776 0.1486383 -0.0246444 -0.11694362
000360 50 d7 93 3b 9e 90 4c 3e 79 9e f1 bd 8e 81 d4 bd
       0.0045117512 0.19977042 -0.117978044 -0.10376273
000370 63 4b f9 bd 77 52 02 bd d0 d8 a0 3d b5 1b e2 3d
       -0.12172582 -0.031816926 0.07853854 0.11040441
000380 0e 32 4c 3e 56 4d ca 3d 8a 75 e1 3b 2f 1b 98 bd
       0.1994097 0.09878032 0.006880467 -0.0742706
000390 41 08 20 3e 0c ed a7 bd 12 9e 39 bd 81 62 f9 bd
       0.15628149 -0.0819951 -0.045316763 -0.12176991
0003a0 30 1a 4e bd 82 05 c2 3d 21 5a 0b be c3 ef 04 bb
       -0.050317943 0.09473707 -0.136086 -0.002028451
0003b0 b6 96 6d 3d 4c 3e 06 3d 10 de af 3c a3 7e fc 3d
       0.058005057 0.032774255 0.021468192 0.123288415
0003c0 c0 a6 6d bd 8d 2d 5d 3c 81 cc 77 be 81 8c eb 3c
       -0.058020353 0.01349963 -0.24199106 0.02875352
0003d0 8a e4 13 bd 10 75 60 3d 8e 16 58 bd ed 0a 28 3e
       -0.036106624 0.05479914 -0.052755885 0.16410418
0003e0 9b 5b 27 3e 35 6f 99 3d da 14 02 bc 41 df 29 bd
       0.16343538 0.07491914 -0.007939542 -0.041472677
0003f0 c2 08 b6 3d 8c 63 7a bb 8e 30 53 bd e9 ba 02 bd
       0.08888389 -0.0038206307 -0.051559977 -0.031916533

bottle_neck.0.conv_block.6.weight f4 [32]
000000 17 f3 63 3f 70 7f 64 3f a6 9a 36 3f 15 4b 72 3f
       0.890428 0.89256954 0.71329725 0.94645816
000010 d5 75 4b 3f d1 16 71 3f aa 4b 59 3f 50 5c 63 3f
       0.7947667 0.9417544 0.8488108 0.8881273
000020 93 ad 81 3f 7a 4a 87 3f 43 3f a5 3f ba 98 82 3f
       1.0131096 1.0569603 1.2909931 1.0202858
000030 57 5c 80 3f 2f 6f 53 3f e4 a9 56 3f 22 2e 87 3f
       1.002818 0.8259153 0.8385298 1.0560954
000040 07 92 59 3f 17 54 83 3f ed 7e 67 3f c3 2f 73 3f
       0.84988445 1.0260037 0.9042805 0.94994754
000050 f8 18 8c 3f a8 1a 55 3f ab e9 73 3f 18 81 6f 3f
       1.094512 0.832438 0.95278424 0.93556356
000060 1b 6c 83 3f 11 76 8a 3f f7 52 8a 3f 33 c3 6b 3f
       1.0267366 1.0817281 1.0806569 0.92094725
000070 da 64 54 3f 09 d4 8d 3f b4 66 60 3f 2e 63 76 3f
       0.8296639 1.1080333 0.8765671 0.96245086

bottle_neck.0.conv_block.6.bias f4 [32]
000000 a1 79 8a bd 7c bd ae 3c b4 2a 91 3c cb 34 02 bd
       -0.0676148 0.021330588 0.017720558 -0.03178863
000010 21 6d 80 3a 53 1e db bd a0 e8 b0 bd 1a b0 32 bc
       0.0009798148 -0.10699143 -0.0863812 -0.010906244
000020 6b 88 3b bd 68 ef 9b 3b d4 87 b8 3d cf 5d c3 bc
       -0.045784395 0.004758764 0.09010282 -0.023848442
000030 1f 0c 12 bc e6 b0 66 bd 79 93 eb bd 0b 92 ae bd
       -0.008914023 -0.056321047 -0.115027376 -0.08523949
000040 a0 ef 4a 3c ef 83 30 bb 68 07 3c 3c 65 57 6e bd
       0.012386233 -0.0026934107 0.011476375 -0.058188815
000050 71 32 d2 bc 81 99 29 bd 5f 91 da 3d bb 1d cb 3c
       -0.025658818 -0.04140616 0.106722586 0.02479445
000060 0f 17 35 3d 25 8f da 3b 6e 75 41 bd 2d 7c 2a 3d
       0.044211444 0.006669896 -0.04723113 0.04162233
000070 5a 75 fa bc 6a dc 58 bd 5f 95 00 be 53 ae a4 bd
       -0.030573536 -0.05294458 -0.1255698 -0.08041062

bottle_neck.0.conv_block.6.running_mean f4 [32]
000000 32 0a 2f bd d5 a9 89 3d f2 72 cb bf d2 40 78 bc
       -0.042734332 0.06721846 -1.5894454 -0.015152173
000010 40 81 41 3e 3e 8d 2c 3e 8b e5 b5 3f 4b 39 3c 3e
       0.18896961 0.16850755 1.4210676 0.1838123
000020 0f 09 34 3f 91 57 f6 3f 72 e0 82 bf c9 94 33 bf
       0.7032632 1.9245473 -1.0224745 -0.70148903
000030 f0 2e 69 bf 61 2c 92 3f e3 57 44 bf c9 4e 46 bf
       -0.91087246 1.1419793 -0.76696604 -0.77463967
000040 7b 7e 45 be 9b 2b fe 3f ff 9c 48 be c0 aa 7b 3f
       -0.1928653 1.9857057 -0.1959114 0.9830742
000050 e3 11 c0 be 72 30 dd 3e 24 64 8a bf bc 21 2b 3e
       -0.37513646 0.43201023 -1.081181 0.16712087
000060 22 2a a5 3e 83 ac 42 3e 03 fe ad bf d7 87 58 be
       0.32258707 0.1901112 -1.3593143 -0.21145569
000070 7b 96 eb 3e ec e6 aa be b4 c5 89 3f 67 e9 07 bf
       0.46013245 -0.33379304 1.0763459 -0.5309052

bottle_neck.0.conv_block.6.running_var f4 [32]
000000 96 04 3a 40 b8 b6 75 40 e6 92 3a 40 ad cb 23 40
       2.90653 3.8392773 2.915216 2.5593064
000010 97 bb 25 40 27 ec 08 40 ee f3 37 40 1a aa 0e 40
       2.5895746 2.1394136 2.8742633 2.2291322
000020 a4 5f 0b 40 87 c9 25 40 6f 98 06 40 b1 7a 1e 40
       2.1777124 2.5904253 2.1030538 2.4762385
000030 80 2a 04 40 91 4b 45 40 a4 77 63 40 08 74 08 40
       2.065094 3.0827372 3.5541773 2.132082
000040 96 92 4b 40 24 fd 20 40 4b 9e e6 3f 96 d6 53 40
       3.180822 2.5154505 1.8017057 3.3099723
000050 2b 7e ed 3f 77 3e 3e 40 7a 40 1b 40 15 10 25 40
       1.8554128 2.9725626 2.4258103 2.5791066
000060 4a 2f 11 40 0c df 1e 40 d9 f5 18 40 de 9c 2e 40
       2.2685113 2.4823637 2.3900054 2.7283244
000070 54 f3 46 40 49 c6 bd 3f 73 9d 20 40 c6 d3 32 40
       3.1086016 1.4826137 2.50961 2.7941756

bottle_neck.1.conv_block.1.weight f4 [32, 32, 3, 3]
000000 a8 88 1d bd bb 9d 5d 3e f0 98 2c 3d 41 71 13 be
       -0.038460404 0.216422 0.04213804 -0.14398672
000010 08 a7 84 bd bb 8a 03 be cd 1c f1 bc cd e0 d3 3d
       -0.06477171 -0.1284589 -0.029432679 0.10345612
000020 a6 8a c6 bc 0d 6b b4 bc 9d 22 ea bd 02 df 99 bd
       -0.024236035 -0.022023702 -0.11432383 -0.075132385
000030 3e c1 87 bd 1e f0 94 3d b5 b8 99 3d 08 aa 99 3c
       -0.06628655 0.07272361 0.07505933 0.018757835
000040 30 00 e6 3c ec dc 2d bd f0 de 91 bd ec dd cf bd
       0.028076261 -0.042447016 -0.071226 -0.1014975
000050 75 1c 1c 3d e5 fb 65 3e 5b cf 49 3d c5 dd 74 3e
       0.038113076 0.22459371 0.049270015 0.23912723
000060 b9 ee bc bd 69 ef 1b 3d 1a 9c 1d 3d 24 f5 5b be
       -0.0922522 0.038070116 0.03847895 -0.21480232
000070 80 9d 21 3c 92 fd c8 3d 8d 45 cf 3d c3 6f eb 3d
       0.009864211 0.0981399 0.10120688 0.11495926
000080 e1 8a 95 3d 37 bc bf bc 06 be b1 bd 6c 89 40 bd
       0.0730188 -0.023405178 -0.08678822 -0.047006056
000090 3f 39 56 3c 62 76 21 be c1 f2 aa be 18 15 0f 3e
       0.013075172 -0.15767816 -0.33388332 0.1397289
0000a0 08 bd c3 3d 0d 6c 56 3e 9a 19 73 bd 2b 68 66 3d
       0.09557539 0.20939656 -0.059350587 0.056251686
0000b0 7c 66 5f be 80 5b 02 3e c4 89 3a be ad c3 0e be
       -0.21816438 0.12730217 -0.18216616 -0.13941832
0000c0 52 29 54 bc 04 3f 9c 3c 67 74 e1 3d 64 19 45 be
       -0.012949305 0.019073017 0.1100853 -0.19247967
0000d0 13 a2 23 3d c3 af 74 bd e6 ab 79 bd da c8 76 3c
       0.039949488 -0.059737932 -0.06095495 0.015062535
0000e0 c0 a0 4f be cb fa 28 3d 2b 66 2f 3e 3d 2e c5 3c
       -0.20276165 0.0412548 0.17128818 0.0240699
0000f0 ad 7b 15 3e 7b e7 17 3e 16 cf 0b be f3 c8 99 bc
       0.1459796 0.14834397 -0.13653216 -0.018772578
000100 33 84 d9 3c 75 3e 1c 3d 45 a5 83 be 32 45 5c 3d
       0.026552295 0.0381455 -0.25712028 0.053776927
000110 67 69 a8 be fd 94 63 bd 5b c5 75 3d 2c d4 9a 3d
       -0.32892916 -0.05556201 0.060002666 0.0756
000120 43 f6 5c bd 4f 32 a1 3d 48 ff 4f be cf b5 35 3e
       -0.05394579 0.07870924 -0.20312226 0.17745136
000130 89 67 58 3e f2 43 43 bd 62 cf 2c 3e 5f 53 a6 bd
       0.21133246 -0.04767222 0.16875985 -0.081213705
000140 5b 63 8b 3c 32 89 f9 ba b2 f4 ec 3d 59 0d 7e 3e
       0.01701515 -0.001903808 0.115701094 0.24809779
000150 fc 4a 81 bc 09 03 80 3e e5 53 06 bd 86 04 8a bd
       -0.015782826 0.25002316 -0.03279485 -0.06739144
000160 d1 ea e2 bd 5c f4 93 3e fa 96 60 3d 48 16 5f 3e
       -0.11079944 0.2889737 0.054831482 0.21785843
000170 bf f0 ef 3d 41 f4 16 3e a8 bd d3 bd fc 9d 89 3b
       0.117158405 0.14741613 -0.103389084 0.0041997414
000180 aa 44 02 3e ed f7 70 3e ea 2b 6e 3e 83 60 ee 3b
       0.12721506 0.23532076 0.2325894 0.0072746887
000190 c7 8e 87 bd 38 bd 78 3d 58 08 ea bd c0 d4 cf bd
       -0.066190295 0.060727328 -0.11427373 -0.10148001
0001a0 89 52 88 bb f0 36 55 be c0 89 ae bd cf 0e 05 bd
       -0.0041602296 -0.20821738 -0.085223675 -0.032484826
0001b0 d1 6b 28 3d 06 29 a3 3a 82 a4 d3 3d 5d ac c9 3d
       0.041118447 0.0012448139 0.10334112 0.09847329
0001c0 ce 5c 95 3d d1 a7 3a 3e 5e ec b9 bc 0c b8 d0 3d
       0.07293092 0.1822808 -0.022695716 0.10191354
0001d0 38 0e 2a bc 3a 08 73 bd 01 ed 39 bc f2 8f 44 3d
       -0.010379367 -0.059334017 -0.01134801 0.04798884
0001e0 de 62 b9 bc aa fa 25 3d 10 d3 82 be c3 61 60 3d
       -0.022630151 0.040522255 -0.25551653 0.054780733
0001f0 0a 1e aa 3b 0e 80 0e 3e 52 62 14 be f2 e2 c2 3c
       0.005191569 0.13916036 -0.14490631 0.023789857
000200 b0 2b a6 bb 58 f1 8e bd 80 68 bd bb 4c 62 b9 bd
       -0.005071126 -0.069796264 -0.0057802796 -0.09051952
000210 ba 73 83 bd b7 7a a2 bd f4 b8 d8 3d 93 7f 25 3e
       -0.064185575 -0.07933562 0.10582152 0.16161947
000220 2b d6 2b 3e cb ea 1e bd 54 17 54 3c 94 8a 21 be
       0.16780917 -0.038798135 0.012945015 -0.1577552
000230 6d 2f 0c be 17 0f 33 3d b2 ab c2 3c a6 6d 80 be
       -0.13689966 0.043715563 0.023763511 -0.25083655
000240 d1 e7 1b be 93 b7 4f bd d5 eb 49 3e 5c 04 2d be
       -0.1522515 -0.05071218 0.19718869 -0.16896194
000250 70 8a 16 3d 15 68 5b be 74 dc 7b bc 0f 2d 3a be
       0.036753118 -0.21426423 -0.015372384 -0.18181251
000260 b5 8f cb 3e 07 85 05 bc 14 62 fa 3d f0 92 30 3d
       0.39758077 -0.008149392 0.12225738 0.04310888
000270 c4 6f 38 3e b2 f1 52 3d 6f e7 11 bd 45 e2 98 3e
       0.18011385 0.05150003 -0.035621103 0.2986013
000280 3f 8d 26 be da ac b3 3d e8 6a 40 bc 08 74 ce bd
       -0.16264819 0.08773203 -0.011744238 -0.10080725
000290 e9 d2 14 3e 21 df b7 3d b7 a0 89 bd 3a 7a 3e 3d
       0.14533581 0.08978105 -0.06720107 0.046503283
0002a0 11 c6 c1 bc b5 12 15 be 2b 70 48 3d bd 8e ff bd
       -0.023654016 -0.14557917 0.048935097 -0.12478397
0002b0 91 5c 46 bd 25 6b 06 3d d3 f4 ba 3d 30 6d d1 3d
       -0.048428122 0.032817025 0.09128728 0.10225904
0002c0 62 23 57 3e f6 59 c6 bd a3 b4 98 bd a7 e9 30 bc
       0.21009591 -0.096851274 -0.07456329 -0.010797895
0002d0 41 90 e8 bd 6a 16 6b bd 24 6b 99 3e b8 cb 65 3d
       -0.11355639 -0.057394423 0.29964554 0.056102484
0002e0 8b df 57 bd 38 33 49 be 81 08 88 be 9f 39 5c bd
       -0.05270342 -0.19648445 -0.26568988 -0.05376589
0002f0 4e 29 3b 3b 43 70 bc bc 85 3c 8c bd ba 02 ce 3c
       0.0028558555 -0.02300275 -0.06847481 0.025147785
000300 30 33 73 3e 8c 6f 9a 3d 6d 3e bf 3d 9f d1 47 3d
       0.23749995 0.07540807 0.09338079 0.048783895
000310 a7 07 cf 3c 26 05 75 3d 05 b1 d9 bd a3 77 38 be
       0.025272204 0.059819363 -0.10629467 -0.18014388
000320 1d 3b ac 3d 03 e1 2a 3e e7 cd 65 3d 4f c1 6a 3d
       0.084097125 0.16687398 0.056104567 0.05731326
000330 6d b8 a2 bd 6d 70 18 bd cb 4c 85 bd c8 84 aa 3b
       -0.07945333 -0.037216593 -0.06508788 0.005203817
000340 7a 08 71 3d 7a ad 82 3d 8e 9e f7 bd 76 8d 23 be
       0.058845975 0.06380744 -0.12090789 -0.15971932
000350 85 5a b1 3d 12 cb 7e 38 6c 2e 9e 3d 4d a3 ec bd
       0.08659843 6.0747443e-05 0.07723698 -0.11554585
000360 24 cf 00 be 85 32 1c bd 1b ba 10 3d e4 d6 85 3d
       -0.12579018 -0.038134117 0.035333734 0.06535128
000370 95 b4 4f 3e 6f df 90 3c 0c 36 76 3e b8 6b f5 3c
       0.2028373 0.017684666 0.24044055 0.02995859
000380 86 aa 67 3e 22 0c 29 3e 51 88 34 3e 84 cd f7 3a
       0.22623643 0.16508535 0.17630126 0.0018905853
000390 ca 46 ce 3d d5 93 ac 3d f6 74 e3 bd b9 8b 36 3e
       0.10072096 0.08426634 -0.11106293 0.17826737
0003a0 d1 09 8d bd f2 e0 8c 3d 19 be f8 3d 47 21 2c bd
       -0.06886638 0.068788424 0.12145633 -0.042023923
0003b0 19 20 e6 bd 65 58 81 3e df 97 8f bb 03 5a 94 bd
       -0.11236591 0.25262752 -0.004382118 -0.07243731
0003c0 4d 4f b6 3a f0 53 3e bd 35 07 6a 3d 6e af 9d 3c
       0.0013909132 -0.046466768 0.05713578 0.01924869
0003d0 5b d8 1e 3c dc 4c 70 bd 88 85 49 3e 11 a4 f5 bd
       0.009695138 -0.05866705 0.19679844 -0.11994184
0003e0 01 56 d9 3d 42 fe a8 bc c0 7f c7 bd 6d f2 73 bd
       0.10612107 -0.020629052 -0.09741163 -0.059557367
0003f0 64 c6 1e bd 1d 4f d3 bd 7f bb ad 3c 63 a9 7e bc
       -0.03876342 -0.10317824 0.02120757 -0.015543315

bottle_neck.1.conv_block.2.weight f4 [32]
000000 3a b4 6b 3f 93 03 7a 3f 41 8a 84 3f 62 09 6f 3f
       0.9207188 0.97661704 1.0354692 0.9337369
000010 e8 f1 52 3f 8c 23 82 3f c2 47 80 3f ff 37 5b 3f
       0.8240037 1.0167098 1.0021899 0.8563232
000020 0a 34 8f 3f b1 e1 6d 3f fe 5d 52 3f f1 9d 69 3f
       1.1187756 0.929225 0.8217467 0.91256624
000030 4f e7 5b 3f d5 d1 79 3f 64 cd 79 3f 3e 32 7e 3f
       0.85899824 0.97585803 0.97579026 0.99295413
000040 9c ec 7d 3f 99 c0 6c 3f 59 dd 78 3f 5b 54 8a 3f
       0.9918916 0.9248138 0.9721275 1.0806993
000050 0f 8f 6a 3f c1 43 86 3f e9 b7 8d 3f 17 ba 63 3f
       0.9162454 1.0489427 1.107175 0.88955826
000060 ea 33 7c 3f 36 b4 5a 3f c2 bb 4c 3f 09 fb 83 3f
       0.98516715 0.8543123 0.79973996 1.0310985
000070 2e a0 65 3f 2b c5 88 3f 2a 8e 6c 3f a1 90 6d 3f
       0.8969754 1.0685171 0.92404425 0.9279881

bottle_neck.1.conv_block.2.bias f4 [32]
000000 39 2a a0 be c9 9d dd be ec 31 14 be 0d da ae be
       -0.31282213 -0.43284443 -0.14472169 -0.34150735
000010 d6 5b 02 bf 1e 38 73 be 4b c4 dd be a9 96 cc be
       -0.5092138 -0.23751876 -0.43313822 -0.39958695
000020 83 71 a7 be 2d 95 a6 be c9 5d 93 be c7 ef be be
       -0.3270379 -0.32535687 -0.2878249 -0.3729231
000030 d8 cf e2 be de f1 ec be ae 4b 38 be 9c 71 f2 bd
       -0.44299197 -0.4627828 -0.1799762 -0.118380755
000040 33 d1 a2 be 3d 8f e7 be a8 0b 86 be aa a3 9a be
       -0.3180023 -0.4522647 -0.26180768 -0.3020299
000050 eb 6a 97 be ae 19 80 be d1 91 d9 be c6 e0 4b be
       -0.2957376 -0.25019592 -0.42494062 -0.19909963
000060 8c f5 b6 be 6c 26 d1 be b7 b5 b8 be fa 1a e7 be
       -0.35734212 -0.40849626 -0.36076137 -0.4513777
000070 02 c3 a8 be 9a 3c 0e bf 54 fe 16 be 23 a7 b4 be
       -0.3296128 -0.5556122 -0.14745456 -0.35283765

bottle_neck.1.conv_block.2.running_mean f4 [32]
000000 9f 5b 13 40 99 cf 28 be 59 a4 79 3f ae 2a 04 bf
       2.302467 -0.16485442 0.975164 -0.51627624
000010 45 99 85 3e a9 4d b6 3f 62 50 ec 3d 15 e4 f3 3f
       0.26093498 1.424245 0.11538769 1.905398
000020 1e 55 e6 3e 17 07 37 bf 50 4c eb bf e8 c1 58 bf
       0.44986814 -0.71495193 -1.8382664 -0.8467088
000030 f0 c1 63 be 25 3d 4b bd ce 1c b7 3f 53 0f a5 bf
       -0.2224195 -0.04961886 1.4305665 -1.2895302
000040 10 66 16 40 f8 52 0b 3f 85 d3 d0 3e 97 a8 10 40
       2.3499794 0.54423475 0.40786377 2.26029
000050 4c 99 b0 3e 12 26 4e 40 25 83 4a bd 5f 0f a3 be
       0.34491956 3.2210736 -0.049441475 -0.31847665
000060 68 c4 55 3f d1 24 0d 40 5e 62 92 bd 7f b1 43 bf
       0.8350282 2.205372 -0.07147668 -0.7644271
000070 87 4e 3a bf 8e b3 16 be 42 8f 1a 3f cf 13 a3 bf
       -0.72776073 -0.14716932 0.60374844 -1.274042

bottle_neck.1.conv_block.2.running_var f4 [32]
000000 6e 6b ea 41 7f eb c8 41 38 c8 38 42 b4 da b2 41
       29.302456 25.114988 46.195526 22.356789
000010 a1 2a 12 42 33 53 c0 41 6e 2d 07 42 ce 13 0d 42
       36.54163 24.040625 33.794365 35.26934
000020 a3 49 ef 41 c2 89 00 42 88 16 07 42 4a ee f6 41
       29.910955 32.13453 33.772003 30.866352
000030 df 1b ce 41 9c b6 b5 41 54 e8 f4 41 eb 29 e8 41
       25.763609 22.714165 30.613441 29.020468
000040 37 a1 1b 42 42 b5 c1 41 c6 0b 12 42 1b 2e d3 41
       38.907436 24.213505 36.511497 26.397512
000050 41 af 01 42 96 d0 39 42 14 d0 bb 41 42 6e 05 42
       32.421146 46.453697 23.4766 33.357674
000060 1e 57 ce 41 cf 80 fd 41 b4 e4 e3 41 bc ba cf 41
       25.792538 31.687895 28.486671 25.966179
000070 f7 5e 0f 42 bf a4 de 41 da e4 39 42 b7 b8 ad 41
       35.84274 27.830442 46.473488 21.715193
